models/Median/globalmodelexperiment_log-2023-09-05-0939-17.pth (torch, 375691 bytes, 14 tensors)

features.conv1.weight f4 [6, 3, 5, 5]
00000000: f610 d03d 48c1 48bd 18b7 d9bd f41b c83d
00000010: e0fb e1bc f63f d03d e4ba a1bc e82a 843c
00000020: 0033 c23d 18aa 053d 59de e9bd 6203 c03d
00000030: ef90 dcbd 0d24 a1bd f0cc 64bc 53d9 b3bd
00000040: d6d7 71bd b046 63bd 42c2 e53d fc12 f2bc
00000050: fbbb c7bd 42ea c93d 5a44 36bd 7ccb 0cbd
00000060: 9fd2 e7bd 745b 9ebc 035c a6bd a4f0 643d
00000070: 309d 96bb 58e5 2dbd 2461 1d3d 5ef9 20bd
00000080: 7037 be3b b43e a43d 1856 e9bd bcad 3fbd
00000090: 1c99 0cbd a40f 163d f0e4 a93d c42c 823d
000000a0: dc69 bdbd 384b a93c 28e9 de3c a866 bb3c
000000b0: 7da4 acbd 8c41 b2bd 6060 603d d4c5 ba3d
000000c0: 5060 053c f4e9 cebd 066e a83d 78ea 9f3c
000000d0: a9ce 7fbd dced e33d 14e7 a23d 6e44 38bd
000000e0: e524 d1bd a836 e03c 461f 08bd 14c5 e7bc
000000f0: 70d8 92bb 0097 68bb 8c76 bf3d dcb9 133d
00000100: 65b3 adbd 1ccf e3bd f4b2 363d 1415 e5bc
00000110: 98d4 52bc 9070 a93d ae0d b73d da3a af3d
00000120: c170 c1bd 9c1d eabc 68b4 0c3c 6cd6 723d
00000130: c8e7 5c3d b6d3 b5bd e230 95bd 224d a33d
00000140: 0255 dcbd 8074 f43b 7ef5 963d 8020 2a3c
00000150: 90fd eebb 685f e13c c04e d4ba 50bb 333c
00000160: d09d 353d f811 bb3d 541b 413d 122e a93d
00000170: b636 e93d f839 bdbc 0463 cc3d f8df 6fbc
00000180: 20bd febc aeb7 3ebd e8bc 7a3d 8e95 bf3d
00000190: 406e 7f3c 600c 903d b4f5 693d 5428 d83d
000001a0: 8822 dc3d ecd7 123d de9e bbbd 7c7d 9ebc
000001b0: fc50 ffbc f082 733d 68a5 a1bc fc70 763d
000001c0: 07a8 83bd 259e eabd 681d 3e3d ec80 d13d
000001d0: f04a cf3b e872 0bbd 407c 49bb 6cdd 053d
000001e0: 867e e4bd eca6 b0bc 2598 d9bd 24ea 653d
000001f0: 0c01 0abd 004e fbba a8ab c6bd 7a3f de3d
00000200: 988a 28bc 0ca6 81bd 00fb 5cbd f09e e5bb
00000210: 807b 343a c015 a13d f86a 6a3d 10fa 3c3c
00000220: 5ee7 8c3d 3444 a3bc 04ee 9f3d 947c aabd
00000230: 6cb7 58bd 98b8 cbbc c858 4a3d 88bb 243d
00000240: 24e0 f6bc 6e22 9d3d a2ed 9b3d 181b 833d
00000250: 6017 f53c 8a14 e5bd 5041 ee3c 1efc a4bd
00000260: 1a17 9e3d f08a 5cbd baa0 4abd 98d2 dfbd
00000270: 0081 1ebc 087d bcbc 57ad bebd a083 113c
00000280: 9ccf 5a3d 680c a3bc 12cb dbbd 4450 cb3d
00000290: 8041 b7bb 30cf 263c 78e3 183d f828 3e3d
000002a0: 34c5 6d3d f052 93bb 5043 343c b458 0e3d
000002b0: 8023 163d e030 20bd 7018 093c a0f1 803d
000002c0: 8602 b9bd 960e db3d 37b2 a9bd 3ed0 e93d
000002d0: 90af ee3c 38ac 213d e4a1 473d dce6 533d
000002e0: 3686 36bd d400 a7bd fec5 bfbd 9481 7c3d
000002f0: 3e87 9d3d 1cba d6bd 38f7 53bd 568a a73d
00000300: e681 81bd e854 e23c 3055 9c3d 784c 963d
00000310: f051 67bd 107b 11bc d2ae 3abd 6cf6 e7bd
00000320: 0e0b c33d cc17 b83d 93b6 dbbd c320 d0bd
00000330: de51 9c3d ec5b 77bd 0e2e e53d 34b1 d6bc
00000340: f0f7 083d 1ee6 15bd e058 afbd 297d c3bd
00000350: 68d8 d6bc d84b 8e3c 9282 ccbd 0653 9c3d
00000360: 069b c23d 006d 9d3a b46f 9b3d dcfb 643d
00000370: 78ea 1ebc 767b ccbd 7ac2 40bd 1678 c33d
00000380: 4404 4bbd f892 a83d 4409 253d 4e5c 913d
00000390: 61e8 c4bd 52e2 9a3d 60ac b2bc 7eaa dd3d
000003a0: cc4b bebc 600c e1bc 8268 a0bd f299 4ebd
000003b0: 1a95 d1bd c8f4 8fbd ac1e 0e3d 7eb7 c03d
000003c0: a801 8f3d 1cb2 133d 10d4 613c 2059 3e3c
000003d0: 54f2 593d a0ef e8bc d87b 833c c875 783d
000003e0: f0e6 8bbc c4f3 373d 9416 123d 5c25 0c3d
000003f0: 5c65 36bd 28ee 293d 0024 c6bb 50e5 153d
0.10159485 -0.049012452 -0.106306255 0.09770957 -0.027585924 0.101684496 -0.019742437 0.01613374
0.09482384 0.032632917 -0.114193626 0.09375645 -0.107698314 -0.07868204 -0.0139648765 -0.08781686
-0.059043728 -0.055487335 0.11218692 -0.029550068 -0.09752651 0.09859134 -0.04449878 -0.034373745
-0.1131947 -0.019330718 -0.081230186 0.055893555 -0.004596375 -0.042455047 0.03842272 -0.039300315
0.0058049485 0.08019772 -0.11393374 -0.046796545 -0.034325704 0.03663601 0.082956195 0.063561946
-0.09248707 0.02066575 0.027210787 0.022876099 -0.08429811 -0.08703908 0.05477941 0.09119764
0.0081406385 -0.10103217 0.0822411 0.019520983 -0.062452946 0.111293525 0.07954231 -0.044987135
-0.10212115 0.027369812 -0.03323295 -0.028292216 -0.0044813678 -0.0035490394 0.09348783 0.03606592
-0.084814824 -0.11123487 0.044604257 -0.027964152 -0.012868069 0.08273423 0.08938156 0.08556147
-0.09445334 -0.028578572 0.008587934 0.05928652 0.05393198 -0.08878271 -0.07284714 0.07973696
-0.107584015 0.007460177 0.07371043 0.010383725 -0.0072934106 0.027511314 -0.0016197786 0.010969952
0.044339955 0.09134287 0.047145203 0.0826074 0.113873884 -0.02309893 0.09979823 -0.014640801
-0.031096041 -0.04656189 0.06121531 0.09354697 0.0155902505 0.0703361 0.057119086 0.10554567
0.10748774 0.03585045 -0.09161161 -0.019346945 -0.031166546 0.059451044 -0.019732192 0.060166344
-0.06428533 -0.11455945 0.046414763 0.10229668 0.006326072 -0.03404513 -0.0030744225 0.032681867
-0.11156945 -0.02156397 -0.106247224 0.056131497 -0.033692405 -0.0019173026 -0.097007096 0.10851951
-0.01028695 -0.06330499 -0.05395031 -0.007007472 0.0006884858 0.078654766 0.05723092 0.011534229
0.06880067 -0.019929983 0.0780907 -0.08324543 -0.0529093 -0.024868295 0.049401075 0.040217906
-0.030136175 0.076725826 0.07613684 0.06401652 0.029918373 -0.11185558 0.029083878 -0.080559
0.0771925 -0.05384344 -0.049469687 -0.109288394 -0.009674311 -0.023008838 -0.09310406 0.0088814795
0.053420648 -0.019903377 -0.10732092 0.09927419 -0.005592525 0.010181233 0.037326306 0.04642579
0.058049396 -0.004495971 0.011002377 0.034752563 0.03665495 -0.03910911 0.008367643 0.06296086
-0.090336844 0.106961414 -0.08285945 0.11416672 0.02913645 0.03947088 0.048738375 0.051733837
-0.044561587 -0.08154455 -0.09363936 0.061647013 0.07691811 -0.10484716 -0.051749438 0.08180682
-0.06323604 0.027628377 0.07633436 0.07338804 -0.056474626 -0.008879438 -0.045576878 -0.11326298
0.09523593 0.08988914 -0.10728183 -0.10162499 0.076328024 -0.060390398 0.11190425 -0.026207544
0.033439577 -0.03659641 -0.085618734 -0.09545357 -0.026226237 0.01737015 -0.09985842 0.07633023
0.095022246 0.0012010634 0.07589665 0.055904254 -0.009699456 -0.09984486 -0.047060467 0.09544389
-0.049564615 0.08231157 0.04029204 0.07097684 -0.09614635 0.075626984 -0.02181071 0.108235344
-0.023229502 -0.027471721 -0.07832433 -0.050439782 -0.10233517 -0.0702911 0.03469722 0.09409998
0.06982738 0.03605853 0.01378347 0.011617929 0.053209618 -0.028434575 0.016050264 0.0606592
-0.017077893 0.044910207 0.035666063 0.034215316 -0.044530258 0.04148689 -0.006046772 0.036595643

features.conv1.bias f4 [6]
00000000: 3081 1a3d 0834 863d d40f a6bd 9c0b c73d
00000010: 0ccd 373d a096 1a3b
0.03772086 0.06552893 -0.08108488 0.09719011 0.044873282 0.0023588315

features.conv2.weight f4 [16, 6, 5, 5]
00000000: 9000 2c3c 1e31 8d3d d4a1 82bd 4c5d f9bc
00000010: d9f0 24bd 30b3 c93b b840 543c a207 81bd
00000020: 386d ac3c 360d 903d 7498 89bd 8084 823d
00000030: c0b5 ca3b 0aa6 33bd 28cf 6e3d 1902 80bd
00000040: 46da 9d3d 846d 7e3d e6d6 69bd 7c07 97bc
00000050: 3c8a 503d d0b7 15bc 80e7 50bb d8a7 653d
00000060: 7092 3d3d 608a a63d 303f 0cbc e0c6 723b
00000070: 2e14 75bd 7047 d5bb 6e2c 6bbd 640b 383d
00000080: 5886 00bd 320a 1a3d ba5a a43d c461 fcbc
00000090: 1450 353d 246a 973c 64c3 e33c cec4 04bd
000000a0: 1806 2bbc 66be 873d 6a76 debc cc0b 86bc
000000b0: c45a 3b3d 4063 a43c 1a46 58bd 58c9 633d
000000c0: 9fe2 98bd 2873 933c d0c8 47bc 3011 ce3c
000000d0: e5d5 36bd c8b9 3a3d 7303 42bd 28fe ca3c
000000e0: 54da b5bc 0d18 94bd 22ac 993d 28e5 da3c
000000f0: 00b9 943a d08b 9ebb ceff 71bd faaf 163d
00000100: d2f0 a3bc 09d1 55bd 00a7 f3ba baed 1c3d
00000110: 6cdc 95bd 00e3 a3bb 6285 1e3d e841 79bc
00000120: e8a7 2fbd 00f8 a139 dd31 8cbd 54df 563d
00000130: c460 8dbc 284e c03c ecfe 28bd a82e 483d
00000140: 5238 6cbd 3860 bf3c ba10 62bd 0c23 5d3d
00000150: 33ea 39bd c0a7 663b f8c2 77bd 70f1 96bc
00000160: 80b3 41bb 2c8e 53bd 6ebb 32bd 1c8f 403d
00000170: 1c50 8fbc 1858 05bc 48fd 6f3c b893 683c
00000180: 2cc0 9c3d b08d a4bd b098 f0bc 340c 8abd
00000190: 2884 363d 38e9 1b3c 603a 7b3d ce0a 033d
000001a0: 7a4c 943d 08ac 313d 3cc3 b93c e046 96bc
000001b0: 98dd e13c 6664 16bd dc78 d63c 60de 51bc
000001c0: e08f 5a3d d6ff acbc a5e9 3bbd 9e8f 1ebd
000001d0: 36d4 cebc c0ed b33b fd7b 95bd 54d8 f93c
000001e0: 4837 c33c 90f3 9f3b 4430 383d a006 febc
000001f0: 2671 f0bc 488b 403c 8431 6d3d f4de 6b3d
00000200: 5021 abbc d012 f33c 169a 933d 149d 933d
00000210: e0fc 5cbb 80c5 37bc 04b9 933c 6c30 33bd
00000220: 04ec ff3c f8db 103c 5030 ba3c 9069 94bd
00000230: e8b4 f4bc f080 4a3d 7c5e 073d 342b 7a3d
00000240: 2ea3 8b3d fa95 9dbc 6659 2e3d 10f0 eabc
00000250: b849 2abc 3d69 8abd fe1a e5bc 84ae fa3c
00000260: c1cc 41bd dc21 813c 8088 6e3d 4c50 013d
00000270: 38fe 073d 2e62 213d 2809 a4bd 4c02 cb3c
00000280: a0e7 4bbb 00ef 8fbb 9abf 48bd 2dd9 a1bd
00000290: 4031 cebb 00e6 393a 20a8 833d 6020 313c
000002a0: be83 913d 2968 22bd 244e 453d 20d6 803d
000002b0: b054 303d d041 51bd 1f5d a5bd 4c5a 91bc
000002c0: 0e32 49bd 579a 47bd 60b3 4ebb 10b5 e63b
000002d0: f440 643d 803b ea3b 2547 a1bd d446 61bd
000002e0: 348c e5bc 24d9 79bd 1437 4fbd d633 973d
000002f0: 6055 213b 0ea3 2d3d 3ce8 b73c dc93 febc
00000300: a893 033d b4e9 583d 90df 91bd d8d6 973d
00000310: e072 1abb 9433 95bd 362c 203d c07b be3a
00000320: f9a7 a3bd 8a0c a2bd 4ed0 93bd 405a a83a
00000330: e052 0a3d 3855 523c 94a1 07bd 644b a43d
00000340: 68c4 743c c06a 923b d8b9 1e3c 632a 8cbd
00000350: ac10 ad3c 0479 813d 405e 95bb 5045 29bd
00000360: 4c14 d63c 0c78 353d ea8a 81bd 6600 2c3d
00000370: 7076 2dbc e0b2 403c da35 f5bc f0ff 9dbb
00000380: 86f2 a53d 7059 2dbd ae9e 903d 70fa 803d
00000390: 9f81 05bd 52aa 67bd 603c 6abc 1ae4 8c3d
000003a0: b95b 11bd 4464 65bd 88a2 79bc b8fc 4ebc
000003b0: 44be 333d 6385 0fbd 6822 d0bc bdbd 0bbd
000003c0: a0df a3bb ec14 82bc 4ecd 04bd 4086 53bd
000003d0: 700c 2f3c f618 83bd e482 6f3d 0206 143d
000003e0: 56a8 3cbd 049f ba3c d765 83bd 6061 763d
000003f0: 424c dcbc 84d6 4f3d 2c25 d9bc e74c 6abd
0.010498181 0.06894134 -0.063785225 -0.030439995 -0.040268753 0.006155394 0.012954883 -0.06300284
0.021048173 0.0703377 -0.06718531 0.063729286 0.006186217 -0.04385952 0.05830303 -0.062504
0.07707648 0.06211616 -0.05708971 -0.018436186 0.05091308 -0.009138063 -0.0031876266 0.05606827
0.04628223 0.08131862 -0.008559987 0.0037044808 -0.059833698 -0.00650876 -0.05741542 0.044932738
-0.03137812 0.03760738 0.08025117 -0.030808337 0.04426582 0.018483229 0.02780313 -0.03241425
-0.010438465 0.066281125 -0.027156074 -0.016363047 0.045740858 0.020066857 -0.05280123 0.05561194
-0.074650995 0.017999247 -0.0121938735 0.02515468 -0.04463758 0.04558733 -0.04736657 0.024779394
-0.022198834 -0.0723115 0.07503535 0.026720598 0.0011346638 -0.0048384443 -0.059081845 0.036788918
-0.020012293 -0.052201305 -0.0018589199 0.03831265 -0.07317433 -0.0050014257 0.038701423 -0.015213467
-0.042884737 0.00030893087 -0.06845448 0.052459076 -0.017258056 0.023474768 -0.041258737 0.04887262
-0.0576709 0.02336131 -0.055191733 0.0539885 -0.045389365 0.0035195202 -0.06048867 -0.018425673
-0.0029556453 -0.051649258 -0.043635778 0.04701148 -0.017494254 -0.008138679 0.014647789 0.014195375
0.076538414 -0.08034837 -0.029369682 -0.06740609 0.044559628 0.009516053 0.061334968 0.031992726
0.07241149 0.043376952 0.022676103 -0.018344343 0.027571484 -0.03671684 0.026180677 -0.012809366
0.053359866 -0.021118086 -0.045877118 -0.038711183 -0.025247674 0.0054909885 -0.072990395 0.030498661
0.023830071 0.00488133 0.044967905 -0.031009018 -0.029350828 0.011751957 0.05790855 0.05758567
-0.020889908 0.029672056 0.07207124 0.07207695 -0.0033720061 -0.011216521 0.018032558 -0.04374735
0.03124047 0.008841507 0.022728115 -0.07246697 -0.02987142 0.04943937 0.03304909 0.061076358
0.068182334 -0.019236553 0.042565726 -0.028678924 -0.0103935525 -0.06758354 -0.027966972 0.030600794
-0.04731441 0.015763216 0.058235645 0.031570718 0.033201426 0.039400272 -0.08009559 0.024781369
-0.00311134 -0.0043925047 -0.04901085 -0.07902751 -0.006292492 0.00070914626 0.06428552 0.010810941
0.07105206 -0.039650116 0.048170224 0.06290841 0.043049514 -0.051088154 -0.08074402 -0.017743252
-0.04912 -0.048731174 -0.0031540021 0.0070406273 0.055726007 0.0071482062 -0.07874898 -0.054999188
-0.028020956 -0.060998097 -0.050589636 0.07382934 0.0024617538 0.04239183 0.022449605 -0.031076364
0.032123238 0.05295725 -0.07122719 0.07414025 -0.0023567006 -0.07285228 0.039104663 0.001453273
-0.079910226 -0.07912548 -0.07217465 0.0012844279 0.033770442 0.012837701 -0.033113077 0.08022192
0.014939405 0.004468292 0.009687863 -0.06844022 0.021126114 0.0632191 -0.0045583546 -0.041325867
0.026132725 0.04430394 -0.06325324 0.041992567 -0.01058732 0.011761397 -0.029932905 -0.00482177
0.08102898 -0.042321622 0.07061516 0.06297767 -0.03259432 -0.056558914 -0.014296621 0.068794444
-0.035487864 -0.056003824 -0.015236504 -0.012633495 0.043882623 -0.035039317 -0.025407031 -0.034116495
-0.0050010234 -0.015879117 -0.032422356 -0.051641703 0.010684118 -0.06401245 0.058474436 0.036138542
-0.046058975 0.022780903 -0.06415909 0.060151458 -0.026891831 0.050741687 -0.026506983 -0.057202246

features.conv2.bias f4 [16]
00000000: 1f42 37bd 60e2 94bc b841 903c e7a2 2dbd
00000010: e0c0 47bb 1fd9 38bd 20c6 3b3d e689 a23d
00000020: 2143 32bd 94b6 9a3d 80ae 883a 607d 84bd
00000030: e127 88bd 3072 09bd 4693 23bd 0087 0f3d
-0.044740792 -0.01817435 0.017609462 -0.042391684 -0.0030479953 -0.045128938 0.045843244 0.07936458
-0.04352105 0.07554355 0.0010427982 -0.06469226 -0.06648231 -0.033556163 -0.039935373 0.035040855

features.fc1.weight f4 [120, 400]
00000000: 12d9 c83c ed57 2fbd 63c2 033d da0c e23c
00000010: 0048 e6ba 667b 12bd dab8 fdbc 5776 d7bc
00000020: 0822 463c eada 843c 24a1 653c 0ea0 b53c
00000030: 574e 48bd fad7 fdbc 00c3 dabc 80eb 123c
00000040: a07b f6bc 68eb 08bc 1181 403d a81a 873b
00000050: a892 d93b 14ed 82bc 3eb8 1ebd 4273 c83c
00000060: eb39 243d 439b 18bd f6d1 933c 4259 993c
00000070: 12a5 fe3c 40b8 aa3a 3881 203c d250 2ebd
00000080: df72 45bd f3c3 3f3d 2252 b43c 6fa1 473d
00000090: 34b7 653c 0006 eabb 84d8 8abc b4d6 4b3c
000000a0: 9b09 343d aaea 813c 0cb8 65bc 9eb8 ac3c
000000b0: 2283 20bd c0b3 f5bc b224 f43c f379 b1bc
000000c0: 4ce4 03bc 45a0 2fbd 891f 393d 2d38 22bd
000000d0: 1865 a1bb 40b6 d5bb bef2 8b3c 2620 863c
000000e0: 61ec 413d 90ac dfbc b768 f5bc a7e9 2f3d
000000f0: 007c 0d3b 60ce 13bd 9a86 d13c 859f 053d
00000100: a8cf 57bc 8a1d 05bd b2bc 883c c9e0 473d
00000110: a6ef 90bc 2941 1c3d ee98 a23c 4b89 3d3d
00000120: 4de5 b7bc bd99 33bd 685d 893b 6c81 60bc
00000130: 8a16 9cbc 67e4 41bd a7fc 2dbd 8d72 3d3d
00000140: 8ab6 a23c 98c9 dabb d26f 823c aa35 843c
00000150: b310 28bd afe7 3abd a3e6 163d 1290 ed3c
00000160: a05e e93a a513 1cbd e8c4 c23b 5a76 b83c
00000170: 40b0 94ba 0329 41bd 42d6 d73c 20e3 adbc
00000180: 30d1 e4bb 62d5 02bd ed8a 103d 6a28 d43c
00000190: 7d84 253d 8761 cfbc 8b46 3d3d 4701 bfbc
000001a0: 404a 203c 4a34 25bd fdd0 203d 174b a3bc
000001b0: 2864 c8bb 7a09 44bd 121d bf3c 8db9 39bd
000001c0: 3f3a 463d 7301 36bd 2d85 edbc d202 ca3c
000001d0: b1de 063d 5a9b 9abc e7e0 233d 83c4 493d
000001e0: f9bf 0a3d d2d7 bb3c 5978 4c3d 0aa5 f4bc
000001f0: 92c6 993c 3666 f33c b22f a03c c017 02bc
00000200: b046 d03b c8c0 113c 5881 edbb 04fd 503c
00000210: 222d dd3c 4bfb 353d 2fad 483d 2a90 bf3c
00000220: 89c1 183d 4a02 e6bc e008 353c 05d2 443d
00000230: 511b 4c3d 531c b8bc 1811 48bd b495 77bc
00000240: 626f b03c 5572 08bd d17c 3e3d 0088 d2b9
00000250: dad6 ef3c 15d9 31bd 50b8 c8bc 1783 dcbc
00000260: 4b48 28bd ea2b 9abc 421a c13c 23a2 a5bc
00000270: fa5d 823c 1e7d c03c dbf0 2cbd 84a8 8bbc
00000280: f042 b33b 18ee dcbb e0d3 3dbb 705a ff3b
00000290: 32d5 af3c 2422 00bd 6042 4ebb 9066 b1bc
000002a0: 7e67 c13c 22fa ad3c adee 33bd b184 263d
000002b0: f559 463d 1866 cb3b d0aa 913b 8b55 283d
000002c0: 60eb f7ba 128c 28bd f9c2 203d c8de 2fbc
000002d0: a39f b4bc 53ba 1bbd e8f2 dfbb 9d3a 253d
000002e0: c7cc e4bc 1025 a6bb 2a22 9b3c fd2d 9cbc
000002f0: 5231 da3c 83ca 243d a082 c7bc 1045 aabb
00000300: 07d6 fabc 6cd5 1f3c 90a5 963b 345c 27bc
00000310: 3579 363d 34c6 653c 508f ffbc 0a0e 30bd
00000320: 8044 d83b 1ac0 b0bc edaf 133d 7853 14bc
00000330: 6f36 053d cf2c 243d ddff 1c3d 8d39 b2bc
00000340: 04e7 7a3c 1af5 c2bc 427e 9d3c 6830 6dbc
00000350: c074 fcbc f09e bbbc 67c8 9cbc f934 2f3d
00000360: fe71 05bd 428b cd3c 45e1 303d cca9 703c
00000370: 4816 373c aca3 07bd e67d f03c c06c 8bbc
00000380: b0d2 3d3b 33cf 19bd ea60 ccbc 6f78 273d
00000390: 7306 373d 6032 393c c18e 473d f679 f43c
000003a0: f827 24bd 4e9b 9c3c 6830 b43b f04c 90bb
000003b0: d068 3fbb a0ee f5bc 0c63 49bc 0004 5bbb
000003c0: 1620 00bd 27ed 313d 8206 b33c 3b5c 47bd
000003d0: 1807 02bd 13d2 fdbc 5e9d d63c b974 3b3d
000003e0: 408f 913b fc5c 4d3c 00f4 3dbd a7a2 44bd
000003f0: f251 dd3c b38b 363d b0c7 bb3b e0c7 6f3b
0.02451757 -0.042808462 0.032167803 0.027594019 -0.0017569065 -0.035762213 -0.030971933 -0.026301546
0.012093075 0.016217668 0.01401547 0.022171047 -0.048902836 -0.030986775 -0.026704311 0.00896728
-0.030088246 -0.0083569065 0.046998087 0.0041230507 0.0066397972 -0.015982188 -0.038749926 0.024469022
0.040094297 -0.037257444 0.018044453 0.01871932 0.031084571 0.0013024881 0.009796433 -0.042557545
-0.048205253 0.04681773 0.02201182 0.04873794 0.01402073 -0.0071418285 -0.016948946 0.012441326
0.043954473 0.015858967 -0.014020931 0.021084126 -0.039187558 -0.029992938 0.029802654 -0.021664595
-0.008050036 -0.042877454 0.04519609 -0.039604355 -0.0049253814 -0.00652197 0.017083522 0.016372751
0.04734457 -0.027303964 -0.029957158 0.042947438 0.0021588802 -0.036085486 0.025576878 0.032622833
-0.013172068 -0.032498874 0.01669154 0.048798356 -0.017692398 0.03814808 0.019848313 0.04627351
-0.022448206 -0.043847788 0.004192043 -0.013702732 -0.019053716 -0.047336962 -0.042477276 0.046251822
0.019862432 -0.006676864 0.01592246 0.01613887 -0.04103155 -0.045631107 0.036841046 0.028999362
0.001780469 -0.038104672 0.005943883 0.022517372 -0.001134403 -0.047158252 0.026347283 -0.021226466
-0.006982945 -0.03194178 0.03528874 0.025898177 0.040409554 -0.02531506 0.046209853 -0.023316039
0.009783328 -0.04033307 0.039261807 -0.019933267 -0.006115455 -0.0478606 0.023329291 -0.04534297
0.04839539 -0.044434976 -0.028994167 0.024659548 0.03292722 -0.018872906 0.040009405 0.049259674
0.033874486 0.02293006 0.04991946 -0.029863853 0.018771444 0.029711824 0.019553993 -0.007940233
0.006356083 0.00889606 -0.007248085 0.012755636 0.02699906 0.044429105 0.048993286 0.023384172
0.037293945 -0.028077263 0.011049479 0.048051853 0.04983074 -0.022474444 -0.048844427 -0.015111376
0.021537486 -0.03331216 0.046505753 -0.0004015565 0.029277254 -0.043419916 -0.02450195 -0.026917977
-0.04108457 -0.018819768 0.023572091 -0.020218914 0.015913952 0.02349716 -0.042221885 -0.017048128
0.005470626 -0.00674225 -0.0028965399 0.0077927634 0.021463964 -0.03128256 -0.0031472668 -0.02165535
0.02360892 0.021237437 -0.04392879 0.040653888 0.048425633 0.006207239 0.0044454113 0.041097205
-0.0018914752 -0.041149206 0.03924844 -0.0107342675 -0.022048777 -0.03801949 -0.0068343766 0.0403391
-0.027929677 -0.005070336 0.01893719 -0.019064898 0.026634846 0.040232193 -0.024354279 -0.005196221
-0.030619634 0.009755474 0.0045973733 -0.010214854 0.044549186 0.014024306 -0.031196266 -0.04298214
0.0065999627 -0.021575976 0.036056448 -0.009053104 0.032522615 0.040081795 0.038329948 -0.021755958
0.0153138675 -0.023798514 0.019225243 -0.014476873 -0.03081739 -0.022902936 -0.019138528 0.042775128
-0.032579415 0.025090817 0.043183584 0.01468892 0.011174746 -0.033115074 0.029356908 -0.01701963
0.002896469 -0.037551116 -0.024948556 0.04088634 0.044683885 0.011303514 0.048720125 0.029843312
-0.04007718 0.019117024 0.0054989345 -0.004403703 -0.002920676 -0.030021012 -0.012291681 -0.0033419132
-0.0312806 0.043439057 0.02185369 -0.048671942 -0.031745046 -0.03098396 0.026198085 0.045765612
0.0044421256 0.012534376 -0.046375275 -0.04800668 0.027016614 0.04456682 0.0057305917 0.003658764

features.fc1.bias f4 [120]
00000000: 4c11 05bc 3773 d6bc 56cc a43c d214 dc3c
00000010: 8fbd 1f3d dab4 3bbd e04c 65bc 730d c7bc
00000020: 5098 7c3b d86a c73b 00f8 b83b 33f6 3e3d
00000030: db72 0fbd aa35 12bd 6074 16bd f5ea 0e3d
00000040: fab9 12bd a249 c13c 8781 2c3d 9098 c43b
00000050: c090 c13a f089 adbb 584d dd3b 0731 483d
00000060: 8303 ecbc 05f6 313d 0bc9 263d 88f9 45bd
00000070: 009b c6ba 559d 393d 4c31 0bbd 302f 24bb
00000080: 9e85 973c 405a feba 66d3 933c 5285 c23c
00000090: 4e89 c93c 143b 7bbc f341 f4bc a803 923b
000000a0: 37ea 123d 046a 673c 29f7 0b3d 1150 493d
000000b0: 478a 3d3d cae3 9e3c 6c4a 35bc 32a4 ff3c
000000c0: 32af 983c 9273 a33c 32bf 873c d0cb c6bb
000000d0: d30a bebc b0d6 fb3b 20c1 4dbb 4809 18bd
000000e0: 3a71 86bc 20e8 80bc fa32 923c 9ce1 08bd
000000f0: 005c 44ba 61ae 283d b8d2 40bc 42de 21bd
00000100: d6e7 09bd 324a 1bbd a6fb d73c e82f 61bc
00000110: 4b92 24bd 6022 6bbb 3494 543c 5fd3 3d3d
00000120: f702 313d 287c 1bbd 34c3 203c 22a0 db3c
00000130: f254 1dbd 0090 373c b136 3f3d b34d c9bc
00000140: 2ea4 9f3c e704 443d 00d9 cf3b 6027 a1ba
00000150: 3a69 43bd 0026 97ba 27a3 e0bc 1cdc 8abc
00000160: ac06 8fbc 7ba5 17bd 3d8e 453d 78bf 2bbc
00000170: d2e5 d93c 284f 8ebb fb00 0e3d a0a0 4b3c
00000180: 603d 53bb 8349 bebc 1878 2f3c bf0a 3e3d
00000190: a08d e5bc c865 33bd 601b 67bb b03c b0bb
000001a0: 152c 073d 00e5 f4bc 159f 21bd 949f 093c
000001b0: ee78 8f3c 50b9 afbb 7ade 2abd a1b0 423d
000001c0: 8b05 35bd ccc3 0abc e6e2 8a3c 9211 c23c
000001d0: 85ba 193d 7fd5 1c3d c2b2 cd3c f799 b1bc
-0.0081218 -0.026177986 0.020116966 0.026865397 0.038999137 -0.04582677 -0.013995379 -0.024298405
0.0038542934 0.006085735 0.0056447983 0.046621513 -0.035021644 -0.03569571 -0.036732078 0.03489204
-0.035821892 0.023594681 0.042115714 0.005999632 0.001476787 -0.0052959844 0.006753605 0.04887488
-0.028810268 0.043447513 0.040719073 -0.048333675 -0.0015152395 0.04531606 -0.03398256 -0.002505254
0.01849633 -0.0019405559 0.018045139 0.023745213 0.024601605 -0.01533391 -0.029816603 0.0044560023
0.035867896 0.014124397 0.034171257 0.049148623 0.04627445 0.019395728 -0.011065107 0.031206224
0.018638227 0.01995257 0.016570661 -0.006066777 -0.02319852 0.007685505 -0.003139563 -0.037118226
-0.016411413 -0.015735686 0.017846573 -0.033418283 -0.00074905157 0.041181926 -0.011768989 -0.039518602
-0.03366836 -0.037912555 0.026365113 -0.013744332 -0.04017858 -0.0035878643 0.0129747875 0.046344157
0.043215718 -0.0379602 0.009812165 0.026809756 -0.03841109 0.011203766 0.046683017 -0.024573183
0.019487467 0.047856238 0.006343007 -0.001229506 -0.047707774 -0.0011531711 -0.027421547 -0.01695066
-0.017459236 -0.03702305 0.048231352 -0.010482661 0.026598845 -0.0043429323 0.034668904 0.012428433
-0.0032232627 -0.023228412 0.010709785 0.046396967 -0.028021634 -0.043798238 -0.003526412 -0.0053783283
0.033001024 -0.029894352 -0.039458353 0.008399863 0.017513718 -0.005362667 -0.041716076 0.047531728
-0.04419474 -0.008469533 0.016953897 0.023690019 0.037531395 0.038289543 0.025109652 -0.021679861

features.fc2.weight f4 [84, 120]
00000000: 72b0 083d 58a4 19bd 086a 8fbc 806a 9dbc
00000010: 3ce1 383d 3871 3dbc f84f 58bc 800a 7b3b
00000020: a2ec 55bd 9b03 99bd d83a 68bc 07e5 53bd
00000030: a252 933d 8819 533d 9876 3fbd 3e8b b1bd
00000040: 0a9f a73d 08a7 0c3d da76 91bd 2af4 abbd
00000050: 9ca9 79bd 40f9 ffbc 4895 69bc 783b 183d
00000060: ea6a 8fbd b0e7 483d 4cbc a33d 6d97 8ebd
00000070: 28dd d2bc eeed 84bd c057 083c ac43 9bbc
00000080: 7a99 9e3d 31e3 11bd 6cf0 92bd d684 893d
00000090: 1f13 48bd f869 173c c0ab 8a3d a43b a73d
000000a0: dbc9 4cbd 8096 8a3c c0ba 3d3d c886 f63c
000000b0: de9a 49bd 0ee8 013d 69da 4bbd 54c0 3c3d
000000c0: 30af 8c3d 08e0 5b3c 543b d3bc 9e50 49bd
000000d0: ce63 8f3d 3cb7 583d 80dc d23c a0b6 9fbc
000000e0: 40c7 70bb 7455 4d3d ce73 a33d f03c 5d3c
000000f0: 4087 37bb a888 613d cb8f 27bd 364d 85bd
00000100: d852 1bbd 7b74 acbd 00ad 423a 5584 17bd
00000110: 363e 99bd 9226 a2bd 3fa0 a3bd 5c84 9e3c
00000120: 00ed 603b 1cc7 853d 5ae0 97bd b89a 753d
00000130: f0ef 2abc 14ef 453d 7657 993d 30e9 233d
00000140: 4a19 b43d 39aa adbd 7810 d8bc cfa1 35bd
00000150: 1401 c63c 2c8c 8c3d 6270 023d 2e2d 9dbd
00000160: 3cf9 ed3c d0ff 453d b05a 7fbc 96df 31bd
00000170: c315 b9bd 7889 4e3d aa04 76bd 9049 d13c
00000180: b065 833d 788d babd 6e4e 11bd 7642 ad3d
00000190: 60ff 44bc 8c4f 50bd 51fb 0ebd 969f 003d
000001a0: 94a8 463d 30b8 4ebc 0066 7f3d 08c6 ae3d
000001b0: c89f 403d 94a5 793d 44a6 8e3c b9fd 66bd
000001c0: 4005 c4bb 038f 3ebd a091 d53c 20c7 783b
000001d0: 76c4 91bd 1896 b0bd 40d4 a1ba 4024 943a
000001e0: d830 763d 18cb edbc 200f 873d 9058 77bc
000001f0: 4493 d83c 9037 e0bb 921b 883d d516 99bd
00000200: f0b1 f93c 9081 8b3c ff46 48bd d0e5 d13c
00000210: c0b0 a23a 5c24 823d f8bf 3b3c 7b6f 95bd
00000220: 5ca9 993c ca31 b6bd bc37 c33c b7c1 04bd
00000230: 278a a9bd 60b9 5c3d 68d9 61bc aff3 99bd
00000240: 759c a3bd 80a4 683d c67b a43d 8c06 2c3d
00000250: 30e4 8dbc ccbc ad3d 8404 85bd ae47 9abd
00000260: b0da acbb a812 d93c ecd7 733d f046 903d
00000270: 6824 78bd ee75 4fbd 5cde 4d3d 488c 83bd
00000280: 648b be3c a086 b4bd bb0a 82bd 573b acbd
00000290: 853e 62bd a077 fc3c 00e0 b0b9 7ae2 4ebd
000002a0: 92e8 95bd d11e 9dbd 5378 a1bd 1e4a 89bd
000002b0: b78c 9cbd 1ef4 963d cc83 f93c e82e 9f3c
000002c0: 62da 9f3d 40c1 86bd b030 2d3d 1002 17bc
000002d0: f03c 293d 0626 b93d 4026 31bd 1084 7cbd
000002e0: 7e59 6fbd 50d6 b4bc 5692 a1bd 00d7 42bc
000002f0: 8070 613d e016 9f3c 7cdb f53c 809b b3bd
00000300: 5e92 a1bd 3cb1 97bc 0482 b03d 1860 953d
00000310: fd77 71bd 12a8 b83d db5b a3bd cef4 39bd
00000320: c820 3f3d 303a b6bc dc48 d63c 6013 873c
00000330: ccb8 293d 185b 253d 747c 263d c08a 5cbd
00000340: 4e48 47bd e42d 98bc f403 893c 003d 24bb
00000350: ec0d 063d 2409 e43c 038b 78bd d1d1 2abd
00000360: 18cf 7e3c ad1d aabd 825c 9a3d 0070 5139
00000370: daa2 b23d 828d acbd 00b6 6b3a 3084 97bb
00000380: 5057 84bb b014 d53c 10e3 3a3d 8e4f 99bd
00000390: 1cfb a8bd c03e e1bb 393f 6bbd 4021 4b3c
000003a0: 5803 50bd 60cb bc3c 9c34 44bd 6da7 4bbd
000003b0: 8cb8 163d f6e0 b83d f9b6 abbd 4afd 8b3d
000003c0: b0b2 833b 2830 35bc 50dc 883c d872 96bc
000003d0: 709a ab3d 50c9 5bbc d059 b93b 0485 eabc
000003e0: 48fc 4c3c 0cb8 533d d2ee 803d 3e45 88bd
000003f0: ae3b 1bbd 78f4 663c fc67 8b3d 78cd f33c
0.033371396 -0.037510246 -0.017506614 -0.019215822 0.045136675 -0.011562638 -0.01320266 0.003830582
-0.052227624 -0.07471391 -0.014174186 -0.05173209 0.07193495 0.05153802 -0.04674396 -0.086691365
0.08184631 0.03433898 -0.07102747 -0.0839618 -0.060952768 -0.031246781 -0.014256783 0.03716609
-0.07002814 0.04904908 0.07994899 -0.06962476 -0.025740221 -0.06490694 0.0083217025 -0.018953167
0.07744117 -0.035617057 -0.07174763 0.067147896 -0.04884636 0.0092415735 0.0677104 0.081656724
-0.049997192 0.016917467 0.046320677 0.030093566 -0.04921996 0.031715445 -0.04976884 0.046081856
0.06869352 0.013420112 -0.025785126 -0.04914915 0.07001458 0.05290912 0.025739908 -0.019496262
-0.0036739856 0.050130323 0.07981072 0.013503298 -0.00280042 0.055061966 -0.040908616 -0.065088674
-0.037920803 -0.084206544 0.00074262917 -0.036991436 -0.07482569 -0.07917513 -0.07989549 0.019350223
0.003432095 0.06532118 -0.074158385 0.059962004 -0.010433182 0.048323706 0.07487385 0.040017307
0.08793886 -0.08479733 -0.02637504 -0.044343766 0.024170436 0.06862673 0.031845458 -0.07674633
0.029049508 0.048339665 -0.015585586 -0.04342612 -0.09037354 0.05042407 -0.06006304 0.025547773
0.0641588 -0.09109014 -0.035475187 0.08459942 -0.012023777 -0.05085711 -0.034907643 0.031402193
0.048500612 -0.012617156 0.062353134 0.08533865 0.04702738 0.060948923 0.017413266 -0.056394313
-0.005982071 -0.046523105 0.026070416 0.0037960485 -0.0711755 -0.08622378 -0.0012346581 0.0011302307
0.060105175 -0.029027507 0.06594682 -0.015096799 0.02643741 -0.006842561 0.066458836 -0.07475058
0.030480355 0.017029554 -0.048895832 0.025622278 0.0012412295 0.06354591 0.011459343 -0.07296654
0.018757515 -0.08896215 0.023830287 -0.032411303 -0.082783036 0.053887725 -0.013784744 -0.07517182
-0.07988826 0.056797504 0.080314204 0.04199843 -0.017320722 0.08483276 -0.06495002 -0.07533203
-0.005275093 0.026498154 0.05953209 0.0704478 -0.060581595 -0.050649576 0.050260887 -0.06423241
0.023259826 -0.0881474 -0.06349703 -0.08409756 -0.055235405 0.03081876 -0.0003373623 -0.050508954
-0.0731975 -0.076718934 -0.07884278 -0.0670359 -0.07644027 0.073707804 0.030458353 0.019431546
0.07805325 -0.06579828 0.04228276 -0.0092168 0.04131788 0.090404555 -0.04324937 -0.061649382
-0.058434956 -0.022074848 -0.078892395 -0.01189208 0.05503893 0.019420087 0.030011885 -0.08769894
-0.078892455 -0.01851713 0.086185485 0.07293719 -0.05895232 0.09016432 -0.079765044 -0.04539948
0.046662122 -0.022244543 0.026157789 0.01648873 0.041436 0.040370077 0.04064603 -0.05384326
-0.04865294 -0.01857657 0.016725518 -0.0025060773 0.03272812 0.02783639 -0.060679447 -0.041704003
0.015552305 -0.083064415 0.07537176 0.00019973516 0.08722468 -0.08425428 0.00089916587 -0.0046239123
-0.004038729 0.026010841 0.0456267 -0.07485877 -0.0825102 -0.0068739355 -0.05743334 0.012398064
-0.05078444 0.023046196 -0.047901735 -0.049720217 0.03679709 0.09027283 -0.08384509 0.068354204
0.004019104 -0.011058845 0.016706616 -0.018365309 0.08379066 -0.013414696 0.0056564584 -0.02862788
0.01251132 0.051689193 0.06295551 -0.06653832 -0.03789871 0.014096372 0.06806943 0.029761061

features.fc2.bias f4 [84]
00000000: 48aa d03c 2098 873b f893 283d 8ab4 023d
00000010: f0a8 35bc 52bb febc ac81 b8bc 225c ae3d
00000020: a885 34bd f6fb 09bd f8c8 7abd 189b 19bc
00000030: 58d6 693c f0aa 8c3d ac93 1b3d 6821 353c
00000040: a0ec dcbb ae7c 983d b278 82bd 542b b8bd
00000050: 0c35 aabd 00ca f73b 2890 543d bdc6 a9bd
00000060: 1432 8ebd 084a 6fbc 0853 1a3d 20e1 a13d
00000070: 5c7d b53d b4ae 90bc 8057 d2bc b60d 89bd
00000080: b4ba 83bd c0b9 9e3c 9876 3fbc f458 453d
00000090: 6016 443b 50d5 83bd b810 87bc 96aa a63d
000000a0: 484a 1dbc 288c 293d 00d3 9dbd c5d9 b3bd
000000b0: 319f 45bd 0ac0 803d 3cb4 ef3c 84dd 513d
000000c0: d0dd e73c 1825 9bbc fb25 97bd 4a59 873d
000000d0: d05c a73d b5d4 aabd 50a8 823d 8cf8 623d
000000e0: 4012 62bc 6cf7 88bc 40da 853d 00aa 2a39
000000f0: 94b2 0c3d b047 2dbc a4b8 7c3d 6c9d 413d
00000100: f68b b43d cdb8 86bd c454 fdbc 7c03 513d
00000110: 88f3 83bd a867 a53d bce9 b0bd 859b 9bbd
00000120: 4443 99bc 9254 9e3d c0e1 2fbd a0f7 d63b
00000130: acf5 643d c06e 80ba 54f8 113d a403 653d
00000140: 9c83 233d 3474 52bd 1b0b a6bd 80fb 913b
0.025471821 0.0041380078 0.04115674 0.031910457 -0.011087641 -0.03109518 -0.02252277 0.08513667
-0.044072777 -0.033687554 -0.061226815 -0.009375356 0.014272295 0.06868541 0.037982628 0.011055328
-0.006742075 0.07445656 -0.06370677 -0.08992639 -0.08310899 0.007561922 0.05189529 -0.082898594
-0.069431454 -0.014605053 0.03767684 0.07904267 0.08861801 -0.01766143 -0.025676489 -0.06692068
-0.06432095 0.019375682 -0.01168599 0.048180535 0.0029920563 -0.064371705 -0.016487464 0.081380054
-0.00960023 0.04139343 -0.07706261 -0.087817706 -0.04824752 0.062866285 0.029260747 0.051236644
0.02830401 -0.018938586 -0.07380291 0.066088274 0.081719995 -0.08341352 0.06379759 0.055412814
-0.013798296 -0.016719542 0.065357685 0.00016275793 0.034349993 -0.010576174 0.061699525 0.04726927
0.08815758 -0.06578217 -0.030924208 0.051028714 -0.06442934 0.080764115 -0.08638331 -0.07598022
-0.018708833 0.07730974 -0.0429399 0.006560281 0.055898353 -0.0009798631 0.035637215 0.055911675
0.039920434 -0.05138035 -0.08107587 0.00445503

l1.weight f4 [84, 84]
00000000: a442 863c f400 cc3c a75c 983d 24d6 a63c
00000010: 24fb fbbc 299a 913d 32f3 91bd 4ee6 54bd
00000020: 4151 91bd e42d 2cbd 882e 763c 6861 283c
00000030: b81e 2cbc 590f d13d 3c85 14bd 7cde d53c
00000040: 54a3 c0bc 0567 c03d e47b 8dbd adc3 aa3d
00000050: 4e48 6c3d 5d3e 89bd 387e c4bc 9b4a a13d
00000060: 10ba cbbb 56c0 adbd c174 ac3d 37bb bd3d
00000070: 4286 94bd 314f 90bd e868 86bd c5c1 923d
00000080: 7d6e c93d 037b 81bd 5a67 b3bd fc57 a8bc
00000090: bad4 69bd c985 dd3d 788c 1b3c 9ee7 c9bd
000000a0: a28b 9abd 1cc9 85bd 6ab2 283d 3171 903d
000000b0: 3eb5 10bd 3d70 913d 200d e9bc 8e9b 82bd
000000c0: 3e35 4a3d 2245 743d bbc9 853d 68ed 2bbd
000000d0: 5f1e 813d 60c8 6c3b dd7c d83d f111 bd3d
000000e0: 80f2 89bd 337a cdbd d42f f13c 46e3 62bd
000000f0: 014d d7bd dc1f 63bd c023 67bb b002 c6bb
00000100: e8b1 b7bd e862 4b3c 22b4 5e3d d191 843d
00000110: 3887 91bc 9484 b53c fe72 6b3d bdb1 963d
00000120: 6e79 c7bd 801d 98ba c605 bebd 9d76 7dbd
00000130: 9405 873c 7e50 cdbd 0244 7d3d 26e0 4b3d
00000140: f13d 8d3d c05a 36bb 53aa a13d 002d dfba
00000150: ccc5 a3bd 8322 8c3d c05c 573b c2f8 693d
00000160: 7c5e 963c f7e2 ab3d 24dc 913c a234 2f3d
00000170: 20b6 f4bb 7852 093c a8e7 1a3c 6467 d9bd
00000180: ea0b 8cbd d84a 72bc e09c a2bc 7f5f cfbd
00000190: 25e9 a53d 1ef7 253d 8034 043a 41f3 c63d
000001a0: 30da 63bc 08d2 febc 51d1 a83d 14cc 903c
000001b0: 3ee1 0a3d 9377 c83d 675a b9bd e8e9 c3bd
000001c0: 0e4e 633d bee7 d3bd c8f3 3f3c cc5d a2bd
000001d0: 4cad 823c 0c4f adbc ad4c 62bd de7e 32bd
000001e0: 7ccb afbc 5e44 5e3d f00f 71bd 29fa b33d
000001f0: 143d b93c 31f1 dabd 79b1 9fbd 4b06 a83d
00000200: 4005 b63b 40ba 01bc f489 a93c e54c 78bd
00000210: 1375 853d 89b1 8f3d a9f6 c33d a98c bcbd
00000220: 8014 7fba e631 053d bd4e 983d 3681 613d
00000230: a1bd d6bd 562b 31bd 12c6 a9bd 61db 9f3d
00000240: d678 3a3d 00c1 62bc 6421 32bd 2396 84bd
00000250: ae78 babd b9d2 ab3d 3282 1f3d 442f 86bd
00000260: 9bc5 64bd 9fd1 5bbd 2210 583d acca e53c
00000270: 59df 8d3d 4675 313d e797 9c3d b443 e23c
00000280: bdd8 8a3d f984 c7bd 6039 73bc da30 173d
00000290: 947e a1bc 44c5 b5bd 176b a73d 41df 43bd
000002a0: a621 3f3d 38cd 663c 8d88 55bd 0530 a33d
000002b0: cdc2 c53d 9043 95bc 80c3 ecbc 403b ac3a
000002c0: aadb 283d 9360 dd3d 4a44 283d 8b43 963d
000002d0: 59ea d0bd ac4b b73c a22b 213d 8a90 8fbd
000002e0: 800a d13a c089 393c 8e28 213d dcf9 c53c
000002f0: e91a 67bd c2e5 7e3d ac87 9a3c 90be d8bb
00000300: 7bf5 44bd 80f4 cfba ba88 c0bd edce 51bd
00000310: 04cf adbd fc36 ba3c 0113 8cbd f2d3 dbbd
00000320: 408e ed3b 444c dd3c b424 c2bc 130f a83d
00000330: b4c4 fd3c 348f aabd 467a 9cbd 825d 89bd
00000340: d74d adbd 81c1 ca3d f864 0bbd 80e1 3fbb
00000350: 2e8c 113d 522f 4f3d ca37 2bbd b1cd ccbd
00000360: 184a a7bd d6c5 763d f721 cb3d b4c0 9c3c
00000370: 804a 363a ec5d d7bd 91f6 c43d 9c8f cb3c
00000380: 9ccb debc 03fb 72bd 5ef9 173d c097 e2bc
00000390: d002 1f3c 79fd bebd 73d1 8b3d 0e47 173d
000003a0: 06c7 163d eee2 14bd 16d0 703d d1b6 bd3d
000003b0: 9ff6 da3d 533a 69bd 8590 9f3d 9445 f73c
000003c0: f244 233d a272 723d 74a1 ebbc 566f 28bd
000003d0: bc5f 8a3c ccae 77bd 4f23 a73d d288 2abd
000003e0: 90ff fe3b 8493 dc3c 88a4 b7bd d593 9cbd
000003f0: d273 2c3d 8616 063d 5197 d33d 2484 99bd
0.016389199 0.024902798 0.07439547 0.020365782 -0.030759402 0.07109482 -0.07126464 -0.05197745
-0.07095576 -0.042035952 0.015025742 0.01027713 -0.010505371 0.102080055 -0.036259875 0.026107065
-0.02351538 0.093946494 -0.06908396 0.083381034 0.057686143 -0.06701348 -0.023985967 0.07875558
-0.0062172487 -0.08483951 0.084207065 0.09264224 -0.0725217 -0.070463546 -0.06562978 0.07165865
0.09835527 -0.06322291 -0.08759947 -0.020549767 -0.057087637 0.10816533 0.00949394 -0.098586306
-0.07546164 -0.06532499 0.041185774 0.070528395 -0.035329096 0.07101486 -0.028448641 -0.06377326
0.049367182 0.059636243 0.06532618 -0.041974455 0.06304621 0.0036130175 0.10570691 0.09231938
-0.06735706 -0.10033073 0.029441752 -0.055392526 -0.10512734 -0.055450305 -0.0035269111 -0.006042801
-0.0896948 0.012413718 0.054371007 0.06473125 -0.017764673 0.022157945 0.057482712 0.0735812
-0.09739958 -0.0011605471 -0.09278445 -0.061880697 0.016482152 -0.10025118 0.061832435 0.04977431
0.0689658 -0.0027825087 0.07893815 -0.0017026961 -0.07996711 0.0684252 0.003286168 0.057122
0.0183556 0.083928995 0.017805167 0.042774804 -0.007468 0.0083814785 0.009454645 -0.10615423
-0.0683821 -0.014788352 -0.019850194 -0.10125636 0.081011094 0.040518872 0.00050432235 0.09714366
-0.013907 -0.03110601 0.08243049 0.017675437 0.033906214 0.09788432 -0.09050446 -0.095660985
0.05549436 -0.10346936 0.011715837 -0.079280466 0.015951775 -0.021155857 -0.055248905 -0.04357802
-0.021459334 0.05426442 -0.05885309 0.08787949 0.022612132 -0.10690535 -0.07797522 0.08204325
0.005554825 -0.007917941 0.020695664 -0.060620207 0.06516471 0.07016284 0.09568531 -0.09206516
-0.0009730533 0.03251829 0.07436893 0.055054866 -0.104853876 -0.04325422 -0.08289732 0.07805515
0.045525394 -0.01383996 -0.043488875 -0.06473949 -0.09105049 0.083898015 0.038942523 -0.06551984
-0.055852514 -0.053666707 0.05274976 0.028050743 0.06927366 0.04332473 0.076461606 0.027620174
0.06779621 -0.097421594 -0.014845222 0.036911823 -0.019713677 -0.08875516 0.08174723 -0.047820333
0.04666295 0.014087014 -0.052132178 0.079681434 0.09656296 -0.018220693 -0.028901815 0.0013140216
0.041225113 0.10809436 0.04108075 0.073371015 -0.10200948 0.02237495 0.039348252 -0.070099905
0.0015948564 0.011324346 0.039345317 0.024166994 -0.056422148 0.062230833 0.018863522 -0.0066145137
-0.04808567 -0.0015865713 -0.094010785 -0.05122273 -0.08486751 0.022731297 -0.06839562 -0.10733785
0.0072496235 0.027013905 -0.023699142 0.08206 0.030977584 -0.08328095 -0.07640509 -0.06707288
-0.084621124 0.09900189 -0.03403184 -0.0029278696 0.035534076 0.050582238 -0.04180125 -0.1000017
-0.08168429 0.060247265 0.09918588 0.019134857 0.00069538504 -0.10515961 0.09617341 0.024848752
-0.027196698 -0.059321415 0.03710305 -0.02766025 0.00970526 -0.0932569 0.06827059 0.036932997
0.036810897 -0.03634923 0.058792196 0.09263385 0.106915705 -0.056940388 0.07791237 0.030184545
0.039860673 0.059191354 -0.02876351 -0.041121803 0.016891353 -0.060469434 0.081610315 -0.04163439
0.0077819303 0.02692581 -0.08966929 -0.07645384 0.042102642 0.032736324 0.10331596 -0.07495907

l1.bias f4 [84]
00000000: 60bc 63bd da1a d2bd d86e bbbd 8863 613c
00000010: d0a6 aebd b8d3 543c 3748 b03d 161a dfbd
00000020: d4c0 a2bc db01 a73d a025 913b 9431 3fbd
00000030: 1ab4 413d 251d bd3d a649 b2bd f2e3 743d
00000040: 3621 b0bd b697 743d 3a05 d2bd e365 a03d
00000050: 7079 c9bc af0e df3d eef5 abbd ef59 843d
00000060: c643 253d 8257 7a3d 8093 c0bd 2ae3 383d
00000070: 1086 3fbc 203d 9ebd 7dc4 b33d b6be 233d
00000080: 7302 d5bd 0a8a a1bd 7e7c dabd b075 f8bb
00000090: 27e6 c53d c018 52bc 0bc0 a8bd 7831 f9bc
000000a0: 3f2e 68bd 592d 873d fe30 acbd 5406 8cbd
000000b0: 8730 d03d 2410 39bd f980 903d 6bef d4bd
000000c0: d41d 0abd f71e bf3d 267f 7c3d a401 b8bc
000000d0: 8ace 583d 1e9e 113d 24dc c8bd 1514 993d
000000e0: d176 b1bd bbfe 98bd 738d 62bd 0860 ddbd
000000f0: 0450 cbbd bcd3 f53c b0c8 20bc cbbb a5bd
00000100: f9e3 9f3d 98b6 18bc ff6b acbd f9f9 d93d
00000110: e4a0 b3bc dc8a 0ebd 6a28 3c3d 3a02 7f3d
00000120: 3b41 9f3d aaf8 d4bd efcf a83d c889 29bc
00000130: 8a2d 78bd 1879 b6bc 0572 66bd efdd 7bbd
00000140: c690 85bd e5c0 8b3d bf41 b83d 3644 3c3d
-0.05559957 -0.10259028 -0.09152001 0.01375664 -0.08527911 0.012989931 0.08607524 -0.108936474
-0.019867338 0.08154651 0.004429534 -0.04667814 0.0472909 0.092340745 -0.087054536 0.059787698
-0.086000845 0.059714995 -0.10254903 0.07831933 -0.024594039 0.108914725 -0.08396517 0.06462466
0.040347837 0.06111861 -0.094031334 0.045138516 -0.011689678 -0.077265024 0.087777115 0.039976798
-0.10400858 -0.07887657 -0.10668276 -0.007582389 0.09663039 -0.012823284 -0.08239754 -0.030419096
-0.05668473 0.06600446 -0.08407782 -0.068371445 0.10165506 -0.04518141 0.070558496 -0.10397228
-0.033719853 0.09332078 0.061644696 -0.02246172 0.052931346 0.035551183 -0.098076135 0.074745335
-0.086652406 -0.07470461 -0.055310678 -0.10809332 -0.09927371 0.03000819 -0.009813473 -0.08092459
0.07807154 -0.0093208775 -0.08419036 0.106433816 -0.021927305 -0.034800395 0.04593698 0.062257983
0.077761136 -0.103989914 0.08242785 -0.010347791 -0.060590304 -0.022274539 -0.05626108 -0.06149095
-0.06521754 0.06823901 0.08996915 0.04596349

l2.weight f4 [256, 84]
00000000: 5752 b8bd 8529 9ebd e082 37bc 3a6d 273d
00000010: 08f9 01bd ec80 ac3c 9244 223d f9d7 d93d
00000020: 768c 143d 7e5d 38bd 60e6 c9bc 2959 88bd
00000030: d298 363d 2020 00bd d717 c03d 0c31 d03c
00000040: d996 cc3d 6f02 a43d 9fb6 d8bd 530a 863d
00000050: dd45 b93d 5ed5 263d b450 b5bd a7b0 cc3d
00000060: 4d03 ad3d 5ea1 1abd 3afd 0fbd 4ca8 fdbc
00000070: 5e4d 3cbd 7480 8a3c 4a58 563d fcde e33c
00000080: 2cca 85bc 7057 91bc ea4a 03bd a0da 363b
00000090: 0ef9 7e3d 40d7 713c e0c1 053c a564 b7bd
000000a0: 676b c03d dc47 84bd f979 c53d 20b5 2dbb
000000b0: 6726 41bd 2d3f 59bd b55a 9f3d 1319 5cbd
000000c0: 74c8 97bd 4a09 89bd 5236 23bd ce11 703d
000000d0: b312 4dbd 5aef 363d 0032 813b 9a67 84bd
000000e0: 06c9 4bbd 4c50 cdbd 8f97 bbbd d0a8 513c
000000f0: 3cb7 a8bc 422e 023d 77f5 bcbd 9f13 bdbd
00000100: 6c81 90bc 106a 97bd f028 80bb 51a9 b3bd
00000110: ee6b 653d f986 bb3d 1c85 fe3c 24b6 b93c
00000120: b829 42bc 5a55 0a3d 9baa de3d c080 c3ba
00000130: dafa 023d 608e 4fbc 6e58 5e3d 0841 6b3c
00000140: 715c c53d 80b8 44bb eff2 bf3d 0304 d73d
00000150: 6d94 ccbd a0e8 37bc 2192 a53d 9a17 05bd
00000160: 57a7 b93d e0f2 69bc f618 413d 955e 8e3d
00000170: 6c93 943c 806a 87bc 9032 ab3b f2dd ccbd
00000180: 4b7a bdbd 6301 8e3d 446c 9dbc d85d 79bd
00000190: 080b 33bd feee 423d 563a bcbd 67c7 b13d
000001a0: 230f 983d 94e0 b5bc 981c 46bd dc48 85bd
000001b0: 6ba2 c23d 226b ccbd 9031 afbc 0a6d 8abd
000001c0: b2d0 6b3d 6b2c d13d 342e 4ebd 17b5 9ebd
000001d0: e8f6 6dbd 30e7 c63b 4206 263d 62ea 2dbd
000001e0: db3f 9dbd cdeb 953d a4cb 0abd 2230 283d
000001f0: 2052 233b 3c68 c8bd c052 6cbb 3057 d9bc
00000200: 5e21 04bd b70e 843d 9167 a23d ecb8 b4bc
00000210: 1e6d d9bd 64ef b6bc c02d 6c3c bf37 9a3d
00000220: 8434 b43c 6bd0 85bd 4867 37bc a279 0e3d
00000230: 0493 29bd f0f5 f3bc d6b5 bcbd 308f 16bd
00000240: 545c c5bd 9f8c 893d 8ec5 81bd 452a 58bd
00000250: fda4 9cbd 80eb 4fbc e232 2d3d 62aa 3f3d
00000260: 95ce d93d 7478 c8bc 415b 40bd 1a53 003d
00000270: 573f 9b3d a90b b1bd cc2f b93c 0401 28bd
00000280: ed0d 8d3d e740 a73d e44f 91bd 9367 8e3d
00000290: 1ee9 373d 3530 983d fcee 8fbd 4f13 ae3d
000002a0: 08eb 0c3c ab58 c73d e6c9 85bd 8aa1 203d
000002b0: 60a0 acbc 1585 9f3d 3377 8a3d 7460 bd3c
000002c0: a803 b9bc 2b64 a4bd d4d1 44bd a363 b63d
000002d0: d40d 78bd 809b ad3a 1332 933d f6e8 7f3d
000002e0: 72c3 7d3d 87ac a1bd 48db 1f3c 5c0e 8fbc
000002f0: 6d6c ad3d 4fef b33d 9fa6 d63d 8804 39bd
00000300: 44d8 bcbd 70d7 ae3b 911c aebd c476 e0bc
00000310: d8ca d4bc 707b 5f3c b72c 42bd 6e77 1e3d
00000320: f08a bcbc 3ec8 6f3d 57fb d73d 0ea7 0f3d
00000330: 2f54 9dbd 3ac7 38bd 7541 be3d b0f0 31bd
00000340: e4c1 e03c 3dcf 67bd 5f4a 44bd d83d 4fbd
00000350: 96f2 9ebd 3c1f 853c 90f4 bdbb 08f9 8bbd
00000360: b37a 83bd 04de a1bd a70f 803d 333b a13d
00000370: ec98 89bd b02a c8bb 37ba bb3d d6eb 5d3d
00000380: 7566 4cbd 4b17 c83d a9c9 87bd 802f 2cbd
00000390: 8bda 70bd 5196 debd b01f cabc 4a54 133d
000003a0: 000e d1ba 40cd e7bc 904a d6bc ec41 20bd
000003b0: 58c2 023c 8ec0 403d dc4f 77bd c056 b33b
000003c0: 80af 543c 7602 3f3d 9825 7fbd 17a3 973d
000003d0: 0301 df3d 07c8 6abd 2c1a 98bc 03c3 9dbd
000003e0: dc91 d43c ac12 80bd 2255 6d3d 08e7 0abd
000003f0: d4c0 85bd 8981 82bd 24d4 91bd 511d 883d
-0.0900008 -0.07722763 -0.011200637 0.04087565 -0.031731635 0.021057568 0.039616175 0.10636897
0.036266766 -0.045011036 -0.024645984 -0.06657631 0.044579335 -0.031280637 0.09379547 0.025414012
0.099897094 0.08008277 -0.10581707 0.06544938 0.090465285 0.040730827 -0.088532835 0.09994631
0.08447895 -0.037751548 -0.035153605 -0.03096404 -0.04597222 0.016906954 0.052330293 0.027816288
-0.016331755 -0.017741889 -0.032053865 0.0027901307 0.062249236 0.014760792 0.008163899 -0.08954743
0.09395485 -0.064590186 0.09642405 -0.0026505664 -0.047155764 -0.053038765 0.07780973 -0.05373485
-0.0741128 -0.06691225 -0.039846726 0.05861073 -0.05006666 0.044661857 0.003942728 -0.06465073
-0.049752258 -0.10025081 -0.09159767 0.012796596 -0.020595185 0.031782396 -0.09226506 -0.09232258
-0.017639838 -0.07393277 -0.00391113 -0.08772529 0.056011133 0.09156603 0.03106933 0.02266986
-0.011850767 0.033772804 0.10872384 -0.001491569 0.031977512 -0.012668222 0.054283552 0.014358766
0.096367724 -0.0030017197 0.09372508 0.10498812 -0.099892475 -0.011224896 0.080845125 -0.03249321
0.09065121 -0.014279097 0.047142945 0.06951634 0.018136702 -0.016530275 0.0052245334 -0.1000327
-0.09251841 0.06933858 -0.019216664 -0.060880512 -0.043711692 0.047591202 -0.09190814 0.08680611
0.07424762 -0.022201814 -0.048367113 -0.065080374 0.09503635 -0.099813715 -0.021385938 -0.06759079
0.057572074 0.1021355 -0.05033703 -0.07749384 -0.058096796 0.00607004 0.04053331 -0.042459853
-0.07678195 0.07320366 -0.033885613 0.041061528 0.0024920776 -0.09785506 -0.0036060065 -0.026530832
-0.032258384 0.06448119 0.0792991 -0.022060834 -0.106165156 -0.022330947 0.0144152045 0.07530164
0.021997698 -0.06533893 -0.011194058 0.034783967 -0.04139997 -0.029780358 -0.0921437 -0.036757648
-0.09636751 0.067162745 -0.06336509 -0.052774686 -0.076486565 -0.012690425 0.042284854 0.04679335
0.106351055 -0.024471499 -0.046962027 0.03132925 0.075804405 -0.08644802 0.0226058 -0.041016594
0.06887422 0.08166676 -0.07095316 0.06953349 0.044900052 0.0743107 -0.070280045 0.084997766
0.008600958 0.09733709 -0.0653265 0.039216556 -0.021072567 0.07789055 0.06761017 0.023117281
-0.022584751 -0.08026918 -0.04805167 0.08905723 -0.060560063 0.0013245195 0.07187285 0.06247803
0.06195397 -0.07894235 0.009756871 -0.017462902 0.08467946 0.08785879 0.10480999 -0.045170337
-0.09220937 0.0053357407 -0.08501542 -0.027400382 -0.02597563 0.01364027 -0.047405925 0.038688116
-0.02301547 0.058540575 0.10545986 0.035071425 -0.07682072 -0.045111872 0.09289829 -0.043442428
0.027436204 -0.056594122 -0.04792249 -0.05059609 -0.07761113 0.016250245 -0.0057969764 -0.06834608
-0.064198874 -0.07903674 0.062529854 0.078726195 -0.06718621 -0.0061086044 0.09166377 0.05417999
-0.0499024 0.09770068 -0.066302605 -0.042037487 -0.05880217 -0.10868514 -0.024673313 0.035969056
-0.0015949607 -0.028296113 -0.026158601 -0.039125368 0.0079809055 0.047058634 -0.060378894 0.005472988
0.012981296 0.046633206 -0.06229171 0.07404154 0.10888865 -0.057319667 -0.018567167 -0.07703211
0.025948457 -0.062535614 0.057942517 -0.033911735 -0.0653092 -0.06372363 -0.07120541 0.06646217
