models/Median/globalmodelexperiment_log-2023-09-04-1614-15.pth (torch, 375691 bytes, 14 tensors)

features.conv1.weight f4 [6, 3, 5, 5]
0	0xbd29de7a	-0.041471936
1	0xbde24fc7	-0.110503726
2	0x3da038d8	0.07823342
3	0x3cb57d2b	0.022154411
4	0xbd8b62c9	-0.06805951
5	0xbd245789	-0.040122543
6	0xbc656605	-0.014001374
7	0xbb8c41de	-0.004280313
8	0xbe1ceb37	-0.15324102
9	0xbbbf03f2	-0.0058293277
10	0xbc9091ae	-0.01764759
11	0xbd51d6e3	-0.051230323
12	0xbcc0161b	-0.02344804
13	0xbdb32488	-0.08747202
14	0xbe0be58c	-0.13661784
15	0xbd981508	-0.074258864
16	0x3d18fc7e	0.03735017
17	0x3d320699	0.043463323
18	0x3d91abf4	0.071128756
19	0x3d13fe19	0.036131
20	0xbd85b0e6	-0.06527881
21	0xbdf7e97a	-0.12105079
22	0x3d876baf	0.06612336
23	0xbce4285c	-0.027851276
24	0xbb46e84a	-0.0030350857
25	0xbcc543c7	-0.02408017
26	0x3d4d884d	0.050178815
27	0xbd9a4fa9	-0.07534725
28	0x3dad09d0	0.08449137
29	0x3d76a65e	0.060217254
30	0x3bc0f753	0.0058888583
31	0xbdce9e8a	-0.10088833
32	0xbd5960d9	-0.053070877
33	0xbdfdadfa	-0.12386699
34	0xbdff1a23	-0.12456157
35	0x3d765b79	0.06014583
36	0x3d1b0e35	0.037855346
37	0x3d00f41d	0.031482805
38	0xbbbfef14	-0.0058573578
39	0x3d931660	0.07182002
40	0xbd8b750c	-0.06809434
41	0x3d1b7a7c	0.037958607
42	0xbb969c78	-0.0045962892
43	0x3c29230f	0.0103233
44	0x3c00ad66	0.007853841
45	0x3dcfb4e2	0.101419225
46	0x3dccb3c2	0.099952236
47	0x3c7c4a4e	0.015398575
48	0x3b1eb3cc	0.0024216054
49	0x3daeba50	0.0853163
50	0x3e21ef7f	0.15814017
51	0x3e1ff444	0.15620524
52	0xbc138011	-0.009002701
53	0x3de038d7	0.10948341
54	0x3e0d4df4	0.13799268
55	0xbcba1287	-0.022713913
56	0x3cb47fe9	0.022033649
57	0xbcf724c5	-0.0301689
58	0xbd1311b7	-0.035905566
59	0xbdb8dbd6	-0.090263054
60	0x3db84e8b	0.08999356
61	0xbd0fcc77	-0.035107102
62	0xbd84a250	-0.06476271
63	0x3d401b14	0.046900824
64	0x3df92acf	0.12166368
65	0x3da12dbf	0.078700535
66	0x3e0ac7d9	0.13552798
67	0x3ce07d04	0.027403362
68	0x3d1a09a8	0.037606865
69	0x3d43a3ab	0.047763508
70	0xbc327d0f	-0.010894074
71	0xbd1e2210	-0.038606703
72	0x3db0ecb7	0.086389
73	0xbd5fb508	-0.054616004
74	0x3de37766	0.11106758
75	0x3d56e89a	0.05246792
76	0x3d8de199	0.06927795
77	0x3d133ad9	0.035944793
78	0x3ce8e0df	0.02842754
79	0x3c848415	0.016176263
80	0x3d666028	0.056244045
81	0x3c55f240	0.013058245
82	0x3d8c930b	0.06863984
83	0x3e005942	0.12534049
84	0xb98e6194	-0.00027157052
85	0x3d88e36e	0.06684004
86	0x3db28ed5	0.08718649
87	0xbcc292d2	-0.02375165
88	0x3e1149a0	0.14188242
89	0x3df267f7	0.11836236
90	0x3d9ce699	0.076611705
91	0x3dbbbc93	0.09166827
92	0x3d855c1c	0.06511709
93	0xbdd2fd8f	-0.10302269
94	0xbdc19311	-0.09451879
95	0xbe14a476	-0.14515862
96	0xbbfe5498	-0.007761549
97	0xbb9cd6f6	-0.0047863675
98	0xbdffa27c	-0.12482163
99	0xbe269a5c	-0.16269821
100	0x3d9ef2dd	0.07761166
101	0x3d840f43	0.064482234
102	0x3cb37f46	0.021911275
103	0x3da80c25	0.082054414
104	0xbd63ffe2	-0.05566395
105	0xbccd4554	-0.025057472
106	0xbb812975	-0.0039417096
107	0xbd623811	-0.05522925
108	0x3c530d7c	0.012881633
109	0x3c700ef2	0.014652001
110	0x3c3a7fe7	0.011383033
111	0xbd8ffbd4	-0.07030454
112	0x3dc1a6bc	0.0945563
113	0xbda4121a	-0.08011265
114	0x3d491a5e	0.04909741
115	0x3d2dece2	0.042462237
116	0xbdd7cde1	-0.10537315
117	0xbde29d4b	-0.110651575
118	0xbda66d32	-0.08126296
119	0x3d756a7d	0.05991601
120	0xbdf74778	-0.120741785
121	0xbe13cb50	-0.14433026
122	0xbe224baf	-0.15849183
123	0x3d4b2458	0.049595207
124	0xbe02bb46	-0.12766752
125	0x3d1edca6	0.038784645
126	0x3d874b31	0.066061385
127	0xbdc7093e	-0.0971856
128	0xbd43604b	-0.047699254
129	0xbc8516b9	-0.016246187
130	0xbd9fc0af	-0.07800423
131	0xbdb19b27	-0.08672171
132	0x3db5ac0f	0.08870708
133	0x3d14ee05	0.036359806
134	0xbd540833	-0.051765632
135	0x3dbaf1b4	0.091281325
136	0x3de2fab8	0.11082977
137	0x3e03ca5e	0.12870166
138	0x3c663a15	0.014051934
139	0x3db323f7	0.08747094
140	0xbcbf2be0	-0.02333635
141	0xbd51cca5	-0.051220555
142	0x3d77a8eb	0.060463827
143	0x3d68dbb5	0.056850154
144	0x3cabfad1	0.020993622
145	0xbdb40634	-0.08790246
146	0xbe08dfec	-0.1336667
147	0xbe0f11b4	-0.13971597
148	0xbd93748a	-0.071999624
149	0xbe1ed95b	-0.15512602
150	0xbd8cb59e	-0.06870578
151	0x3d8fb86e	0.07017599
152	0xbd7bcfa1	-0.061477307
153	0x3d15491a	0.03644667
154	0xbd69263f	-0.05692124
155	0x3e0e6973	0.13907413
156	0x3d5fa2bd	0.05459856
157	0x3d1b5537	0.037923064
158	0x3c4678cb	0.01211376
159	0x3d67419a	0.056459047
160	0x3b770292	0.003769074
161	0xbb3c9f11	-0.0028781334
162	0x3d38097b	0.044930916
163	0xbd9c8b51	-0.0764376
164	0xbcf7ccf3	-0.030249095
165	0xbd23c3e5	-0.03998174
166	0xbe2a7bf0	-0.16648841
167	0xbdffeebd	-0.124967076
168	0xbdd55210	-0.10416043
169	0xbe350c48	-0.17680466
170	0x3dd9c580	0.10633373
171	0x3e04c687	0.12966357
172	0xbd5e5718	-0.054282278
173	0x3d7d03ec	0.06177132
174	0x3decf7c2	0.115706936
175	0x3d76267b	0.06009529
176	0x3a8548b1	0.0010168758
177	0xbd5cbf81	-0.05389357
178	0x3ce64bc6	0.028112303
179	0xbdd9f692	-0.10642733
180	0xbc0a8adb	-0.008455957
181	0xbcf64813	-0.030063665
182	0x3e04d180	0.12970543
183	0x3d41f0cd	0.047348786
184	0x3e05a28e	0.13050291
185	0xbe044abc	-0.12919134
186	0xbc606367	-0.013695574
187	0xbd0dd160	-0.034623504
188	0xbde26956	-0.110552475
189	0xbdb3e5ba	-0.08784051
190	0xbdbc2fdb	-0.09188815
191	0x3c6cb03a	0.014446313
192	0xbe5591ab	-0.20856349
193	0xbd30c37a	-0.04315517
194	0xbccd8e32	-0.025092218
195	0xbd422b91	-0.04740483
196	0x3d8bf09e	0.068330035
197	0x3c0bf1aa	0.008541504
198	0x3d30de6e	0.043180875
199	0xbde25295	-0.110509075
200	0x3dbf1288	0.093297064
201	0x3e185b77	0.14878641
202	0xbc58ccdb	-0.013232435
203	0x3dfaa720	0.12238908
204	0x3df44cc3	0.11928704
205	0x3e357b5c	0.17722839
206	0x3e19749a	0.14985886
207	0x3d6e2bf2	0.05814738
208	0x3e0d40e9	0.13794293
209	0x3bd32deb	0.006444683
210	0xbdad4b5d	-0.0846164
211	0xbc92b077	-0.01790641
212	0xbdefafb2	-0.11703433
213	0x3db6c0d7	0.089235
214	0x3c62a1ae	0.013832493
215	0xbdcb4abf	-0.09926366
216	0x3c6c8f51	0.014438466
217	0xbd1ddd51	-0.038541142
218	0xbdb3671a	-0.087598994
219	0xbd4181c0	-0.04724288
220	0xbd1d723a	-0.038439013
221	0x3df421fd	0.11920545
222	0x3e0b1597	0.13582455
223	0x3d2ed40f	0.042682704
224	0x3d718d90	0.058972895
225	0x3d856b67	0.06514626
226	0x3dc26a4d	0.094929315
227	0x3caa39f5	0.02077959
228	0x3d7682e9	0.06018344
229	0xbc98d897	-0.018657966
230	0x3da88152	0.08227791
231	0xbe18f105	-0.14935692
232	0xbd50a007	-0.050933864
233	0xbd5544b7	-0.052067485
234	0xbd292373	-0.041293573
235	0xbdabbfdc	-0.08386204
236	0xbe0881e3	-0.13330798
237	0xbdc9aa65	-0.09846953
238	0xbda2854a	-0.07935579
239	0x3d902f3c	0.07040259
240	0xbda97fbc	-0.082763165
241	0x3d959ab6	0.073048994
242	0xbd5227be	-0.051307432
243	0xbd98e872	-0.074662104
244	0x3c983d01	0.018583776
245	0x3c146e52	0.009059506
246	0xbe546ba1	-0.20744182
247	0xbe2b03cd	-0.16700669
248	0xbe483999	-0.19553222
249	0xbd35e043	-0.044403326
250	0x3cfa07e5	0.030521343
251	0xbe03527b	-0.12824433
252	0xbbd3ee96	-0.0064676506
253	0xbe03f186	-0.12885103
254	0x3caa5087	0.020790352
255	0xbc9fda36	-0.01951323

features.conv1.bias f4 [6]
0	0xbaf60d7a	-0.0018772327
1	0xbccce887	-0.025013221
2	0xbb5ebae9	-0.003398592
3	0x3ce2b20c	0.02767279
4	0x3d6c29e7	0.05765715
5	0xbd9eb1ee	-0.07748781

features.conv2.weight f4 [16, 6, 5, 5]
0	0x3dd566b3	0.10419979
1	0x3dc1f59a	0.09470673
2	0x3d6b040b	0.057376903
3	0x3bb45e68	0.005504418
4	0x3db62c31	0.088951476
5	0x3d5f05f1	0.054449026
6	0x3d5599e4	0.052148715
7	0x3cf6217a	0.03004526
8	0xbd040940	-0.032235384
9	0x3ccb2234	0.024796583
10	0x3db85d2b	0.090021454
11	0x3cc4d913	0.02402929
12	0x3bd5a53f	0.006519943
13	0x3c123800	0.008924484
14	0x3c071c3e	0.00824648
15	0x3dc22e0a	0.094814375
16	0x3db00ea1	0.0859654
17	0xbd4ce1b8	-0.05001995
18	0x3db10280	0.08643055
19	0x3d841f73	0.06451311
20	0xbccbc829	-0.024875717
21	0xb8beaf82	-9.092597e-05
22	0xbd861fb2	-0.06549014
23	0x3d665343	0.05623175
24	0x3d6225a6	0.055211686
25	0x3d4a24e3	0.049351584
26	0xbd63f393	-0.055652212
27	0x3cfa799f	0.030575572
28	0x3ce7f5f1	0.028315516
29	0xbd17196c	-0.03688948
30	0x3c686da2	0.014186295
31	0x3d40e49b	0.047093015
32	0xbcbed6d4	-0.023295797
33	0x3dad122c	0.08450732
34	0x3baadd86	0.005214396
35	0xbd94a39c	-0.072577685
36	0xbd7f2d55	-0.06229909
37	0x3da5eef8	0.0810222
38	0x3dddd0fe	0.10830878
39	0x3d37f7df	0.044914123
40	0x3d8fb9d0	0.07017863
41	0x3df437cc	0.11924705
42	0x3d155f2f	0.036467727
43	0x3dd7285f	0.10505747
44	0x3c0f9e92	0.008765833
45	0x3d8fcd4d	0.0702158
46	0x3cc12dfc	0.023581497
47	0x3d6578c9	0.056023393
48	0x3d4fd99e	0.050744645
49	0x3d9405aa	0.07227643
50	0x3cb68e2b	0.022284588
51	0xbc0173b1	-0.007901118
52	0x3dcf1d22	0.101129785
53	0xbb86d42f	-0.0041146497
54	0xbd2e2499	-0.04251537
55	0x3cfb53b9	0.03067957
56	0x3df2b5da	0.11851092
57	0x3daf98be	0.08574055
58	0x3ded15ef	0.11576449
59	0x3c7649ac	0.015032213
60	0x3d7b9e3e	0.06143021
61	0x3d97a041	0.07403613
62	0xbca41c10	-0.020032912
63	0x3defe237	0.11713069
64	0x3db547e3	0.08851602
65	0x3d7ce25a	0.061739303
66	0x3d36f6f6	0.044669114
67	0xbd16544c	-0.036701486
68	0xbd28b19f	-0.041185018
69	0xbd8a828d	-0.06763182
70	0x3d9eaeda	0.07748194
71	0xbc3b24b8	-0.011422329
72	0x3dec78b8	0.11546463
73	0x3df7626e	0.12079321
74	0x3d821c09	0.063530035
75	0x3de3ec86	0.11129098
76	0x3df08873	0.117447756
77	0x3df4df66	0.11956672
78	0x3c888f4b	0.01666989
79	0x3dda65a7	0.1066392
80	0x3df26489	0.11835582
81	0xbc56bc4f	-0.01310642
82	0x3da4fe86	0.08056359
83	0x3cb8e2b4	0.022569038
84	0x3dcb4b70	0.09926498
85	0xbc86296d	-0.016377175
86	0x3ac5add0	0.0015081707
87	0xbd524c20	-0.05134213
88	0xbda319da	-0.07963915
89	0x3c1bd25b	0.009510602
90	0xbd05dc40	-0.03268075
91	0x3da16058	0.07879704
92	0x3c0321cc	0.008003663
93	0x3dadc1e6	0.08484249
94	0x3d439866	0.04775276
95	0xbd033734	-0.032035068
96	0x3dc3ef01	0.09567071
97	0x3d52a7b2	0.051429458
98	0xbd212fd0	-0.03935224
99	0x3dd68c7c	0.10476014
100	0x3d7627ca	0.06009654
101	0xbd7e41ca	-0.06207446
102	0xbdca6710	-0.09882939
103	0xbd922a63	-0.07136991
104	0xbd9484df	-0.07251906
105	0xbdaca4de	-0.084298834
106	0xbdca9673	-0.09891977
107	0x3cc77dd8	0.024352
108	0xbbbe6947	-0.00581089
109	0xbded5afe	-0.11589621
110	0x3b18f484	0.0023339102
111	0xbdc81de7	-0.097713284
112	0xbd3613cc	-0.044452474
113	0xbcd3a4d6	-0.025835436
114	0xbde16e39	-0.110073514
115	0xbdb060bf	-0.08612203
116	0xbdd9cd03	-0.10634806
117	0xbd7f0a90	-0.062265933
118	0xbdbe68b4	-0.09297314
119	0xbddc13e4	-0.10745981
120	0xbcfeeb42	-0.031118039
121	0xbda99948	-0.08281189
122	0xbd47bedb	-0.048766
123	0xbdd17800	-0.10227966
124	0xbd3c74a3	-0.04600967
125	0xbcbec9f6	-0.023289662
126	0xbbefb520	-0.007315293
127	0x3d4bb91e	0.04973709
128	0xbbcb6bb3	-0.006207907
129	0xbd20f098	-0.039291948
130	0xbd1d63b4	-0.038425162
131	0x3cc31f8d	0.023818756
132	0xbc46e603	-0.0121398
133	0x3d1d4796	0.038398348
134	0x3d9928f6	0.07478516
135	0x3c0ecf6f	0.008716448
136	0xbc8bcf87	-0.01706673
137	0xbd8700f0	-0.06591976
138	0xbdb3efb3	-0.087859534
139	0xbcb531b9	-0.022118436
140	0x3cc3fa3a	0.023923028
141	0xbd7dc49b	-0.061955076
142	0xbc1f8436	-0.009736111
143	0x3d32ccc8	0.043652326
144	0xbc231770	-0.009954318
145	0xbd037279	-0.03209159
146	0x3c9c7fce	0.01910391
147	0x3d51de3a	0.051237322
148	0xbda49375	-0.08035938
149	0x3d08d128	0.033402592
150	0x3d8d669f	0.06904339
151	0xbd0f55cb	-0.034993928
152	0xbd830f68	-0.06399423
153	0x3da8424e	0.082157716
154	0xbd44aa1b	-0.048013788
155	0xbd996dc4	-0.07491639
156	0x3cd517c0	0.026012301
157	0xbbeaa3c5	-0.007160636
158	0xbd4389b9	-0.047738764
159	0xbd215f33	-0.03939743
160	0x3b3541e5	0.0027657684
161	0x3cb76ca8	0.022390679
162	0xbc09acc0	-0.008403003
163	0x3d5d7709	0.0540686
164	0x3d4c130c	0.049822852
165	0xbd9db59b	-0.07700654
166	0x3ba3efb8	0.005002942
167	0x3ceae01e	0.02867132
168	0xbd45e282	-0.048311718
169	0xbd2996b8	-0.041403502
170	0x3c3e4e0b	0.011615287
171	0xbd346f18	-0.04405126
172	0x3d95e07e	0.07318209
173	0x3c68b0b1	0.014202283
174	0xbd556462	-0.052097686
175	0xbd0c77db	-0.03429399
176	0xbca7228e	-0.02040222
177	0x3c4b9c1a	0.012427354
178	0x3d948495	0.072518505
179	0x3d1cd653	0.038290333
180	0xbd31c92d	-0.043404747
181	0xbd451004	-0.048110977
182	0xbbd3ee9a	-0.0064676525
183	0xbd29ad9a	-0.041425325
184	0x3d136519	0.035985086
185	0x3d0a4e1b	0.033765893
186	0xbca90856	-0.020633858
187	0x3c14ed01	0.009089709
188	0x3d87cb29	0.066305466
189	0x3d054639	0.032537673
190	0x3cf0f28b	0.029412528
191	0x3a73ae7a	0.00092957134
192	0x3dae83f2	0.0852126
193	0x3ddc00bc	0.107423276
194	0x3d64790e	0.05577951
195	0x3dbe7ecb	0.093015276
196	0x3d5162b6	0.05111953
197	0xbc8dbf37	-0.017303092
198	0x3d677667	0.0565094
199	0xbc80b9de	-0.015713628
200	0x3d3d0aca	0.046152867
201	0x3d81dd70	0.06341064
202	0x3d5a25fb	0.053258877
203	0xbcfabfee	-0.030609097
204	0xbd50d37b	-0.050982933
205	0x3da88e60	0.08230281
206	0x3a1345c1	0.0005617999
207	0x3dd25c5f	0.10271525
208	0x3d7d7a30	0.061884105
209	0x3aa61cd4	0.0012673386
210	0x3c707190	0.014675513
211	0xbd06e525	-0.032933373
212	0x3cc32ff4	0.023826577
213	0xbbb56e24	-0.0055368114
214	0x3dbe3613	0.092876576
215	0xbd1ff80a	-0.039054908
216	0x3d1b6150	0.0379346
217	0x3d87bb7d	0.066275574
218	0x3d90c890	0.07069504
219	0x3d8db540	0.06919336
220	0xbd6ccbac	-0.057811424
221	0x3d8ae35c	0.067816466
222	0x3db025ee	0.086009845
223	0xbd15e47c	-0.036594853
224	0xbd4ffcc5	-0.05077817
225	0x3d5860a2	0.05282653
226	0xbb93e58d	-0.0045134486
227	0x3d3888d0	0.04505235
228	0x3ce3ae8a	0.027793188
229	0x3d544678	0.051825017
230	0x3d1861d1	0.03720266
231	0x3c59baae	0.013289137
232	0x3cd84b2a	0.026403029
233	0x3cb8baf6	0.022550087
234	0x3d194443	0.037418615
235	0x3cb902aa	0.022584278
236	0x3d3d8e0e	0.046278052
237	0x3dc1e347	0.09467178
238	0xbaa5cda7	-0.001264979
239	0x3d94be37	0.07262843
240	0x3d28be47	0.041197088
241	0x3d3de0f9	0.04635713
242	0xbc92b613	-0.017909085
243	0x3d8c1d6b	0.068415485
244	0x3cfb1697	0.03065042
245	0x3d497082	0.04917956
246	0x3dace109	0.084413595
247	0xbd1a5712	-0.037680693
248	0xbd151b9b	-0.03640328
249	0x3cbb7167	0.022881223
250	0xbd9db49b	-0.077004634
251	0xbcbe68f3	-0.023243403
252	0x39d949c1	0.00041444416
253	0x3d239221	0.03993428
254	0xbdd2f5b1	-0.10300768
255	0x3d44f30c	0.04808335

features.conv2.bias f4 [16]
0	0xbdab1bf2	-0.083549395
1	0xbd438d5c	-0.047742233
2	0x3c1dfe6f	0.009643181
3	0xbd4009a4	-0.046884194
4	0xbd2fc468	-0.042911917
5	0x3d49cfb1	0.049270336
6	0xbd942d15	-0.07235161
7	0xbd0ff2a3	-0.035143506
8	0xbc3b7e96	-0.011443755
9	0x3dd4cc43	0.10390522
10	0xbd7455c2	-0.059652098
11	0xbd9c4a8f	-0.076314084
12	0xbdaa907a	-0.08328338
13	0x3d4ed4d2	0.05049593
14	0x3d089cdb	0.033352714
15	0x3d8ff82c	0.07029757

features.fc1.weight f4 [120, 400]
0	0x3d3865c2	0.04501892
1	0x3d22992e	0.039696865
2	0xbc11ebed	-0.008906347
3	0xbb3c0ae2	-0.002869301
4	0x3c353fc4	0.011062566
5	0xbc443309	-0.011975058
6	0x3d3029d2	0.043008633
7	0x3cc1510f	0.023598222
8	0x3c05a3ed	0.008156759
9	0xbd076445	-0.03305461
10	0x3d1dc1bf	0.03851485
11	0xbb46a297	-0.0030309313
12	0xbcc6c95f	-0.024265943
13	0xbd2ff409	-0.04295734
14	0xbd2419e4	-0.040063754
15	0x3d229a43	0.039697897
16	0xbce4d3a6	-0.027932953
17	0x3d3cc051	0.046081845
18	0x3b7c48d1	0.003849555
19	0xbd5329c2	-0.051553495
20	0xbc825f23	-0.015914505
21	0x3cb85bca	0.022504706
22	0x3d0823f1	0.0332374
23	0x3d01ced4	0.031691387
24	0xbbdf560d	-0.006815678
25	0x3d473501	0.048634533
26	0x3cfcd65c	0.030863933
27	0x3d1288ec	0.03577511
28	0xbc0274ae	-0.007962389
29	0x3c2f58b8	0.010702305
30	0x3d299cfa	0.04140947
31	0xbc58b5c7	-0.013226933
32	0xbd1c75a5	-0.038198132
33	0xbd477123	-0.04869188
34	0xbcad7e40	-0.021178365
35	0xbc56510b	-0.013080846
36	0x3c8cd110	0.017189533
37	0xbc7b1d35	-0.015326788
38	0x3c4a309f	0.012340694
39	0xbd25e7bb	-0.0405042
40	0xbc25257a	-0.010079736
41	0x3d29df4e	0.041472726
42	0x3c900549	0.017580645
43	0xbc96392a	-0.018337805
44	0x3d134118	0.03595075
45	0x3cf00b0f	0.029302148
46	0x3d2d19b8	0.042260855
47	0xbb742fe8	-0.003726
48	0xbb5c337e	-0.0033600028
49	0x3cce9273	0.025216317
50	0xbcc30c1e	-0.023809489
51	0x3cf67dc9	0.030089276
52	0x3d23b7c3	0.03997017
53	0xbbd236b4	-0.0064152125
54	0x3d35832c	0.04431455
55	0x3d3399e4	0.043847933
56	0x3cea51f2	0.028603528
57	0x3d03b936	0.032159053
58	0x3c0b9cc0	0.008521259
59	0x3d2d1aaa	0.042261757
60	0x3d2f75c2	0.042836912
61	0xbcc65350	-0.024209648
62	0xbc870c26	-0.016485285
63	0xba515913	-0.00079859904
64	0x3c8d27d3	0.017230904
65	0xbcf64b31	-0.030065151
66	0x3d28de5c	0.041227683
67	0xbd18bdd8	-0.037290424
68	0x387d5914	6.040286e-05
69	0x3c59212f	0.0132525405
70	0xbca6d099	-0.020363139
71	0xbc8ec9c4	-0.017430194
72	0x3d1d796b	0.03844587
73	0x3cf86af6	0.03032444
74	0xbcefd990	-0.029278547
75	0xbca0a60f	-0.019610433
76	0x3b23c445	0.0024988812
77	0xbc6fb9aa	-0.014631668
78	0x3ccba59d	0.024859244
79	0x3ba17ba6	0.00492807
80	0xbbc53aab	-0.0060189567
81	0xbca92fad	-0.020652616
82	0xbbf151a9	-0.007364471
83	0xbc8c4ff6	-0.017127972
84	0xbd461831	-0.048362914
85	0x3d1eab3c	0.03873752
86	0xbd50cbc7	-0.050975587
87	0xbd3f3fb8	-0.046691626
88	0x3d27d029	0.04097
89	0x3d05320d	0.032518435
90	0xbd2a5868	-0.041588217
91	0x3c287a46	0.0102830585
92	0x3b1fc7b7	0.0024380514
93	0x3d26ac6e	0.040691786
94	0x3cf6e37c	0.03013777
95	0xbb5d4f98	-0.0033769365
96	0xbd57a6d6	-0.05264934
97	0xbd010c1a	-0.03150568
98	0xbc720d7c	-0.014773723
99	0xbc2885ea	-0.010285834
100	0xbc915e8d	-0.01774528
101	0x3c83d21a	0.016091395
102	0xbcb6b57e	-0.02230334
103	0xbd26f505	-0.040761013
104	0x3cb1afee	0.021690335
105	0x3c7d291f	0.015451699
106	0x3c8db5f7	0.017298682
107	0x3b3634cd	0.0027802468
108	0x3d42e1ec	0.047578737
109	0xbcba8df3	-0.022772765
110	0x3d2aed99	0.041730497
111	0xbce88641	-0.02838433
112	0x3caf7e32	0.02142248
113	0x3cd4cb05	0.025975714
114	0x3cab65fc	0.020922653
115	0x3d24ddaa	0.040250458
116	0x3c599d6f	0.013282164
117	0xbbe4d49b	-0.0069833524
118	0xbc8fa296	-0.017533582
119	0xbccdfdb5	-0.025145391
120	0x3d273b07	0.040827777
121	0xbba640bb	-0.0050736344
122	0xbce61e78	-0.0280907
123	0xbcb8f5d9	-0.022578167
124	0xbd27a1d3	-0.040925812
125	0xbbe69f68	-0.0070380457
126	0x3cc98bb4	0.024602748
127	0xbcb5af87	-0.022178425
128	0xbc436d80	-0.011927962
129	0x3d1460d6	0.036225162
130	0xbc1dab6d	-0.009623391
131	0x3b649c4f	0.0034883206
132	0x3bb271c2	0.00544569
133	0xbcc1c86d	-0.02365514
134	0x3d3a57b6	0.045493804
135	0xbcb56d8f	-0.022146968
136	0xbcb35ff0	-0.021896333
137	0x3bef4161	0.007301495
138	0x3cb61b5b	0.022229841
139	0xbc8e49c8	-0.017369166
140	0xbd3cadae	-0.04606407
141	0xbb0b55cf	-0.0021260863
142	0x3c49ea2b	0.012323896
143	0xbccbbd5b	-0.024870565
144	0xbcec3d6b	-0.02883788
145	0xbd456467	-0.048191454
146	0x3d10e000	0.035369873
147	0x3cc356f4	0.023845173
148	0x3d369d34	0.044583514
149	0xbd4a4d09	-0.049389873
150	0xbd4d147c	-0.050068364
151	0xbc8dc4a0	-0.017305672
152	0x3c616393	0.0137566505
153	0x3d0f8412	0.03503806
154	0x3b0c0d90	0.0021370389
155	0x3cf3c730	0.029758066
156	0xbb34713c	-0.0027533313
157	0xbc906b73	-0.01762936
158	0xbc567d16	-0.013091346
159	0x3c1bb3ca	0.009503314
160	0xbd325a96	-0.04354342
161	0x3ccfde83	0.025374657
162	0x3caacda5	0.020850012
163	0xbd42cc58	-0.04755816
164	0x3d2cf139	0.042222235
165	0x3ce2245e	0.027605232
166	0x3d2ff29d	0.042955983
167	0xbce553c5	-0.027994046
168	0xbc732a7c	-0.014841672
169	0x3ba17c67	0.00492816
170	0xbd4bbf18	-0.049742788
171	0xbd1fde69	-0.039030466
172	0xbd14c69c	-0.03632222
173	0xbd407706	-0.04698851
174	0xbc72675b	-0.01479515
175	0x3ced78e0	0.028988302
176	0x3c5af1d4	0.01336332
177	0x3c81c488	0.015840784
178	0xbca19b98	-0.019727513
179	0xbc19f812	-0.0093975235
180	0x3d190ad5	0.037363846
181	0x3d28462e	0.041082554
182	0xbce24c03	-0.027624136
183	0x3d40c22c	0.047060177
184	0x3d3dddfd	0.046354283
185	0x3cd22dab	0.025656542
186	0xbd1e558f	-0.038655814
187	0x3d2746c7	0.040838983
188	0x3d3231eb	0.043504637
189	0xbd0cdafd	-0.03438853
190	0x3ad5f58b	0.0016323788
191	0xbcdd4e33	-0.027014827
192	0x3d0a8857	0.03382143
193	0xbd48eee7	-0.04905596
194	0x3ce098c0	0.027416587
195	0xbb7c4738	-0.0038494598
196	0x3d0063ad	0.03134506
197	0xbd0112b9	-0.031511996
198	0x3ce6fae4	0.028195806
199	0x3b44a596	0.0030005923
200	0x3b88c586	0.0041739373
201	0x3c3f8c68	0.01169119
202	0x3c852154	0.016251244
203	0x3d4531e2	0.048143275
204	0xbc1e7515	-0.009671469
205	0x3cdff06e	0.027336325
206	0xbcc5193b	-0.024059882
207	0x3ca98a6d	0.02069589
208	0x3c081eec	0.008308154
209	0x3cf39325	0.02973325
210	0x3d2487a5	0.040168423
211	0xbd17a30a	-0.03702072
212	0x3c9b19ae	0.018933143
213	0xbd307abf	-0.04308581
214	0xbc8a2e19	-0.016867684
215	0xbd3eb0c6	-0.046555303
216	0x3cbed2bb	0.023293843
217	0xbc065f0c	-0.008201372
218	0xbd29c890	-0.041451037
219	0xbbfc3bfd	-0.007697581
220	0x3d39028b	0.04516844
221	0x3cc1a46f	0.023637978
222	0x3d36f753	0.04466946
223	0xbd0c6666	-0.034277342
224	0xbd49f779	-0.049308274
225	0x3cb56930	0.022144884
226	0xbd117ae3	-0.035517585
227	0xbd116edc	-0.035506114
228	0xbc9167a8	-0.017749622
229	0xbd46241d	-0.048374284
230	0xbc88f90c	-0.016720317
231	0x3b2c5ed3	0.0026301637
232	0xbcc32d4a	-0.023825306
233	0xbd1457bd	-0.036216486
234	0x3d36fd06	0.044674896
235	0xbc0a5444	-0.008442942
236	0x3cbb2ab4	0.02284751
237	0xbcfcf5bb	-0.030878892
238	0xbd238553	-0.03992207
239	0x3cad99e2	0.021191541
240	0xbca06995	-0.019581595
241	0x3cbb929e	0.022897061
242	0xbd4671dd	-0.048448432
243	0x3d424466	0.04742851
244	0x3c01af8a	0.007915387
245	0xbd350ebc	-0.044203505
246	0x3ba307b0	0.0049752817
247	0xbba2f8a0	-0.004973486
248	0x3b9b14b4	0.0047326926
249	0x3cd8c533	0.02646122
250	0x3b979c14	0.0046267603
251	0x3d4d2f33	0.05009384
252	0x3c7f09e6	0.015566325
253	0xbb09edf6	-0.0021046377
254	0xbbfa336b	-0.007635524
255	0x3cdd60e7	0.027023746

features.fc1.bias f4 [120]
0	0xbd51ae23	-0.05119146
1	0xbcc64fc6	-0.02420796
2	0x3ce96bc2	0.028493766
3	0xba9ac73d	-0.0011808645
4	0x3cfb2a88	0.030659929
5	0x3d16a506	0.036778472
6	0xbd115bf8	-0.0354881
7	0xbbe31e82	-0.006931127
8	0x3d6fbcba	0.058529593
9	0x3d077ff9	0.03308103
10	0xbcca2fa4	-0.02468092
11	0xbb95d441	-0.004572422
12	0xbd338105	-0.043824214
13	0xbd4a1408	-0.04933551
14	0xbd16a153	-0.036774945
15	0xbc13d289	-0.009022363
16	0x3ccb5fc5	0.02482594
17	0xbcb1c325	-0.021699497
18	0xbd10126f	-0.03517383
19	0x3b12f2b0	0.0022422485
20	0x3d4c6bfe	0.049907677
21	0xbba32648	-0.0049789287
22	0xbca32256	-0.019913834
23	0x3d55af70	0.052169263
24	0xbb5fb152	-0.003413279
25	0x3ce0fffc	0.027465813
26	0xbcb2b1b2	-0.021813247
27	0xbce49cc4	-0.027906783
28	0x3c947ac6	0.01812495
29	0xba1e4bd4	-0.0006038521
30	0x3d1f0809	0.038826022
31	0x3c21662c	0.00985102
32	0xbd243db9	-0.040097926
33	0x3cb0596f	0.02152702
34	0xbc1ad425	-0.009449993
35	0x3d053696	0.03252276
36	0xba92af9f	-0.0011191255
37	0xbcbc91be	-0.023018714
38	0x3d1673d1	0.036731545
39	0x3cb905ee	0.022585835
40	0x3c06495e	0.008196203
41	0x3bbdc078	0.0057907663
42	0xb872b197	-5.786269e-05
43	0xbba45ca9	-0.0050159288
44	0xba63a719	-0.0008684262
45	0xbcfbddb1	-0.03074536
46	0x3c1473cb	0.00906081
47	0x3d064008	0.03277591
48	0xbc311313	-0.01080777
49	0xbd4c634e	-0.04989939
50	0x3d3f3c27	0.046688225
51	0xbd29a4cc	-0.04141693
52	0x3c970b7b	0.018438092
53	0xbd447cd4	-0.047970608
54	0xbcd26f4b	-0.025687834
55	0xbd120e9c	-0.035658464
56	0x3d1e5015	0.03865059
57	0x3d045611	0.03230864
58	0xbc2afb26	-0.010435855
59	0x3c88852e	0.016665068
60	0xbcc96973	-0.024586415
61	0x3cabe799	0.020984458
62	0x3cb4b7e1	0.022060337
63	0xbd3044fb	-0.043034535
64	0x3c0aaef3	0.008464563
65	0xbc5f56db	-0.013631548
66	0xbd0a5da8	-0.033780724
67	0x3bed6f54	0.0072459374
68	0xbd1965ca	-0.03745059
69	0xbd7852f2	-0.060625978
70	0x3d00bfd7	0.031432953
71	0x3d2beaee	0.041972093
72	0xbcdf542b	-0.027261814
73	0x3b51df53	0.003202398
74	0xbd6de901	-0.058083538
75	0x3d635df2	0.055509515
76	0x3c50c096	0.012741229
77	0x3d422a63	0.047403704
78	0xbd1a28be	-0.03763651
79	0x3baa8eca	0.00520501
80	0xbc8caa68	-0.0171711
81	0x3bed67aa	0.0072450237
82	0xbd8161eb	-0.063175045
83	0x3ca9a13d	0.020706767
84	0xbc3913e0	-0.0112962425
85	0x3d312c6e	0.043255262
86	0x39d40592	0.0004043994
87	0xbb3c8bea	-0.0028769919
88	0xbd0bb869	-0.034111414
89	0xbcc6ae64	-0.024253078
90	0xbca16f6f	-0.019706456
91	0xbd4ca7ad	-0.049964596
92	0x3ce14bfd	0.027502054
93	0xbd64e230	-0.05587977
94	0x3d141ae0	0.036158442
95	0x3cc9da9b	0.024640372
96	0xbc45ccc8	-0.012072749
97	0xbd1e0dfc	-0.038587555
98	0x3c7fa138	0.015602402
99	0xbc9b13e4	-0.018930383
100	0x3cfdf230	0.030999273
101	0x3d514d0c	0.05109887
102	0xbb750175	-0.0037384902
103	0xbcaecb88	-0.021337286
104	0x3ab87dcb	0.0014075575
105	0x3cbfb748	0.023402825
106	0xbd05cc70	-0.03266567
107	0x3d921c5c	0.07134315
108	0x3b6e11dd	0.0036326565
109	0xbd10b01c	-0.0353242
110	0xbcc51af1	-0.024060698
111	0x3cb51d60	0.022108734
112	0xbd0428dd	-0.032265533
113	0xbcd69c6c	-0.026197635
114	0xbbeb7530	-0.0071856007
115	0xbcbdc89f	-0.023166953
116	0x3d0331cd	0.032029916
117	0x3c8169d7	0.015797539
118	0xbd17aeed	-0.037032057
119	0x3b5e5915	0.0033927609

features.fc2.weight f4 [84, 120]
0	0xbd9d95cd	-0.07694588
1	0x3da0d73e	0.07853554
2	0xbd285275	-0.041094262
3	0xbd9a2442	-0.07526447
4	0xbd6e13c8	-0.058124334
5	0xbcc31860	-0.023815334
6	0xbd31314c	-0.043259904
7	0xbca6b338	-0.02034913
8	0x3cffb951	0.031216295
9	0x3cd1a84c	0.025592946
10	0xbbbb7daf	-0.0057217698
11	0x3c520f60	0.0128210485
12	0x3b85f5a6	0.0040881215
13	0xbd505b18	-0.050868124
14	0x3d0133b7	0.03154346
15	0x3d20a502	0.039219864
16	0xbc9b9d10	-0.018995792
17	0xbd38c3bc	-0.04510854
18	0xbda172a2	-0.078831926
19	0x3d505708	0.05086425
20	0xbc497452	-0.012295799
21	0x3d9d4ff8	0.076812685
22	0xbd218f6d	-0.039443422
23	0xbc9fa3e7	-0.019487334
24	0x3c8a501d	0.016883904
25	0x3ca61ce8	0.020277455
26	0x3d940c6b	0.07228931
27	0x3d8e24f3	0.06940641
28	0xbb91920a	-0.004442458
29	0xbd6fe9dc	-0.058572635
30	0x3d987d42	0.07445766
31	0x3cc3ac35	0.023885826
32	0xbd2e888a	-0.042610683
33	0x3c85f7c2	0.016353492
34	0x3d07c1f4	0.033143952
35	0xbcfd5147	-0.030922545
36	0x3c176800	0.009241104
37	0x3baa96d9	0.0052059707
38	0x3da54038	0.080688894
39	0x3d77635c	0.06039749
40	0xb8d971cb	-0.00010368562
41	0x3d7c6d99	0.061627958
42	0x3c748f2f	0.014926716
43	0xbda78a78	-0.08180708
44	0xbdabadbf	-0.08382749
45	0x3d1fe1f1	0.039033834
46	0xbd1586a9	-0.036505375
47	0xbdb83bf7	-0.089958124
48	0xbbd25107	-0.0064183506
49	0xbd9942d8	-0.074834526
50	0x3c7896b4	0.015172649
51	0xbd001cc0	-0.031277418
52	0x3dab47b9	0.083632894
53	0xbd3a6e85	-0.045515556
54	0xbc2c0a28	-0.010500468
55	0x3cbdf890	0.023189813
56	0x3dc0b696	0.094098255
57	0x3d558c19	0.05213556
58	0x3cc6f699	0.024287509
59	0x3d932d29	0.07186348
60	0xbc81161a	-0.01575761
61	0xbd745455	-0.059650738
62	0xbda08259	-0.07837362
63	0x3c5d23f6	0.013497343
64	0x3cd53f48	0.026031151
65	0xbc8a11d5	-0.016854206
66	0x3d61c21c	0.055116758
67	0xbd46f0e5	-0.04856958
68	0xbd52af77	-0.051436868
69	0xbc87842c	-0.016542517
70	0x3d835dfc	0.064144105
71	0xbc274433	-0.010209131
72	0xbdacc7d6	-0.08436553
73	0x3d7c2d9d	0.061566938
74	0x3b58e758	0.0033096876
75	0xbc0446b3	-0.008073497
76	0x3d094c91	0.033520285
77	0xbd7140ae	-0.058899574
78	0x3c093327	0.008374012
79	0xbd823002	-0.06356813
80	0xbd06a21f	-0.032869454
81	0x3dabe1d1	0.083926804
82	0x3d24722e	0.040147953
83	0x3c89e742	0.016833905
84	0xbcae2db5	-0.02126203
85	0x3d29d867	0.041466143
86	0x3d6c50e2	0.057694323
87	0xbc3db3e6	-0.011578536
88	0x3ca3436b	0.019929608
89	0xbba235db	-0.0049502677
90	0xbdad5a65	-0.08464507
91	0x3c34ce85	0.011035566
92	0xbb99adc6	-0.004689905
93	0xbce610c7	-0.028084172
94	0x3d0c94a3	0.03432144
95	0xbcfa6108	-0.030563846
96	0xbd32dd0c	-0.043667838
97	0x3dbed814	0.093185574
98	0xbd5e9c2c	-0.054348156
99	0x3cc14798	0.023593709
100	0xbc8c8060	-0.017151058
101	0xbd8706bb	-0.065930806
102	0xbcc84d8c	-0.02445104
103	0x3cc96ff6	0.02458952
104	0xbccd8d5c	-0.02509182
105	0xbc3a7c4d	-0.011382175
106	0xbb7f8190	-0.0038987137
107	0x3d60f297	0.05491885
108	0x3d16b81a	0.036796667
109	0x3d811077	0.063019685
110	0x3c1b0521	0.009461672
111	0xbcf18859	-0.029483961
112	0x3cd42857	0.025898142
113	0xbce21d6d	-0.027601922
114	0x3d36c0b8	0.044617385
115	0xbd4ad5a2	-0.049520142
116	0x3d2a8b0b	0.041636508
117	0xbd8dcf81	-0.06924344
118	0xbd890262	-0.066899076
119	0x39aeae8c	0.00033317914
120	0xbd66fbb7	-0.056392398
121	0xbd5c7bb9	-0.05382893
122	0x3d229fdc	0.039703235
123	0x3d9cc151	0.0765406
124	0x3d9b0db8	0.07570976
125	0x3cc13271	0.023583623
126	0xbdb01b59	-0.08598966
127	0xbca29bf4	-0.019849755
128	0x3d91da02	0.0712166
129	0xbb7be40a	-0.0038435482
130	0xbdbfa6d3	-0.09357991
131	0xbd8f3aee	-0.06993662
132	0xbced2425	-0.0289479
133	0x3dc3e836	0.09565775
134	0x3bd542af	0.0065081934
135	0xbd536bb7	-0.051616397
136	0x3d0658d4	0.032799557
137	0xbd27ad1e	-0.04093658
138	0xbc7eb821	-0.015546829
139	0xbc0c9773	-0.00858103
140	0x3d0eaa7c	0.034830555
141	0x3d8ee555	0.06977335
142	0x3dab8c41	0.08376361
143	0xbd5f0468	-0.05444756
144	0xbd9e2a5f	-0.077229254
145	0x3ceb4ce2	0.028723184
146	0x3d2b88e6	0.041878603
147	0x3d805fc8	0.06268269
148	0xbbc1183c	-0.0058927815
149	0x3d8c8e73	0.068631075
150	0x3ba439ec	0.0050117876
151	0xbcf68f87	-0.030097736
152	0x3c831924	0.016003199
153	0xbd04d111	-0.032425944
154	0x3d6f181c	0.058372602
155	0xbda75395	-0.08170239
156	0xbd7acc29	-0.06122986
157	0xbd89d8ab	-0.06730779
158	0xbcc014a3	-0.02344734
159	0xbd5b3d62	-0.053525336
160	0x3d8c0ca3	0.06838348
161	0x3c1b94a6	0.00949589
162	0x3d9fcc59	0.07802648
163	0xbd468b47	-0.04847267
164	0xbda730fd	-0.08163641
165	0x3daf935c	0.085730284
166	0x3d6349c3	0.055490267
167	0x3d9441b3	0.07239094
168	0xbd783b9d	-0.060603727
169	0x3d84e442	0.06488849
170	0x3bc3afd8	0.00597189
171	0x3d4eabf6	0.050456963
172	0x3d05995b	0.032616954
173	0xbd2e4077	-0.042541947
174	0xbd9b4a6e	-0.07582556
175	0xbd536ad3	-0.051615547
176	0xbc60601e	-0.013694791
177	0x3db4992e	0.08818279
178	0x3d3fb8f4	0.046807244
179	0xbc9b4012	-0.01895145
180	0xbd988b32	-0.074484244
181	0x3d5dd8d2	0.054161854
182	0xbc8f34fd	-0.017481321
183	0xbcad1d90	-0.02113226
184	0x3d2755c3	0.040853273
185	0x3d617091	0.055038992
186	0x3d0a410f	0.03375345
187	0x3c23ba40	0.009993136
188	0x3d98cbdb	0.07460757
189	0x3d475447	0.048664358
190	0x3c7596d7	0.014989576
191	0x3c8cb818	0.017177626
192	0x3c3da980	0.0115760565
193	0xbd0c7eca	-0.034300603
194	0x3cbc8270	0.023011416
195	0xbd605033	-0.054763984
196	0x3d842a10	0.06453335
197	0x3daed628	0.08536941
198	0x3b9cc545	0.0047842585
199	0x3c234c1c	0.009966876
200	0xbcd8a380	-0.02644515
201	0x3d995273	0.07486429
202	0x3dcf7338	0.10129398
203	0xbd68781b	-0.056755167
204	0x3d7207dc	0.059089527
205	0xbdab6f9c	-0.08370897
206	0x3da6d75e	0.08146547
207	0x3d28a392	0.041171618
208	0x3db015fe	0.08597945
209	0xbd8062ad	-0.06268821
210	0xbc1e8c03	-0.009676936
211	0xbd1cbfd5	-0.038268883
212	0xbcde839a	-0.027162362
213	0x3db4eed4	0.08834615
214	0xbd034cba	-0.032055594
215	0x3caac15e	0.020844158
216	0xbcf5ac33	-0.029989338
217	0xbd65e4a9	-0.05612627
218	0x3dba5e49	0.09100015
219	0x3d8ab234	0.06772271
220	0x3cc28620	0.023745596
221	0x3d926797	0.071486644
222	0x3d0340d7	0.032044258
223	0x3da47f75	0.08032123
224	0xbd06fa78	-0.03295371
225	0x3c059b0e	0.008154644
226	0xbc434cfc	-0.01192021
227	0xbd96b963	-0.073595785
228	0xbcc75fcf	-0.024337677
229	0x3c8ffc0e	0.017576244
230	0x3cce183e	0.025158044
231	0x3cebfedb	0.028808048
232	0xbd9f5501	-0.07779885
233	0x3db36432	0.08759345
234	0x3d84856e	0.06470762
235	0x3da90341	0.08252574
236	0x3d9deeac	0.07711539
237	0x3d10402c	0.03521745
238	0x3dc58596	0.0964462
239	0x3a4b051d	0.00077445974
240	0x3bd92041	0.0066261594
241	0xbd2192fe	-0.039446823
242	0x3dbf7abe	0.09349583
243	0x3cc2e7f3	0.023792243
244	0x3db1b5dc	0.08677265
245	0x3da8ceac	0.082425445
246	0xbc87cec7	-0.016578091
247	0xbd4dc3cc	-0.050235555
248	0xbd2615d8	-0.040548176
249	0xbd57a018	-0.05264291
250	0x3d5131b7	0.051072802
251	0x3d6aba29	0.057306442
252	0x3cfd7eda	0.030944277
253	0xbd7383bc	-0.059451804
254	0x3c2d2066	0.010566806
255	0xbd8ec36b	-0.06970867

features.fc2.bias f4 [84]
0	0x3da82840	0.08210802
1	0xbd421209	-0.04738048
2	0x3da8386b	0.08213886
3	0x3d8ed8d7	0.06974953
4	0x3be7eb6c	0.007077625
5	0xbd9cc326	-0.07654409
6	0xbd994229	-0.07483322
7	0x3b4c7842	0.003119961
8	0xbd9196ef	-0.071088664
9	0x3c34e79b	0.011041547
10	0x3c87174b	0.0164906
11	0xbd7fefc9	-0.062484536
12	0xbcffe1e1	-0.031235637
13	0xbd379eb8	-0.0448291
14	0xbc8bb4e1	-0.017054023
15	0xbdc0efd9	-0.09420747
16	0x3c0a3488	0.008435376
17	0xbd8e6b7d	-0.069540955
18	0x3e2d8b1c	0.16947597
19	0xbd069ae8	-0.032862574
20	0xbdaf8542	-0.08570339
21	0x3e08052a	0.1328322
22	0x3bee4c6c	0.007272294
23	0xbd1e745d	-0.03868519
24	0x3d3c8129	0.046021614
25	0x3b3530b6	0.0027647442
26	0xbd0149d6	-0.031564556
27	0x3da1fcce	0.07909547
28	0x3d94ca37	0.07265132
29	0x3dbffa56	0.0937392
30	0xbd9e6ac2	-0.07735206
31	0xbbc6cedf	-0.0060671414
32	0x3ced7e9d	0.028991038
33	0xbdae0185	-0.084963836
34	0xbdc8fe3f	-0.098141186
35	0xbd0b6a79	-0.034037087
36	0xbdb69422	-0.08914973
37	0x3cb40f5c	0.02197998
38	0x3cf13893	0.029445922
39	0x3d910c73	0.070824526
40	0xbda623ee	-0.08112322
41	0xbd90e2e5	-0.07074527
42	0xbd83640b	-0.06415566
43	0x3dbac37b	0.09119316
44	0x3da95249	0.08267648
45	0x3d270c28	0.040783077
46	0x3dabfc48	0.08397728
47	0xbcd096b5	-0.025462488
48	0xbd4606dd	-0.04834639
49	0x3cf94944	0.030430444
50	0x3b80dee8	0.0039328225
51	0xbd135b2a	-0.035975613
52	0xbd542be3	-0.051799666
53	0x3d7b3700	0.06133175
54	0xbd2ef825	-0.042717118
55	0x3bcb859d	0.0062109963
56	0x3d90d403	0.07071688
57	0x3a9b91b7	0.0011868988
58	0xbd7b0ab5	-0.061289508
59	0xbdcc4bd3	-0.099754
60	0x3e0f8057	0.14013802
61	0xbc8abff8	-0.016937241
62	0x3db71ba4	0.08940819
63	0x3cafb5fc	0.021449082
64	0xbcd8186b	-0.02637883
65	0x3d83a8b7	0.06428664
66	0x3d6cc2fa	0.05780313
67	0x3d9fc629	0.07801468
68	0xbdb9f7f7	-0.09080499
69	0xbd33e863	-0.043922793
70	0xbda915a0	-0.08256078
71	0x3de37a5c	0.111073226
72	0x3d4b2b3d	0.049601782
73	0xbc4fda4d	-0.012686324
74	0xbc403ac0	-0.011732757
75	0xbc983e58	-0.018584415
76	0x3c037b31	0.008024977
77	0xbcc6fdad	-0.024290884
78	0xbd80e5e4	-0.06293848
79	0x3df724ae	0.12067543
80	0xbc94daf6	-0.018170815
81	0xbd86feb0	-0.065915465
82	0xbd970d20	-0.0737555
83	0xbd905bc0	-0.0704875

l1.weight f4 [84, 84]
0	0xbdb85adf	-0.09001707
1	0x3d81c5d8	0.06336564
2	0xbd8fee47	-0.0702787
3	0x3da7cf4e	0.08193837
4	0x3dded310	0.10880101
5	0x3bed0c22	0.0072341124
6	0xbdc3505e	-0.09536813
7	0x3d22dab2	0.039759345
8	0xbc81891a	-0.015812445
9	0xbdb55459	-0.08853979
10	0x3d5c5ce6	0.053799532
11	0xbd227484	-0.0396619
12	0x3d54fee9	0.052000914
13	0x3c3ee3fb	0.0116510345
14	0x3da0dcff	0.07854652
15	0xbdcd3f55	-0.10021845
16	0x3db62cbb	0.088952504
17	0xbb083f74	-0.0020789774
18	0x3d6d5b9b	0.05794869
19	0xbc7d2d28	-0.015452661
20	0x3d3ec847	0.046577718
21	0x3d9fc608	0.07801443
22	0xbdba24bb	-0.09089037
23	0x3db7080e	0.08937083
24	0xbcf6d5ca	-0.03013124
25	0x3d986a2b	0.07442125
26	0x3d097ba1	0.033565167
27	0x3baf8bfc	0.0053572636
28	0xbd33b082	-0.043869503
29	0xbdab5bb7	-0.083671026
30	0x3c397f63	0.011321875
31	0x3dde7dd4	0.108638436
32	0x3cd83990	0.026394635
33	0x3b09286c	0.0020928634
34	0x3dc2900d	0.09500132
35	0xbd4d568d	-0.05013137
36	0xbd4e2bc4	-0.050334707
37	0xbdab138d	-0.083533384
38	0xbd26237a	-0.040561177
39	0x3dd77215	0.10519806
40	0x3daf0602	0.08546068
41	0x3d053099	0.03251705
42	0xbd1b629e	-0.037935846
43	0x3dd83b91	0.105582364
44	0xbd3e512a	-0.046464123
45	0x38bffbd6	9.154498e-05
46	0x3af49632	0.0018660484
47	0x3d9eee87	0.07760339
48	0x3d8b4493	0.06800189
49	0xbc3732c0	-0.011181533
50	0xbd833d23	-0.06408145
51	0x3d215596	0.03938826
52	0x3d9f4239	0.07776303
53	0x3d7b0c21	0.061290864
54	0xbda86a6b	-0.082234226
55	0xbdd25582	-0.102702156
56	0xbdbd1948	-0.09233338
57	0xbdc8dc04	-0.0980759
58	0xbda488f1	-0.08033932
59	0x3c87b7b0	0.016567081
60	0x3d34a39a	0.044101335
61	0x3d863572	0.06553163
62	0x3caa308b	0.0207751
63	0xbd98ebcb	-0.07466849
64	0x3cf136a8	0.029445007
65	0xbd02a2bc	-0.031893477
66	0xbdc239ea	-0.094837025
67	0x3d3268f7	0.043557134
68	0x3d8e772b	0.06956323
69	0xbd66f809	-0.05638889
70	0x3dc1ce97	0.09463232
71	0x3d8d90aa	0.06912358
72	0x3d46c328	0.04852596
73	0x3bb6bdaa	0.005576809
74	0x3dbe56b4	0.09293881
75	0x3dd64356	0.10462062
76	0x3d09ea00	0.033670425
77	0xbb889f2b	-0.004169365
78	0x3ddc76f5	0.10764877
79	0x3c9f5ea9	0.019454317
80	0xbdb36006	-0.087585494
81	0x3d8746dd	0.06605313
82	0xbd741444	-0.05958964
83	0xbcaadc96	-0.020857137
84	0xbccc193c	-0.024914376
85	0x3da558d3	0.080735825
86	0x3d18871d	0.03723823
87	0xbd88cdbd	-0.066798665
88	0x3db1e8bf	0.08686971
89	0xbc46dc64	-0.012137506
90	0xbd3d1764	-0.046164885
91	0x3dc8c4a7	0.098031335
92	0x3d0c5505	0.03426077
93	0xbdc8c1fa	-0.09802623
94	0x3d7b07a4	0.061286584
95	0x3da6af26	0.08138876
96	0xbda57f37	-0.08080905
97	0xbc448a77	-0.011995903
98	0x3c13aee4	0.009013865
99	0x3db5a58c	0.08869466
100	0xbd81335c	-0.06308624
101	0xbdccf85b	-0.100083075
102	0xbd6d81a5	-0.057984967
103	0x3d44c4cc	0.048039243
104	0xbc63e8a8	-0.01391045
105	0x3cb66704	0.022265919
106	0xbd752c9a	-0.05985699
107	0xbd07bf19	-0.03314123
108	0x3c8c18c8	0.01710166
109	0x3c8a7b4b	0.016904494
110	0xbdc75b76	-0.09734242
111	0xbd58df5e	-0.052947395
112	0x3d88d405	0.066810645
113	0x3db3ab25	0.087728776
114	0x3d74946c	0.05971186
115	0x3dc80223	0.097660325
116	0xbdae4062	-0.08508374
117	0xbdae93bd	-0.085242726
118	0xbd88a125	-0.06671361
119	0xbdd1366d	-0.10215459
120	0x3c9191d3	0.01776973
121	0xbddb65b8	-0.10712761
122	0x3d8cc004	0.068725616
123	0x3dc024c8	0.093820155
124	0x3c8c8547	0.017153395
125	0x3cd0c352	0.025483761
126	0x3d5e2c1d	0.05424129
127	0x3dc5fe04	0.0966759
128	0x3d70c91d	0.058785547
129	0xbcb9c0a6	-0.02267487
130	0xbca3997e	-0.019970652
131	0xbd8a1405	-0.067421
132	0x3d8de64b	0.069286905
133	0xbdd6081d	-0.10450766
134	0xbca9f00a	-0.020744342
135	0x3d2353c7	0.03987482
136	0x3ddcf4ca	0.10788877
137	0x3dd71615	0.10502259
138	0xbcd00d90	-0.025397092
139	0x3d90ba50	0.07066786
140	0xbdbafa6a	-0.09129794
141	0xbd767f5a	-0.060180046
142	0x3d50dfc6	0.050994657
143	0xbcbcf1e8	-0.023064569
144	0x3db57620	0.08860421
145	0x3db2a9d7	0.08723801
146	0xbd2a93e4	-0.041644946
147	0xbd5bd29a	-0.053667642
148	0x3c9ad85b	0.018901994
149	0xbda21943	-0.079149745
150	0xbd918aeb	-0.071065746
151	0x3d9655bf	0.073405735
152	0xbc8cea8b	-0.017201683
153	0xbda1d84e	-0.07902585
154	0x3d8f8be7	0.07009106
155	0xbdb81f97	-0.089904
156	0x3d2caabd	0.042155016
157	0xbdd272c3	-0.10275795
158	0x3c172d06	0.009227043
159	0x3cf569b5	0.029957632
160	0xbdc34f99	-0.095366664
161	0xbd238bd9	-0.03992829
162	0xbd0cc8f8	-0.034371346
163	0xbda7830c	-0.08179292
164	0xbdd3baff	-0.10338401
165	0xbd2e1400	-0.042499542
166	0xbdbf7607	-0.09348684
167	0xbac3d3e7	-0.0014940471
168	0x3dd69384	0.10477355
169	0x3c6c0396	0.014405152
170	0xbbf1cd6e	-0.0073792255
171	0x3d43fbc5	0.047847528
172	0x3cbdf730	0.023189157
173	0x3cd364bf	0.025804875
174	0x3daa4696	0.083142444
175	0xbd3dedd4	-0.04636939
176	0xbe0c689b	-0.13711779
177	0xbd36a9de	-0.04459559
178	0x3da41502	0.080118194
179	0x3cda19de	0.026623663
180	0x3bef4a74	0.0073025767
181	0xbd95d15d	-0.073153235
182	0xbc86f0af	-0.016472189
183	0xbc1a210e	-0.009407295
184	0x3bab3afe	0.0052255383
185	0x3d2d78b6	0.042351447
186	0xbd118601	-0.035528187
187	0x3d901897	0.0703594
188	0x3c465346	0.012104815
189	0x3bb35332	0.005472564
190	0x3c7013be	0.014653144
191	0xbbe4d670	-0.0069835708
192	0x3c44def7	0.01201605
193	0xbd16be39	-0.036802504
194	0xbd6b426c	-0.05743639
195	0xbd8a982c	-0.06767306
196	0xbdcd3f2b	-0.10021814
197	0x3cd8c10c	0.02645924
198	0x3db2a57d	0.08722971
199	0x3dc62ca0	0.0967648
200	0x3d447f08	0.04797271
201	0x3d1f7bc8	0.038936406
202	0xbdc6298c	-0.09675893
203	0xbdb3f95f	-0.08787798
204	0x3b8798e5	0.0041380995
205	0x3d92766a	0.07151492
206	0xbd08c251	-0.03338844
207	0xbdcd091b	-0.10011502
208	0xbd5bc404	-0.053653732
209	0x3db80549	0.08985383
210	0xbd33dc5c	-0.043911323
211	0x3db8506a	0.08999713
212	0x3d5d7b71	0.0540728
213	0x3da91b2c	0.08257136
214	0x3d726a7c	0.059183583
215	0xbda9382f	-0.08262669
216	0xbc03a607	-0.0080351895
217	0xbdb5b611	-0.08872617
218	0xbdc2304d	-0.09481869
219	0xbd602b53	-0.054728817
220	0xbd109074	-0.03529401
221	0xbcc6e0ae	-0.024277057
222	0x3dd9b112	0.106294766
223	0x3db1ee2e	0.08688007
224	0x3c4ce579	0.012505882
225	0xbd463c0e	-0.048397116
226	0xbd024e20	-0.031812787
227	0x3bdcd7c3	0.006739588
228	0x3d147896	0.036247812
229	0x3ca48b61	0.020085992
230	0x3dd23598	0.102641284
231	0xbdac205e	-0.08404611
232	0x3d993873	0.0748147
233	0x3b36d10f	0.0027895605
234	0x3d94f991	0.072741635
235	0x3cd54da6	0.026038002
236	0x3b2bc82a	0.0026211836
237	0x3cffba37	0.031216724
238	0x3d29b63a	0.04143355
239	0x3dec9ea7	0.11553698
240	0xbc19f1a9	-0.009395995
241	0xbbad6e13	-0.005292663
242	0xbd0d8422	-0.03454984
243	0xbd5edd0b	-0.05441002
244	0xbd8995fc	-0.067180604
245	0x3d2fe588	0.042943507
246	0x3dbac1bd	0.09118984
247	0x3d950e1b	0.07278081
248	0xbb743a9e	-0.0037266384
249	0x3d594f91	0.053054396
250	0xbcc40490	-0.023927957
251	0x3d03cb14	0.032176092
252	0x3db36dc1	0.08761168
253	0x3d70cf0e	0.058791213
254	0x3bdd1138	0.0067464374
255	0x3ddb0cfc	0.10695836

l1.bias f4 [84]
0	0xbc839ccd	-0.01606598
1	0xbd40acb2	-0.047039695
2	0x3e42ebea	0.19035307
3	0xbd6d690e	-0.057961516
4	0xbc309f16	-0.010780117
5	0xbd19aa42	-0.037515886
6	0x3dd86c81	0.105675705
7	0x3bff79a2	0.007796482
8	0x3ea61133	0.32434997
9	0xbcc74ff6	-0.02433012
10	0x3d63d697	0.05562457
11	0x3e4c3929	0.1994368
12	0x3db4e558	0.08832806
13	0xbcc4d4cd	-0.024027253
14	0x3d3218d0	0.043480694
15	0xbc41042a	-0.011780778
16	0xbd23a243	-0.039949667
17	0xbc89de1a	-0.01682954
18	0x3db8c709	0.09022338
19	0xbdbfddd3	-0.093684815
20	0xbd6d29d8	-0.057901233
21	0xbdd6338e	-0.10459052
22	0x3da198e0	0.07890487
23	0x3e0986a8	0.13430274
24	0xbc606c10	-0.013697639
25	0x3dfacae1	0.12245727
26	0x3db3ebcc	0.08785209
27	0xbda3bd5a	-0.079951
28	0x3e27a6ed	0.16372271
29	0xbdb4263a	-0.08796354
30	0xbdb66bfd	-0.08907316
31	0xbc870f08	-0.01648666
32	0x3dbbcc4c	0.09169826
33	0x3e5abc09	0.21360792
34	0xbc2136c3	-0.009839716
35	0x3e8504e3	0.2598029
36	0xbdc4ce69	-0.09609682
37	0xbcfa12a6	-0.03052647
38	0xbd14ea90	-0.03635651
39	0x3c765a7e	0.015036223
40	0xbd473b8e	-0.04864078
41	0xbde05dc3	-0.10955384
42	0xbca36003	-0.019943243
43	0xbdc3f12e	-0.09567486
44	0xbdb756b1	-0.08952082
45	0xbc143534	-0.009045888
46	0xbdc8c3be	-0.0980296
47	0xbd24343b	-0.040088873
48	0x3d2233ce	0.039600186
49	0xbd5c45b5	-0.053777415
50	0x3d542a52	0.051798172
51	0x3cc4f55f	0.024042783
52	0xbd3245f0	-0.04352373
53	0xbdbb540e	-0.091468915
54	0x3e433895	0.19064553
55	0xbddabc63	-0.10680463
56	0x3e4615c0	0.19344234
57	0xbd980e21	-0.0742457
58	0x3c92e128	0.017929628
59	0xbd82fbe8	-0.063957036
60	0xbd9a7026	-0.07540922
61	0x3d8072ad	0.06271873
62	0xbd963853	-0.07334962
63	0xbda4814e	-0.080324754
64	0xbc72456c	-0.014787059
65	0xbdab2133	-0.083559416
66	0xbd69fa3d	-0.05712341
67	0xbb825a01	-0.0039780145
68	0x3d1b561e	0.037923925
69	0xbdbb8e86	-0.091580436
70	0x3e574298	0.21021497
71	0x3e1680cd	0.14697571
72	0xbc2c2e15	-0.010509034
73	0xbd97e230	-0.07416189
74	0x3ce7be8f	0.028289108
75	0xbc19b3bd	-0.009381232
76	0x3d40ae61	0.0470413
77	0x3c8ee138	0.017441377
78	0x3e68dfd2	0.2274163
79	0xbd4813fd	-0.048847187
80	0x3d1c2950	0.038125336
81	0x3dbcebdb	0.09224673
82	0xbd8ff7a9	-0.07029659
83	0x3e275a39	0.16343011

l2.weight f4 [256, 84]
0	0x3d9651ec	0.07339844
1	0x3d9d090e	0.07667743
2	0x3ddbd5d0	0.10734141
3	0xbd5b3a39	-0.053522322
4	0xbcce3b3a	-0.025174726
5	0x3dcd05ae	0.10010849
6	0xbd2ef4ee	-0.042714052
7	0x3d3844a6	0.044987343
8	0x3cf16cce	0.029470827
9	0x3b2e0e49	0.0026558808
10	0xbc7a9022	-0.015293153
11	0x3d169ba5	0.036769528
12	0xbd8ff3d9	-0.07028932
13	0xbd82d1c0	-0.06387663
14	0x3d5937fe	0.053031914
15	0x3dc15443	0.094399
16	0xbdb0df71	-0.08636368
17	0xbd931eed	-0.07183633
18	0x3dbe2942	0.09285213
19	0x3dafb1a7	0.08578806
20	0xbd994d70	-0.07485473
21	0xbd4a29f5	-0.04935642
22	0xbd94ed79	-0.07271857
23	0xbc576ac0	-0.01314801
24	0xbdc677d0	-0.09690821
25	0xbdd122ca	-0.102117136
26	0xbdaccc22	-0.08437373
27	0x3c6cc4ee	0.014451249
28	0x3db81564	0.08988455
29	0xbcde11bd	-0.027108068
30	0xbdc95db2	-0.09832324
31	0x3d907c4e	0.07054959
32	0x3cb35875	0.021892766
33	0x3d4fbc13	0.05071647
34	0xbdb7dce7	-0.08977681
35	0x3d824ae5	0.06361941
36	0x3c8fdac8	0.017560378
37	0x3bbef241	0.0058272188
38	0xbd945917	-0.07243555
39	0x3d3bbb89	0.045833144
40	0xbd0056c2	-0.03133274
41	0xbdc739ef	-0.09727847
42	0x3d417421	0.04722989
43	0xbd2ecf67	-0.042678263
44	0x3db6bcbd	0.08922718
45	0xbc4ae08d	-0.012382639
46	0x3d6b7c3c	0.057491526
47	0xbdd7eb91	-0.105429776
48	0x3d4d3455	0.050098736
49	0xbdad8d81	-0.08474255
50	0x3dbf2dc7	0.09334903
51	0x3d8f1310	0.06986058
52	0xbbb6ca00	-0.0055782795
53	0x3dd034b1	0.101663
54	0x3da936af	0.08262383
55	0x3dc04dd3	0.09389844
56	0x3ddc1da8	0.10747844
57	0x3d9339ca	0.07188757
58	0xbdd97b0e	-0.10619174
59	0xbdbc1bdc	-0.09185001
60	0xbd1fb6e0	-0.038992763
61	0x3d54cd3d	0.051953543
62	0x3d21ef88	0.039535075
63	0x3da92db2	0.08260669
64	0xbd9e3a2e	-0.07725941
65	0x3d0d1cef	0.03445142
66	0xbd73a95c	-0.059487686
67	0x3d2f0352	0.042727776
68	0xbda32140	-0.07965326
69	0x3dbfb37a	0.09360404
70	0x3d55edd1	0.052228753
71	0x3dad2d2a	0.0845588
72	0x3db2b76d	0.08726392
73	0x3db7749d	0.08957789
74	0x3aad6673	0.0013229385
75	0x3d3e6f4d	0.046492863
76	0xbdae66ff	-0.08515739
77	0x3c16054c	0.009156536
78	0x3dd26a6d	0.10274205
79	0xbb62396e	-0.0034519094
80	0x3db7f6eb	0.08982643
81	0x3cad7214	0.02117256
82	0x3ab4d451	0.0013796185
83	0x3dcde60e	0.10053645
84	0x3c9144ef	0.017733065
85	0x3d46a0c6	0.04849317
86	0x3d939c64	0.072075635
87	0x3d097e0e	0.03356748
88	0x3d9c862a	0.07642777
89	0xbdb3327a	-0.08749862
90	0x3cef716a	0.029228885
91	0x3d886907	0.066606574
92	0x3d7e916b	0.0621504
93	0x3d044860	0.032295585
94	0x3c425031	0.011859939
95	0xbdbaa19f	-0.09112858
96	0x3b0a6672	0.002111819
97	0x3cb437bc	0.021999232
98	0x3d08737b	0.033313256
99	0xbd320803	-0.04346467
100	0x3bf27415	0.007399092
101	0x3cf2e675	0.029650906
102	0xbd56abb5	-0.052409846
103	0x3d4fd34f	0.05073863
104	0xbc2631e1	-0.010143728
105	0xbb48a2f3	-0.0030614703
106	0xbd9fe6ba	-0.078076795
107	0x3d4b25e3	0.04959668
108	0xbd626545	-0.05527236
109	0xbda16867	-0.07881241
110	0xbd2c0ca8	-0.042004257
111	0x3d0f56b4	0.034994796
112	0x3d8084a6	0.06275301
113	0xbcf72524	-0.030169077
114	0xbdcd4af5	-0.100240625
115	0x3ac85751	0.0015284811
116	0x3db4e136	0.08832018
117	0xbd948828	-0.07252532
118	0x3dd1059f	0.1020615
119	0x3dd6fef5	0.10497848
120	0xbca1773b	-0.019710174
121	0x3d863697	0.06553381
122	0x3dd7a4f2	0.10529508
123	0xbd97cc18	-0.07411975
124	0xbd9440ea	-0.07238944
125	0x3c895924	0.016766138
126	0x3cd84c04	0.026403435
127	0x3d0913c0	0.0334661
128	0x3dbaf85d	0.09129403
129	0xbb8242e5	-0.0039752596
130	0x3d9bd3f1	0.07608784
131	0x3b709988	0.0036712606
132	0x3da90ce8	0.08254415
133	0x3d6b79de	0.05748927
134	0xbd26f40e	-0.040760092
135	0xbd9de306	-0.07709317
136	0x3d3b5705	0.045737285
137	0xbdc3e50c	-0.095651716
138	0x3d186182	0.037202366
139	0xbdcb80a5	-0.09936646
140	0xbd85c87d	-0.06532381
141	0xbdaa3949	-0.083117075
142	0xbced6a61	-0.02898139
143	0xbc9f8c03	-0.019475942
144	0xbd3209f1	-0.043466512
145	0xbdba96e6	-0.09110813
146	0x3c915f3e	0.01774561
147	0x3d8df87e	0.06932162
148	0xbdd5f789	-0.10447604
149	0x3d832933	0.064043425
150	0x3db4e8ed	0.088334896
151	0x3bd2f7a7	0.006438214
152	0xbdd5c4d6	-0.10437934
153	0xbddddf41	-0.10833598
154	0xbde28d05	-0.110620536
155	0x3cb461d8	0.022019312
156	0x3d39d938	0.04537317
157	0x3c37bba2	0.011214169
158	0xbc3b5981	-0.011434914
159	0xbca8c0d3	-0.020599758
160	0xbca2e31f	-0.01988369
161	0x3d50775b	0.050895076
162	0x3dcb77a6	0.099349305
163	0xbda614be	-0.08109425
164	0xbcc6083f	-0.024173854
165	0x3db845f2	0.08997716
166	0x3db0c12a	0.08630593
167	0x3d887dd2	0.06664623
168	0xbda80cb7	-0.0820555
169	0x3d9a7f26	0.07543783
170	0x3c1d5b8c	0.009604346
171	0xbdc3ba13	-0.09556975
172	0x3d9f8787	0.07789522
173	0xbd7d693c	-0.061867937
174	0xbd7ae158	-0.06125006
175	0x3d3d9b06	0.04629042
176	0x3cafb560	0.021448791
177	0xbd8a12d5	-0.06741873
178	0x3d11c7af	0.035590824
179	0xbdcd5cd6	-0.10027473
180	0xbd25ba12	-0.040460654
181	0x3d90eb12	0.07076086
182	0xbce9ad7a	-0.028525103
183	0xbdd0b6cd	-0.101911165
184	0x3d92a8e0	0.071611166
185	0x3cab35ad	0.020899618
186	0xbc2d18da	-0.010565007
187	0x3d4ef179	0.050523255
188	0x3db269b5	0.08711568
189	0x3d50db86	0.050990604
190	0xbda739db	-0.08165332
191	0xbd02ff14	-0.031981543
192	0xbda5dbeb	-0.08098587
193	0x3dc912f6	0.0981807
194	0x3d90d8d7	0.07072609
195	0xbd71f220	-0.0590688
196	0xbdb8add4	-0.0901753
197	0x3c3f52c6	0.01167745
198	0x3d31fe33	0.043455314
199	0xbd15f388	-0.036609203
200	0x3d811ce9	0.06304342
201	0x3a830efe	0.0009998975
202	0xbd057a78	-0.0325875
203	0x3d9988ae	0.07496773
204	0xbcfff66f	-0.031245438
205	0x3cf3231b	0.029679826
206	0xbdd8e3c2	-0.10590316
207	0xbc9f279e	-0.01942807
208	0xbcdfd71c	-0.027324252
209	0x3d1b6030	0.03793353
210	0xbd3cadd3	-0.04606421
211	0x3dc51828	0.09623748
212	0xbdb7ce58	-0.08974904
213	0x3dcdfd02	0.10058023
214	0xbdb5fa2a	-0.08885606
215	0xbcda5bba	-0.026655067
216	0xbda35c82	-0.07976629
217	0xbda585b7	-0.08082145
218	0xbd8db866	-0.06919937
219	0xbdd9d27e	-0.10635851
220	0x3d06ba60	0.032892585
221	0x3db5e92f	0.08882367
222	0x3d90a048	0.07061821
223	0x3d2d8720	0.042365193
224	0x3da22d21	0.07918764
225	0x3db28c43	0.08718159
226	0xbd0b8433	-0.034061622
227	0xbd6cb0fc	-0.057785973
228	0x3d1ac910	0.037789404
229	0x3ddcf305	0.1078854
230	0xbdb1c36d	-0.08679853
231	0x3b64198c	0.0034805266
232	0xbdc45b26	-0.09587698
233	0x3dd80a3d	0.10548828
234	0xbd2b00e7	-0.041748907
235	0x3d8e3fcb	0.06945761
236	0x3d63f6bc	0.055655226
237	0xbd2af5ce	-0.041738324
238	0x3dbb2250	0.09137404
239	0x3cdd033a	0.026979078
240	0x3d08375a	0.033255912
241	0xbda074c0	-0.07834768
242	0xbdb69e24	-0.08916882
243	0xbddbeda3	-0.10738685
244	0x3d539964	0.051659957
245	0xbdfcfe01	-0.12353135
246	0xbdc43f0f	-0.0958234
247	0x3cc72117	0.02430777
248	0x3d0a62d6	0.033785664
249	0x3d575b6a	0.052577414
250	0xb9985d8d	-0.000290614
251	0xbd3d2bfc	-0.046184525
252	0xbda93372	-0.082617655
253	0x3d0f85ba	0.03503964
254	0x3d0341e3	0.032045256
255	0xbdca44ac	-0.09876379
