models/Median/localmodel0experiment_log-2023-09-05-0939-17.pth (torch, 375691 bytes, 14 tensors)

features.conv1.weight f4 [6, 3, 5, 5]
0	0x3e9406a5	0.2891132
1	0x3e0f67aa	0.14004388
2	0x3d3a2339	0.045443747
3	0x3e6c4f9e	0.23077247
4	0x3e1abee3	0.1511188
5	0x3ea87efd	0.32909384
6	0x3e6f0180	0.23340416
7	0x3e5cdef9	0.21569432
8	0x3e8eab11	0.27864888
9	0x3e64c921	0.2234235
10	0xbda1d3c2	-0.07901718
11	0x3df548f6	0.11976807
12	0xbe1e2f8f	-0.1544783
13	0xbda45989	-0.0802489
14	0xbcc03809	-0.02346422
15	0xbe51d383	-0.20490842
16	0xbe46b134	-0.19403535
17	0xbe85f335	-0.26162115
18	0xbb68a1f9	-0.0035496934
19	0xbe2888f4	-0.16458493
20	0xbde3d5ce	-0.111247644
21	0x3db4b79a	0.08824082
22	0xbdccf4f1	-0.10007656
23	0xbcd90591	-0.026491912
24	0xbe250c2e	-0.16117927
25	0x3d09c5e6	0.033635996
26	0xbc905726	-0.01761968
27	0x3dc8f1fb	0.09811779
28	0x3c51ada6	0.012797749
29	0x3c6fd8cb	0.01463909
30	0x3dfd7dbd	0.12377498
31	0x3d9d8471	0.07691277
32	0x3db29a3e	0.087208256
33	0x3e0f09e6	0.1396862
34	0xbd76352f	-0.060109314
35	0xbde90527	-0.11377936
36	0xbddd433a	-0.10803838
37	0xbdbd2e30	-0.09237325
38	0xbbad2c22	-0.005284802
39	0xbd40f0d5	-0.047104675
40	0xbe80ebf0	-0.25180006
41	0xbe1a51ee	-0.15070316
42	0xbe53d4de	-0.20686671
43	0xbe036a70	-0.12833571
44	0xbe892dab	-0.26792654
45	0xbde71334	-0.112829596
46	0x3d293707	0.041312244
47	0x3d10f1dd	0.03538691
48	0x3c34028e	0.010986937
49	0xbe288243	-0.16455941
50	0x3df1e0b2	0.11810435
51	0x3d779e2f	0.06045359
52	0xbd290d6a	-0.04127256
53	0x3dd7ba03	0.10533526
54	0x3e05c1f7	0.13062273
55	0x3d37e1f6	0.044893228
56	0x3bffaecf	0.007802821
57	0x3dd6a04a	0.104797915
58	0x3cb7a1f7	0.022416098
59	0x3d370be5	0.044689078
60	0x3bfdfa3b	0.007750777
61	0xbb72d4d2	-0.003705312
62	0x3d29fa6a	0.04149858
63	0x3ca8028c	0.020509027
64	0xbdd84299	-0.105595775
65	0xbe14d095	-0.14532693
66	0xbb30181d	-0.0026869841
67	0xbe07d2d7	-0.13264023
68	0xbd233d1e	-0.039853208
69	0x3d08c3d0	0.033389866
70	0x3e3abe9a	0.18236771
71	0x3e3dc6e8	0.18532908
72	0xbd015547	-0.031575467
73	0x3dbfe487	0.0936976
74	0x3d9e64f7	0.07734101
75	0x3c6344d1	0.013871388
76	0x3d838817	0.064224415
77	0xbd0a889d	-0.03382169
78	0xbc2fa350	-0.010720089
79	0x3dc179f1	0.094470866
80	0xbe07e050	-0.13269162
81	0x3cb5ad30	0.022177309
82	0x3e01d23c	0.12677854
83	0x3d955e24	0.072933465
84	0xbb08b5dc	-0.002086035
85	0xbd0df797	-0.03465995
86	0xbccb0de7	-0.024786903
87	0x3d5b9fb1	0.05361909
88	0x3dc7af50	0.09750235
89	0x3db184fe	0.08667944
90	0xbd1504fd	-0.03638171
91	0x3d08e6ff	0.03342342
92	0x3de52450	0.11188567
93	0xbc9527f1	-0.018207522
94	0x3d8fc5c5	0.070201434
95	0xbd7b332f	-0.06132811
96	0xbd4f6de2	-0.0506419
97	0xbd07a7c1	-0.033118967
98	0x3d7ee971	0.062234346
99	0x3da48bb7	0.08034461
100	0xbdbee350	-0.093207
101	0x3ca4deae	0.020125713
102	0x3d465dfb	0.04842947
103	0x3dd2b81b	0.102890216
104	0x3d83d313	0.064367436
105	0xbd578ea2	-0.05262626
106	0xbe0a0970	-0.13480163
107	0xbcbc41e4	-0.022980638
108	0xbccc2195	-0.024918357
109	0x3c31854e	0.010835005
110	0xbe0baa20	-0.13639116
111	0xbc2b3ee2	-0.010452004
112	0xbd80e7f1	-0.06294239
113	0xbdd131c2	-0.10214569
114	0x3b1d5f1f	0.0024012995
115	0xbcdc1236	-0.026864152
116	0xbda99b53	-0.08281579
117	0xbd904262	-0.070439115
118	0xbd07f424	-0.033191815
119	0xbce49735	-0.027904132
120	0xbe48008e	-0.19531462
121	0xbd9c0928	-0.07618934
122	0xbdffd956	-0.124926254
123	0x3cd48bd6	0.025945585
124	0xbd954fc4	-0.07290605
125	0x3d03a203	0.03213693
126	0x3b1c1f77	0.0023822465
127	0x3e80d376	0.25161332
128	0x3e1078bc	0.14108557
129	0x3d46d4a6	0.04854264
130	0xbc798b08	-0.015230902
131	0x3dacd312	0.08438696
132	0x3e091ee1	0.13390686
133	0x3e641cd6	0.22276625
134	0x3e1841e4	0.14868885
135	0x3c830ad3	0.015996372
136	0x3e00f579	0.1259364
137	0x3ddd4a1d	0.108051516
138	0x3e5e8fbc	0.21734518
139	0x3a8266ec	0.0009948886
140	0xbd801862	-0.06254651
141	0x3c2c775d	0.010526505
142	0x3e0bfb49	0.13670076
143	0x3e09c950	0.13455701
144	0x3d0428ad	0.032265354
145	0x3dd93f50	0.10607779
146	0x3e0e1477	0.13874994
147	0x3e263c65	0.16233976
148	0x3df2253e	0.1182351
149	0xbd12c58c	-0.035832927
150	0x3e01c0fb	0.12671272
151	0x3d14eab1	0.03635663
152	0x3dde79e4	0.108630925
153	0xbe07085b	-0.13186781
154	0xbde2f79b	-0.11082383
155	0xbcac96a4	-0.021067925
156	0x3dc6a1fb	0.09698864
157	0x3ccb1513	0.024790322
158	0xbe258828	-0.1616522
159	0xbdd79896	-0.1052715
160	0x3e08ce77	0.1336001
161	0x3d61fc7f	0.05517244
162	0xbd872d16	-0.06600396
163	0x3d85a976	0.06526463
164	0xbe247ca0	-0.16063166
165	0x3d4b8bca	0.04969386
166	0x3d4b0e90	0.049574435
167	0x3c4413de	0.011967627
168	0xbc8b1612	-0.016978297
169	0xbe2d8827	-0.16946469
170	0x3d80c628	0.06287795
171	0x3d573975	0.05254503
172	0x3c90f859	0.017696546
173	0xbdb2d2a6	-0.08731584
174	0xbdb96c6b	-0.09053882
175	0x3e21c68e	0.15798399
176	0x3ca4fe76	0.020140868
177	0x3e0a7f42	0.13525108
178	0xbe25ea0e	-0.16202566
179	0x3d58bded	0.052915502
180	0x3e08d356	0.13361868
181	0x3e1e3254	0.15448886
182	0x3dd66372	0.104681864
183	0xbb1928ba	-0.0023370222
184	0xbe0ca447	-0.13734542
185	0x3d54f83d	0.05199455
186	0x3cd9e3cb	0.026597878
187	0x3e12e1cc	0.14343947
188	0x3db69989	0.08916003
189	0xbe586d19	-0.21135367
190	0x3d546874	0.051857427
191	0x3e1ef965	0.15524824
192	0xbd17a797	-0.03702506
193	0x3c5b8cc2	0.0134002585
194	0xbd02c1e5	-0.031923193
195	0x3e4599d5	0.19296964
196	0x3cf90eb7	0.030402524
197	0x3d2864c8	0.041111737
198	0xbcdd4339	-0.027009593
199	0xbe179cd8	-0.14805925
200	0x3e13ac71	0.1442125
201	0x3e19e308	0.15028012
202	0xbdf94f8d	-0.12173376
203	0xbe631293	-0.22175054
204	0xbd01a87d	-0.031654824
205	0x3c2bd3e8	0.010487534
206	0x3e426eca	0.18987575
207	0xbac3c0a1	-0.0014934727
208	0xbd4455fd	-0.047933567
209	0xbe25af19	-0.16180076
210	0x3c6ca756	0.014444193
211	0xbc1cd125	-0.009571348
212	0x3cc8262c	0.024432264
213	0x3b0ee493	0.0021803721
214	0xbe6f13f0	-0.2334745
215	0x3e11e54e	0.14247629
216	0x3e07bd46	0.13255796
217	0xbba69c5f	-0.005084559
218	0x3d00662e	0.031347446
219	0xbda3f2f1	-0.08005322
220	0x3d890eba	0.06692262
221	0xbd6035b4	-0.054738715
222	0xbd212e44	-0.039350763
223	0x3d934236	0.07190363
224	0xbdfbc5ed	-0.12293611
225	0x3df1cafb	0.118062936
226	0x3d4581b0	0.048219383
227	0x3d86a3ef	0.065742366
228	0xbdb3d636	-0.08781092
229	0x3dd69643	0.10477879
230	0x3d69e19d	0.057099927
231	0x3e433615	0.190636
232	0x3c9d2140	0.019180894
233	0xbbbef82a	-0.0058279233
234	0xbd04895b	-0.032357555
235	0xbce98397	-0.02850513
236	0xbd10d191	-0.035356108
237	0xbcd24872	-0.02566931
238	0x3cec15f3	0.02881906
239	0x3db7bcbf	0.08971547
240	0x3dc6c49b	0.09705468
241	0x3dd56b11	0.10420812
242	0x3d89f614	0.06736389
243	0x3cde96f3	0.027171588
244	0x3d238388	0.03992036
245	0x3c23a2f7	0.009987584
246	0x3d994ded	0.07485566
247	0x3dc02812	0.09382643
248	0x3ceb240a	0.028703708
249	0x3dae80cc	0.0852066
250	0xbc84bf5e	-0.016204532
251	0xbd48c5b2	-0.049016662
252	0xbdf97206	-0.12179951
253	0xbbcdcfad	-0.0062808604
254	0xbd68ef5c	-0.056868896
255	0x3cc31f51	0.023818644

features.conv1.bias f4 [6]
0	0xbebcf5f0	-0.36906385
1	0x3e7eefef	0.24896215
2	0xbcd62423	-0.026140278
3	0xbd9102f3	-0.07080641
4	0x3d70324d	0.05864172
5	0x3e35d3e0	0.17756605

features.conv2.weight f4 [16, 6, 5, 5]
0	0x3d52a6e3	0.051428687
1	0x3db6aa2c	0.089191765
2	0xbd06a738	-0.032874316
3	0x3b83dd4c	0.0040241834
4	0x3c2b0628	0.0104384795
5	0x3d5d9b1a	0.054102995
6	0x3d46cb7d	0.048533905
7	0xbc2a4853	-0.01039322
8	0x3db8b853	0.09019532
9	0x3e15419e	0.14575812
10	0xbc3b3710	-0.011426702
11	0x3daca0ee	0.084291324
12	0x3c5a2472	0.013314353
13	0xbd115e4e	-0.035490327
14	0x3da3061e	0.07960151
15	0x3c84d5f7	0.016215308
16	0x3e0c58d7	0.13705765
17	0x3dc755ea	0.09733184
18	0xbc68846e	-0.01419173
19	0x3cf65ae7	0.030072642
20	0x3df4a6ee	0.11945902
21	0x3d33b470	0.04387325
22	0x3d061343	0.032733213
23	0x3dbb135b	0.09134551
24	0x3dbe4a24	0.09291485
25	0x3dec3dfb	0.11535259
26	0xbc0b550b	-0.008504163
27	0xbbca1fca	-0.0061683403
28	0xbd781ee8	-0.06057635
29	0x3bbc3cfc	0.0057445746
30	0xbd589f82	-0.052886494
31	0x3b9ea960	0.0048419684
32	0xbd93aff8	-0.07211298
33	0x3b638f44	0.0034722844
34	0x3d666058	0.056244224
35	0xbcfee9fd	-0.031117434
36	0x3b48f5e0	0.003066413
37	0xbce7de9d	-0.028304392
38	0xbc1f8984	-0.009737376
39	0xbd7ae8c3	-0.061257135
40	0xbc292152	-0.010322886
41	0x3d3f7a07	0.046747234
42	0xbd4e001b	-0.05029307
43	0xbcd4b995	-0.025967399
44	0x3d0ebc14	0.034847334
45	0x3c098f5c	0.008395996
46	0xbd89409c	-0.067017764
47	0x3d2d10ee	0.042252474
48	0xbd932f7b	-0.071867906
49	0x3c1d1ea6	0.009589827
50	0xbd1d11cd	-0.038347054
51	0xbab8d792	-0.0014102331
52	0xbda5b959	-0.08091993
53	0xbbec0a52	-0.0072033787
54	0xbde924fb	-0.113840066
55	0x3a2cc603	0.00065907853
56	0xbd35cd00	-0.044384956
57	0xbdd5b69d	-0.10435221
58	0x3cefbf8a	0.029266138
59	0xbc9bec68	-0.019033626
60	0xbc9a4f26	-0.018836569
61	0xbc6dd236	-0.01451545
62	0xbda902cb	-0.08252486
63	0x3bb60f2b	0.0055560074
64	0xbd55927b	-0.052141648
65	0xbdaa0f23	-0.08303668
66	0xbc9d94ef	-0.019236056
67	0x3c04b13b	0.008098896
68	0xbdc4be04	-0.09606555
69	0xbd10bc66	-0.03533592
70	0xbaf022b6	-0.0018320892
71	0xbd4ef9b0	-0.05053109
72	0xbd971d68	-0.07378656
73	0xbd11698b	-0.035501044
74	0xbdb89d05	-0.09014324
75	0x3d3e6b9b	0.04648934
76	0xbc712415	-0.014718075
77	0x3d03ffc1	0.032226328
78	0xbcbeb2dc	-0.023278646
79	0x3d874a42	0.066059604
80	0xbd60e54d	-0.05490618
81	0x3cc16a2f	0.023610203
82	0xbd3dfaab	-0.046381634
83	0x3d95062e	0.07276569
84	0xbcb2017e	-0.021729227
85	0x3c816f70	0.015800208
86	0xbd5b1d4e	-0.053494744
87	0xbc968bf5	-0.018377284
88	0x3b9b5998	0.004740905
89	0xbd314121	-0.043275002
90	0xbce2ef2b	-0.027701935
91	0x3d844971	0.0645932
92	0xbbd1b373	-0.006399566
93	0x3c1966b2	0.009362863
94	0x3d023738	0.031790942
95	0x3c4e749c	0.012601044
96	0x3d9cd116	0.076570675
97	0xbdb63e1b	-0.088985644
98	0xbd065b4f	-0.032801922
99	0xbd862d7f	-0.065516464
100	0x3cb2564e	0.021769669
101	0x3c78e20e	0.015190614
102	0x3d961b98	0.07329482
103	0x3d50146d	0.05080073
104	0x3da33232	0.07968558
105	0x3bbe0486	0.005798879
106	0x3c167920	0.009184152
107	0xbcb1f593	-0.021723544
108	0x3ce9fbcf	0.028562455
109	0xbd26cd01	-0.04072285
110	0xbcb40792	-0.021976266
111	0xbd2a41e7	-0.041566756
112	0x3d0b0ac8	0.03394583
113	0xbd0245c5	-0.03180482
114	0xbd74de46	-0.05978229
115	0xbd8f56b9	-0.06998963
116	0xbd622a15	-0.055215914
117	0xbc75109e	-0.014957575
118	0xbd9d5829	-0.07682831
119	0x3cdd058e	0.026980188
120	0x3c1d3273	0.009594548
121	0xbc9860c9	-0.018600838
122	0x3caabbe9	0.020841556
123	0xbd3ad530	-0.045613468
124	0xbd137642	-0.03600145
125	0x3dc2b33f	0.09506845
126	0x3e0204df	0.1269717
127	0x3e057a61	0.13034965
128	0x3d6820cf	0.056671914
129	0x3dd6e62f	0.10493123
130	0x3df4a40d	0.11945353
131	0x3dc2a336	0.09503786
132	0x3c82e063	0.015976137
133	0x3c64db67	0.013968325
134	0x3d4c379e	0.04985773
135	0xbcb9e5c9	-0.022692578
136	0x3cfae7f2	0.030628178
137	0x3b47da20	0.0030495003
138	0x3ccf8f86	0.025336992
139	0xbd754869	-0.05988351
140	0x3bba385b	0.0056829876
141	0x3d981372	0.07425584
142	0x3d722966	0.059121512
143	0x3dc3152a	0.09525521
144	0x3de65cc2	0.11248161
145	0xbc2c9277	-0.010532967
146	0x3d245ae8	0.040125757
147	0xbcdd6ee4	-0.027030416
148	0xba320978	-0.0006791572
149	0xbd46419e	-0.04840242
150	0xbd205577	-0.039144006
151	0x3d101785	0.03517868
152	0xbd244a8f	-0.040110167
153	0x3cc6edca	0.024283309
154	0x3d8b2364	0.067938596
155	0x3ca6dcf6	0.020369034
156	0x3cf65861	0.03007144
157	0x3d3917ad	0.045188595
158	0xbd94d585	-0.07267288
159	0x3cc8aaed	0.024495566
160	0xbc22ce18	-0.009936832
161	0xbc6a3e27	-0.014297045
162	0xbd65073c	-0.055915102
163	0xbdb4c4da	-0.08826609
164	0xbc6620c5	-0.014045899
165	0x3bf71370	0.007540159
166	0x3d86f3d9	0.06589479
167	0x3c8af52d	0.016962612
168	0x3da50306	0.08057217
169	0xbc862366	-0.016374301
170	0x3d6e93fd	0.0582466
171	0x3d815dc7	0.06316715
172	0x3d1ce597	0.03830489
173	0xbd6f02f7	-0.058352437
174	0xbd9754fc	-0.07389256
175	0xbd733d1f	-0.05938446
176	0xbd96b950	-0.07359564
177	0xbd8a6b4d	-0.06758747
178	0xbc783f2f	-0.015151783
179	0xbbb52dc8	-0.005529139
180	0x3d179815	0.03701027
181	0xb88e7f4b	-6.794798e-05
182	0xbdaf5b5d	-0.08562348
183	0xbd6c7d6c	-0.0577368
184	0xbcbadec1	-0.022811295
185	0xbd63a1dc	-0.055574283
186	0xbd3d9c8b	-0.04629187
187	0x3d9fdbd1	0.078055985
188	0x3c952bfa	0.018209446
189	0x3d99cf55	0.075102486
190	0x3d4cdf20	0.050017476
191	0xbacf1d34	-0.001580155
192	0x3d630dba	0.055433013
193	0x3da46506	0.08027081
194	0xbcb0e383	-0.021592861
195	0x3ddb7d53	0.10717263
196	0x3d0adc85	0.03390171
197	0xbd17ace8	-0.03703013
198	0x3d92e46a	0.07172473
199	0x3d590869	0.052986536
200	0xbd958d93	-0.07302394
201	0xbd9a4354	-0.07532373
202	0xbd87167f	-0.06596088
203	0xbb56fb98	-0.003280377
204	0x3d010727	0.03150096
205	0x3ce93228	0.0284663
206	0xbca5b37f	-0.020227192
207	0x3dbc06b3	0.09180965
208	0x3c2d5bed	0.010580999
209	0x3b5607db	0.003265849
210	0x3cbac398	0.022798344
211	0xbd67fedc	-0.056639537
212	0x3cfa3f63	0.030547803
213	0x3d68a6de	0.056799762
214	0xbca4329d	-0.020043666
215	0xbcfda478	-0.030962214
216	0x3cf680a4	0.030090638
217	0x3d57398b	0.05254511
218	0xbd927277	-0.07150739
219	0x3c7e4ead	0.015521687
220	0x3a91cd73	0.0011123851
221	0x3c5263f1	0.012841211
222	0xbce6459d	-0.028109366
223	0xbc269cd7	-0.0101692295
224	0x3d5eb3f0	0.05437082
225	0xbd4024af	-0.046909984
226	0x3d9b96e6	0.07597141
227	0x3d8e63ea	0.06952651
228	0xbced4115	-0.028961698
229	0xbd66bd38	-0.056332797
230	0xbc865605	-0.01639844
231	0x3d974ef9	0.0738811
232	0xbce646a7	-0.028109862
233	0xbd4410a8	-0.047867447
234	0xbc5466dc	-0.012963977
235	0xbc089a69	-0.0083375955
236	0x3d4a4c0f	0.04938894
237	0xbce9b831	-0.028530212
238	0xbca07ec6	-0.0195917
239	0xbcfe471a	-0.031039763
240	0xbb6dfced	-0.0036314086
241	0xbc6176cf	-0.013761236
242	0xbce748eb	-0.028233012
243	0xbd3e3c8a	-0.046444453
244	0x3c9029de	0.017598089
245	0xbd86559b	-0.06559297
246	0x3d68d618	0.0568448
247	0x3d01d430	0.0316965
248	0xbd500b66	-0.05079212
249	0x3c948b14	0.018132724
250	0xbd35e237	-0.04440519
251	0x3d990e48	0.07473427
252	0xbc4f61db	-0.012657608
253	0x3d6963c0	0.056979895
254	0xbd09a777	-0.033606973
255	0xbd8e8d90	-0.06960595

features.conv2.bias f4 [16]
0	0xbe3534f4	-0.17695981
1	0xbd041bc8	-0.032253057
2	0xbdb2eb5f	-0.087363
3	0x3c78aa62	0.015177341
4	0x3b4dbf4f	0.0031394546
5	0x3d1c0b4a	0.038096704
6	0x3e36f5f1	0.17867257
7	0x3dfe7d4a	0.12426241
8	0x3db6ba9c	0.08922312
9	0x3dcf87d0	0.10133326
10	0xbe6db3cc	-0.23213118
11	0xbd1d9d1f	-0.03847992
12	0xbddfd0fc	-0.109285325
13	0xbda37691	-0.07981599
14	0xbd7607e1	-0.060066108
15	0x3d2517f2	0.04030604

features.fc1.weight f4 [120, 400]
0	0x3d41913f	0.047257658
1	0xbcac5553	-0.02103678
2	0x3d53a172	0.051667638
3	0x3d46a978	0.04850146
4	0x3caf804b	0.02142348
5	0xbc824956	-0.01590411
6	0xbc958068	-0.018249705
7	0xbc9e5efc	-0.019332401
8	0x3caa0296	0.020753186
9	0x3cf948ca	0.030430216
10	0x3d0233a3	0.031787526
11	0x3ce0758b	0.027399799
12	0xbd530ee7	-0.051527884
13	0xbcf2ecac	-0.02965387
14	0xbc59148c	-0.013249528
15	0x3c9ce9b5	0.019154409
16	0xbcf1ac9e	-0.029501256
17	0xbc60ed1a	-0.013728404
18	0x3d36de0e	0.04464536
19	0x3c6317eb	0.013860683
20	0x3c8f9cd1	0.01753083
21	0xbc535a5f	-0.012899964
22	0xbd2df612	-0.042471
23	0x3cc0fb18	0.02355723
24	0x3d422f59	0.047408435
25	0xbd1a8824	-0.03772749
26	0x3c923705	0.017848501
27	0x3c9ba52b	0.018999657
28	0x3d06255a	0.032750465
29	0x3bc259df	0.0059311236
30	0x3bfefc93	0.007781574
31	0xbd34e902	-0.044167526
32	0xbd4b2552	-0.04959614
33	0x3d411172	0.047135778
34	0x3cd2e365	0.025743196
35	0x3d426a79	0.04746482
36	0x3c6f5c51	0.014609412
37	0xbbe23516	-0.006903301
38	0xbc83d8bf	-0.016094564
39	0x3c5e8b9c	0.01358309
40	0x3d22254f	0.03958636
41	0x3c6ab1cc	0.014324617
42	0xbc6865a2	-0.014184387
43	0x3cad1a94	0.021130838
44	0xbd22661c	-0.03964816
45	0xbcf6761d	-0.030085618
46	0x3cf139d0	0.029446512
47	0xbcafedc1	-0.021475675
48	0xbbdbcdcc	-0.0067078825
49	0xbd2e08bf	-0.04248881
50	0x3d699107	0.057023074
51	0xbcef7218	-0.029229209
52	0x3b8db5bf	0.0043246443
53	0x3b857ba6	0.004073578
54	0x3ced01e4	0.028931566
55	0x3ccf4a0c	0.025303863
56	0x3d4d9d79	0.050199006
57	0xbcdc5371	-0.026895257
58	0xbce33c9c	-0.027738862
59	0x3d56df46	0.052459024
60	0x3c2ef6fd	0.010679004
61	0xbd11c2d2	-0.035586186
62	0x3cb662fa	0.022263993
63	0x3d021ffa	0.031768776
64	0xbb8145b2	-0.003945076
65	0xbcf22ad9	-0.029561447
66	0x3c5b2fff	0.013378142
67	0x3d28e83e	0.04123711
68	0xbcb97f86	-0.022643816
69	0x3d2cda89	0.0422006
70	0x3ca15782	0.019695047
71	0x3d2979fb	0.041376095
72	0xbce35ef7	-0.027755244
73	0xbd44403e	-0.04791283
74	0x3bf4ff5f	0.0074767317
75	0x3b054a5c	0.002033851
76	0xbbb23e65	-0.005439567
77	0xbd087dc6	-0.033323072
78	0xbce3963e	-0.027781602
79	0x3d8c4d81	0.0685072
80	0x3d0bae69	0.034101877
81	0xbb849438	-0.0040459894
82	0x3c651cb6	0.013983896
83	0x3ca82f78	0.020530447
84	0xbcaad5e5	-0.020853946
85	0xbd14a5ef	-0.03629106
86	0x3cf80a91	0.030278476
87	0x3c83f458	0.016107723
88	0xbafb67f2	-0.0019180758
89	0xbca28018	-0.01983647
90	0x3c22ecef	0.009944185
91	0x3c350f29	0.011050978
92	0xbc858e8f	-0.016303329
93	0xbd4db325	-0.050219674
94	0x3d31bb64	0.0433916
95	0xbc925322	-0.017861906
96	0xbc83c556	-0.016085308
97	0xbd2abc50	-0.041683495
98	0x3d062c6b	0.032757204
99	0x3d1c360e	0.038137488
100	0x3d1a301f	0.037643548
101	0xbce2998d	-0.02766111
102	0x3d409b86	0.04702332
103	0xbcc3bff5	-0.023895243
104	0x3bc0cd82	0.0058838734
105	0xbd338154	-0.04382451
106	0x3d18330b	0.037158053
107	0xbc9d7029	-0.019218521
108	0xbc17690e	-0.009241356
109	0xbd5f2e5b	-0.054487567
110	0x3cb4f9b3	0.022091722
111	0xbd4180d8	-0.047242016
112	0x3d44013a	0.047852732
113	0xbd3f70b5	-0.046738345
114	0xbd01c3d3	-0.031680893
115	0x3cc0adc7	0.023520363
116	0x3d016e1a	0.03159914
117	0xbc980efd	-0.018561834
118	0x3d153f7d	0.0364375
119	0x3d3e0298	0.046389192
120	0x3d03c217	0.03216752
121	0x3ca489a7	0.020085169
122	0x3d4d4476	0.050114118
123	0xbcf84bab	-0.030309519
124	0x3c94a41f	0.018144665
125	0x3cda7f2f	0.026671974
126	0x3c8cd71d	0.017192418
127	0xbc5071ca	-0.012722442
128	0x3a444033	0.0007486373
129	0x3b9d462a	0.004799624
130	0xbc14a786	-0.009073144
131	0x3c4f9bbc	0.012671407
132	0x3cdc79af	0.026913492
133	0x3d3aa334	0.0455658
134	0x3d540174	0.0517592
135	0x3cb7a56c	0.022417746
136	0x3d2a0ebc	0.041517958
137	0xbccc5839	-0.024944412
138	0x3c8d5a33	0.017254924
139	0x3d4deacc	0.050272748
140	0x3d4b29d1	0.049600426
141	0xbc85e07b	-0.016342392
142	0xbd2d16df	-0.04225814
143	0xbc0f327e	-0.008740066
144	0x3ca12139	0.019669162
145	0xbd01d6e5	-0.03169908
146	0x3d589ba0	0.05288279
147	0x3bc42f29	0.0059870672
148	0x3d0c2466	0.0342144
149	0xbd3a337f	-0.045459267
150	0xbccbddff	-0.02488613
151	0xbcdf898f	-0.027287273
152	0xbd32f92c	-0.04369466
153	0xbcaf16db	-0.021373203
154	0x3cd261b2	0.02568135
155	0xbca2eb9e	-0.019887742
156	0x3caa8905	0.02081729
157	0x3cdf0f6e	0.027229037
158	0xbd20bdf2	-0.039243646
159	0xbc4915e5	-0.0122732865
160	0x3bde58e7	0.0067855003
161	0xb8e846de	-0.00011075822
162	0x3b975965	0.004618811
163	0x3c811c87	0.015760673
164	0x3ce56e38	0.028006658
165	0xbce6474b	-0.028110167
166	0x3bc5e639	0.0060394076
167	0xbc52857c	-0.012849208
168	0x3d0fb5bf	0.035085436
169	0x3ceeb3d1	0.029138478
170	0xbd1d028b	-0.038332503
171	0x3d4ef52d	0.050526787
172	0x3d699466	0.05702629
173	0x3c768006	0.015045172
174	0x3c416d45	0.011805837
175	0x3d25a2cc	0.04043846
176	0xbb2bfc90	-0.0026243068
177	0xbd2a3c49	-0.0415614
178	0x3d21db73	0.039515924
179	0xbc24dea7	-0.01006285
180	0xbcb3a089	-0.021927135
181	0xbd18caae	-0.037302665
182	0xbbca8365	-0.006180214
183	0x3d25ce1d	0.040479768
184	0xbce65620	-0.02811724
185	0xbbb87c54	-0.0056300554
186	0x3c9d27d1	0.019184025
187	0xbc92a967	-0.017903043
188	0x3cecc03a	0.028900255
189	0x3d274253	0.040834736
190	0xbcc7f110	-0.02440694
191	0xbba292af	-0.0049613337
192	0xbcf1bf66	-0.029510211
193	0x3c3a0c3e	0.011355458
194	0x3bb5f67d	0.0055530653
195	0xbc19070f	-0.009340062
196	0x3d3af8a8	0.045647293
197	0x3c799c9f	0.015235095
198	0xbcf3aae5	-0.029744575
199	0xbd2e92a9	-0.042620335
200	0x3c794c71	0.015215979
201	0xbc7c7a30	-0.015409991
202	0x3d24da69	0.040247355
203	0xbb969e18	-0.004596483
204	0x3d294a36	0.04133054
205	0x3d2b3560	0.04179895
206	0x3d0c9672	0.034323163
207	0xbcf7fdb0	-0.030272335
208	0x3c365dcf	0.011130764
209	0xbc58619d	-0.013206867
210	0x3c909dc6	0.017653357
211	0xbcbf8d76	-0.023382884
212	0xbd2a67b2	-0.041602798
213	0xbce0aed0	-0.027427107
214	0xbbff98f4	-0.007800216
215	0x3d23db75	0.040004212
216	0xbd2b892a	-0.041878857
217	0x3c7f60c7	0.015587038
218	0x3d250687	0.040289428
219	0x3ccaf940	0.024777055
220	0x3be8fff0	0.0071105883
221	0xbd28ab10	-0.041178763
222	0x3cae8f44	0.021308549
223	0xbc9cb0c8	-0.019127265
224	0x3c04bd77	0.008101813
225	0xbd205f6e	-0.03915351
226	0xbce243f1	-0.027620288
227	0x3d1d5b45	0.03841712
228	0x3d34c651	0.04413444
229	0x3c3ab74b	0.0113962395
230	0x3d36adae	0.044599228
231	0x3cd795e1	0.026316585
232	0xbd28ba3b	-0.04119323
233	0x3c992375	0.018693665
234	0x3bf17857	0.007369082
235	0xbbe4d4aa	-0.0069833593
236	0xbb9672b1	-0.004591309
237	0xbce45bbf	-0.02787578
238	0xbc457abf	-0.012053191
239	0xbb10d16d	-0.0022097484
240	0xbd0e524f	-0.034746464
241	0x3d26e136	0.04074212
242	0x3cc3f569	0.023920732
243	0xbd43ea49	-0.047830854
244	0xbd0612e3	-0.032732856
245	0xbcfe4f8e	-0.031043794
246	0x3cd53005	0.026023874
247	0x3d409114	0.047013357
248	0x3bc154f4	0.00590002
249	0x3c506d3b	0.012721355
250	0xbd3c6862	-0.045997985
251	0xbd2f87c0	-0.04285407
252	0x3d081fde	0.033233516
253	0x3d4e06e5	0.050299544
254	0x3c3ee8d1	0.011652187
255	0x3bbdcef0	0.005792491

features.fc1.bias f4 [120]
0	0xb9f5b474	-0.0004686449
1	0xbcfd9e49	-0.030959265
2	0xbd4978cf	-0.049187478
3	0x3c336367	0.010948992
4	0x3d50cde3	0.0509776
5	0xbce4aee4	-0.027915426
6	0xbb920aff	-0.0044568772
7	0xbc2980e4	-0.010345671
8	0x3c779972	0.015112268
9	0xbc79f297	-0.015255592
10	0x3b72a672	0.0037025479
11	0x3d8b0f8d	0.067900755
12	0xbcc9da03	-0.024640089
13	0xbdb5978e	-0.088667974
14	0xbccdbe00	-0.025115013
15	0x3c8b6206	0.017014515
16	0xbcc191a9	-0.023629026
17	0x3ccde811	0.025135072
18	0x3dcaef80	0.09908962
19	0xbcce3110	-0.02516988
20	0xbcaa86bf	-0.020816205
21	0xbbe7b9dc	-0.0070717167
22	0x3a71eff4	0.0009229176
23	0x3d80e7f1	0.06294239
24	0xbcc73f21	-0.024322094
25	0x3d67e585	0.05661537
26	0x3d849752	0.064741746
27	0xbda84576	-0.082163736
28	0x3b7ccb4a	0.0038573318
29	0x3de095de	0.10966085
30	0xbcda7a93	-0.026669776
31	0xbba4735e	-0.0050186357
32	0x3d0e2508	0.034703285
33	0x3cfcb1dd	0.03084653
34	0x3c79449b	0.015214111
35	0x3c11220b	0.008858214
36	0xbcf72884	-0.030170687
37	0xbd289b3c	-0.041163668
38	0xbd519ddc	-0.051175937
39	0xbaa2d58a	-0.0012423259
40	0x3c8f2b12	0.017476592
41	0x3c669aa5	0.014074956
42	0x3d828cb6	0.06374495
43	0x3c6fffd4	0.0146483965
44	0x3d370262	0.044680007
45	0x3b15d759	0.0022863953
46	0xbc53937f	-0.012913584
47	0x3cffe428	0.031236723
48	0x3d140c85	0.036144752
49	0x3cc0c632	0.023532007
50	0x3cb4ed2e	0.022085752
51	0xbc9b13b0	-0.018930286
52	0x3aabc8c0	0.0013106093
53	0xbc15cede	-0.009143559
54	0xbd09a639	-0.033605788
55	0xbca26520	-0.01982361
56	0xbd005c48	-0.031338006
57	0xbc2992a9	-0.010349908
58	0x3c79cb77	0.015246264
59	0xbd435d87	-0.047696617
60	0xbbe1c380	-0.0068897605
61	0x3d6b9ee2	0.05752457
62	0xbd01a934	-0.031655505
63	0xbd4a8b8f	-0.0494495
64	0xbd16a512	-0.036778517
65	0xbd630596	-0.05542525
66	0x3da2e544	0.07953885
67	0xbc3c1fd2	-0.011482196
68	0xbc678223	-0.014130148
69	0x3a1889e9	0.000581889
70	0xbc03356d	-0.008008343
71	0x3d84602a	0.06463654
72	0x3d4288d4	0.04749377
73	0xbcbf5d0c	-0.023359798
74	0x3c043d0a	0.0080711935
75	0x3d03bd0a	0.032162704
76	0xbd2e3c00	-0.04253769
77	0x3a56dd68	0.0008196444
78	0x3da1ec6a	0.079064205
79	0xbcf4ec4f	-0.029897837
80	0x3cda9b7f	0.026685474
81	0x3d9795d1	0.07401622
82	0x3c38e9d3	0.011286217
83	0xb7471526	-1.1866248e-05
84	0xbd3a775a	-0.04552398
85	0xbc19566c	-0.0093589835
86	0xbd027f03	-0.03185941
87	0xbd41e01a	-0.04733286
88	0xbc550c48	-0.013003416
89	0xbd168c6d	-0.036755014
90	0x3d22e8a5	0.03977265
91	0xbd842472	-0.06452264
92	0x3d8fc505	0.0702
93	0x3d99fa7d	0.0751848
94	0x3cd975f4	0.026545502
95	0x37dcac3b	2.6306245e-05
96	0xbc6d1ae8	-0.014471747
97	0xbcd48672	-0.025943015
98	0x3c1c873f	0.00955373
99	0x3d8cc261	0.06873012
100	0xbcde5132	-0.027138326
101	0xbd4379dc	-0.047723636
102	0x3cda32ca	0.026635546
103	0x3d997eb0	0.07494867
104	0x3d2c54ee	0.042073183
105	0xbba75e77	-0.0051076966
106	0xbd2626be	-0.04056429
107	0x3c5680cf	0.013092234
108	0x3a506a5e	0.000795042
109	0xbbc9c550	-0.0061575547
110	0xbd23df86	-0.04000809
111	0x3d5ea9b5	0.054361064
112	0xbd23c774	-0.039985135
113	0x3cf317db	0.029674461
114	0x3ceeb422	0.029138628
115	0x3c8674fd	0.016413206
116	0x3d4be39c	0.049777612
117	0x3d383545	0.044972677
118	0x3ca94662	0.020663444
119	0xbc39f51f	-0.011349945

features.fc2.weight f4 [84, 120]
0	0x3d001bdb	0.031276565
1	0xbd12b839	-0.03582022
2	0xbc904a88	-0.017613664
3	0xbc9b59ef	-0.018963782
4	0x3d5a2779	0.0532603
5	0xbc7f93e4	-0.015599225
6	0xbc06be92	-0.008224146
7	0x3b4cbefb	0.0031241763
8	0xbd4aaa5a	-0.049478866
9	0xbdb2f585	-0.087382354
10	0xbc61220b	-0.013741027
11	0xbd3c884c	-0.04602842
12	0x3d96758d	0.0734664
13	0x3d50efa9	0.051009808
14	0xbd36a4d6	-0.044590794
15	0xbdb3010f	-0.08740436
16	0x3d999b0a	0.075002745
17	0x3d0f14fe	0.03493213
18	0xbd6cbb21	-0.057795648
19	0xbd9c3ad7	-0.0762841
20	0xbd82d854	-0.063889176
21	0xbcfe9fe4	-0.031082101
22	0xbc817713	-0.01580385
23	0x3d4e3737	0.050345626
24	0xbd9147ee	-0.070937976
25	0x3d4e9b77	0.05044123
26	0x3db0c96e	0.0863217
27	0xbd88980d	-0.066696264
28	0xbcdfbfbb	-0.027313104
29	0xbd5343e2	-0.05157841
30	0x3bfd568d	0.007731265
31	0xbcc00c56	-0.023443382
32	0x3da84994	0.08217159
33	0xbcec9f61	-0.028884592
34	0xbd92da63	-0.0717056
35	0x3d668c8e	0.056286387
36	0xbd27c1cd	-0.040956307
37	0x3c84654a	0.01616158
38	0x3da78dbd	0.08181331
39	0x3da868b2	0.08223094
40	0xbd45e4a3	-0.048313748
41	0x3c9c189e	0.019054707
42	0x3d5f6e91	0.054548804
43	0x3cf86689	0.03032233
44	0xbd2d72e4	-0.042345896
45	0x3d07af86	0.033126377
46	0xbd4c6301	-0.049899105
47	0x3d4b1bc1	0.049587015
48	0x3d849141	0.064730175
49	0x3c5d22d7	0.013497076
50	0xbcc8b395	-0.024499694
51	0xbd2edce9	-0.042691145
52	0x3d96810e	0.07348834
53	0x3d57f351	0.05272228
54	0x3cabf71d	0.020991856
55	0xbc9c3aff	-0.0190711
56	0x3b811219	0.003938925
57	0x3d5b0545	0.053471822
58	0x3da4edec	0.080531925
59	0x3c69be16	0.014266511
60	0xbad8fbe6	-0.0016554564
61	0x3d74e85a	0.0597919
62	0xbd2804d3	-0.041020226
63	0xbd7cbb1e	-0.061701886
64	0xbd0f8e10	-0.03504759
65	0xbdafe5aa	-0.08588727
66	0x3c75a150	0.014992073
67	0xbd10f89c	-0.035393342
68	0xbd85ee50	-0.06539595
69	0xbd9fa663	-0.077954076
70	0xbdc0d1ae	-0.09414993
71	0x3cce659a	0.025194932
72	0x3c1afddb	0.009459938
73	0x3d887e99	0.066647716
74	0xbd95e7d1	-0.07319606
75	0x3d87473b	0.06605383
76	0xbc26ef3e	-0.010188876
77	0x3d665780	0.05623579
78	0x3db4586f	0.0880593
79	0x3d26e61b	0.04074679
80	0x3dbd129f	0.09232067
81	0xbdad7fed	-0.084716655
82	0xbcd30c8f	-0.025762824
83	0xbd375073	-0.044754457
84	0x3cb12645	0.021624694
85	0x3d8bd5e9	0.068279095
86	0x3d04c992	0.032418795
87	0xbda32a52	-0.07967056
88	0x3cc45e6b	0.023970803
89	0x3d4393ce	0.04774838
90	0xbc8121d1	-0.015763195
91	0xbd6e976e	-0.058249883
92	0xbd977db0	-0.0739702
93	0x3d8ee568	0.069773495
94	0xbd73bd55	-0.059506733
95	0x3d3de065	0.046356577
96	0x3d835ee1	0.06414581
97	0xbdbb1b0a	-0.09136017
98	0xbd10cebd	-0.03535341
99	0x3dba9eb8	0.091123044
100	0xbc1087d3	-0.0088214455
101	0xbd503860	-0.050835013
102	0xbccc6a4b	-0.024953028
103	0x3d47a740	0.048743486
104	0x3d477134	0.048691943
105	0xbcb1a003	-0.021682745
106	0x3d7f6528	0.06235233
107	0x3dafdc67	0.0858696
108	0x3d457db1	0.04821557
109	0x3d7df3ae	0.06199997
110	0x3c77cfea	0.015125254
111	0xbd525012	-0.051345892
112	0xbbc5c887	-0.0060358676
113	0xbd1bf726	-0.038077496
114	0x3cebacd0	0.028768927
115	0x3bf87851	0.007582702
116	0xbd7597a4	-0.05995907
117	0xbdae48c8	-0.08509976
118	0x3c2162fd	0.009850261
119	0x3abd03c5	0.0014420679
120	0x3d7d2a9d	0.061808217
121	0xbcfef51a	-0.031122733
122	0x3dbdad25	0.0926154
123	0xbbdece45	-0.0067994916
124	0x3c91f3e3	0.01781649
125	0xbc32a2d0	-0.010903075
126	0x3db8c115	0.090212025
127	0xbdb0008b	-0.085938536
128	0x3cfb4bc6	0.03067578
129	0x3d0cfc63	0.034420382
130	0xbd45d4ba	-0.048298575
131	0x3c9460b7	0.018112523
132	0x3bb073b8	0.0053848885
133	0x3da02444	0.07819417
134	0x3cc52367	0.024064733
135	0xbd5cb262	-0.053881057
136	0x3d163498	0.03667125
137	0xbdbe9b2e	-0.09306942
138	0x3cd44550	0.025911957
139	0xbc9c7a8c	-0.019101404
140	0xbd9e2555	-0.07721964
141	0x3d5bada3	0.05363239
142	0xbbfc8741	-0.007706553
143	0xbd91463d	-0.07093475
144	0xbda9b7ec	-0.082870334
145	0x3da7dfa8	0.08196956
146	0x3d992cc1	0.07479239
147	0x3cd72140	0.026260972
148	0xbc810f9a	-0.01575451
149	0x3db3a3d1	0.0877148
150	0xbd8528c5	-0.06501917
151	0xbd2d0caf	-0.042248424
152	0xbbe8e416	-0.007107268
153	0x3cf73491	0.030176433
154	0x3d85fedb	0.065427504
155	0x3db30433	0.08741035
156	0xbd2c5b74	-0.042079404
157	0xbd9fc943	-0.078020595
158	0x3daac9dd	0.083392836
159	0xbd82c360	-0.06384921
160	0x3d29e3d7	0.04147705
161	0xbdb7ffca	-0.08984335
162	0xbda23bdf	-0.07921576
163	0xbd959813	-0.073043965
164	0xbd397146	-0.04527404
165	0x3d2f6b38	0.04282686
166	0x3bdbcfd0	0.006708123
167	0xbd46a2a6	-0.048494957
168	0xbd9f6749	-0.07783372
169	0xbd9bfab1	-0.07616175
170	0xbdca67cc	-0.09883079
171	0xbd888812	-0.06666578
172	0xbdcd760a	-0.1003228
173	0x3dd92dd6	0.10604446
174	0x3d39daed	0.0453748
175	0x3c8cd759	0.01719253
176	0x3dc806fd	0.09766958
177	0xbda99afb	-0.08281513
178	0x3d27088c	0.040779635
179	0xb9556d15	-0.00020353899
180	0x3d2ba009	0.04190067
181	0x3da70ace	0.08156358
182	0xbc9dd23a	-0.019265283
183	0xbd6963ec	-0.05698006
184	0xbd84c9ba	-0.06483789
185	0xbcc087ad	-0.023502195
186	0xbdb40ba6	-0.08791284
187	0xbc5b39b8	-0.01338046
188	0x3d476dd5	0.04868873
189	0x3c8e689f	0.017383872
190	0x3d634b02	0.055491455
191	0xbd9afc1a	-0.07567616
192	0xbda4cb14	-0.080465466
193	0xbc0d86f4	-0.008638132
194	0x3dac4f84	0.08413604
195	0x3d82398d	0.06358633
196	0xbd695528	-0.056965977
197	0x3dd3d818	0.10343951
198	0xbda994a4	-0.08280304
199	0xbd609059	-0.05482516
200	0x3d55b624	0.052175656
201	0xbb2b1b88	-0.002610894
202	0x3d00f1ad	0.03148048
203	0x3c998aff	0.018743036
204	0x3d38eac2	0.045145757
205	0x3d46f109	0.048569713
206	0x3d25eb8d	0.04050784
207	0xbd4fe5f6	-0.050756417
208	0xbd861da5	-0.06548623
209	0xbc85077c	-0.01623892
210	0x3c4003b8	0.011719637
211	0x3d419668	0.04726258
212	0x3c8524ea	0.016252954
213	0x3d20373c	0.039115176
214	0xbd789ed4	-0.060698345
215	0xbc9ea005	-0.019363413
216	0x3c4b8efc	0.012424227
217	0xbda6fb97	-0.08153456
218	0x3d98d1e7	0.07461911
219	0x3bfb1116	0.007661949
220	0x3deff978	0.11717504
221	0xbdaa43b8	-0.083136976
222	0x3c89bd2a	0.016813833
223	0x3c362898	0.011118077
224	0xbb836789	-0.004010145
225	0x3d251224	0.040300503
226	0x3d3a3ef9	0.04547021
227	0xbda1d5bc	-0.07902095
228	0xbda8cba2	-0.08241965
229	0xba904221	-0.0011006036
230	0xbd4f6de5	-0.050641913
231	0x3c0c45ba	0.008561546
232	0xbd45ca79	-0.048288796
233	0x3c89a503	0.016802317
234	0xbd517633	-0.051138114
235	0xbce8d17d	-0.028420204
236	0x3cd6f542	0.026239995
237	0x3db97c6c	0.09056935
238	0xbde4a2ef	-0.111638896
239	0x3d8fdb83	0.070242904
240	0x3b795ed8	0.0038050916
241	0xbc34fd57	-0.011046729
242	0x3c62e8d5	0.013849457
243	0xbc9ee9ec	-0.019398652
244	0x3dab11d9	0.083530135
245	0xbc5bc93c	-0.013414677
246	0x3b88e46e	0.0041776216
247	0xbce90b9b	-0.028447917
248	0x3c4b4dd5	0.012408693
249	0x3d4f23e2	0.05057133
250	0x3d80f284	0.06296256
251	0xbd89276f	-0.066969745
252	0xbd1de068	-0.03854409
253	0x3c5566cf	0.013025
254	0x3d899763	0.06718328
255	0x3ce32ef4	0.02773235

features.fc2.bias f4 [84]
0	0x3def43c4	0.11682847
1	0x3b96ff07	0.0046080383
2	0x3d0d12fa	0.034441926
3	0x3d65a7ab	0.056068104
4	0xbb9148ab	-0.0044337115
5	0xbcf59015	-0.02997593
6	0xbcd1d958	-0.025616333
7	0x3e2cfdf1	0.16893746
8	0xbd44a64b	-0.04801015
9	0xbaf6ffda	-0.001884456
10	0xbd7ae717	-0.06125554
11	0xbcff4a43	-0.03116334
12	0x3cc064d9	0.023485588
13	0x3e557cbd	0.20848365
14	0xbc87ba6b	-0.016568383
15	0x3c249286	0.0100447
16	0xbc2e342b	-0.010632555
17	0x3e5f1be9	0.2178799
18	0xbd810cb8	-0.06301254
19	0xbdfd848a	-0.123787954
20	0xbdf5f9d2	-0.1201054
21	0x3bfc5c7b	0.007701454
22	0x3d8d2f11	0.06893743
23	0xbdd35a0d	-0.1031991
24	0xbd54224f	-0.05179053
25	0xbc86cc49	-0.016454833
26	0x3dd99e78	0.10625929
27	0x3d9455e2	0.07242943
28	0x3e50aec5	0.2037917
29	0x3cc7a687	0.024371399
30	0xbb1292a9	-0.0022365248
31	0xbd8ebfcd	-0.06970177
32	0xbd836fdc	-0.0641782
33	0x3b307451	0.0026924799
34	0xbc9395e3	-0.018015807
35	0x3e119937	0.14218603
36	0xbba747ae	-0.0051049804
37	0xbd8620db	-0.065492354
38	0xbd275c4e	-0.040859513
39	0x3e89b814	0.26898253
40	0xbd1213af	-0.035663303
41	0x3d0c8c1e	0.034313314
42	0xbdba5493	-0.090981625
43	0xbd8ea2af	-0.06964623
44	0xbd9024b8	-0.070382535
45	0x3dfdd6fa	0.12394519
46	0x3d39e9da	0.045389034
47	0x3da9a024	0.082824975
48	0xbc45f7c7	-0.0120830005
49	0x3b893c29	0.00418808
50	0xbda93d02	-0.082635894
51	0x3d896895	0.067094006
52	0xbcb9cb35	-0.022679904
53	0xbdaa8cc5	-0.08327631
54	0x3d81e433	0.06342354
55	0x3d37565b	0.04476009
56	0x3d2932ec	0.04130833
57	0xbc8eebbe	-0.017446395
58	0x3c81138a	0.015756387
59	0x3cbeee52	0.023307
60	0x3df8ee52	0.12154831
61	0xbc8db176	-0.017296534
62	0x3e24e339	0.16102304
63	0x3ddcd298	0.10782355
64	0x3e3a0862	0.1816726
65	0xbcd18e0b	-0.025580427
66	0xbcede1de	-0.029038366
67	0x3e33dd8b	0.1756498
68	0xbd8c41ed	-0.06848512
69	0x3cbcba83	0.023038154
70	0xbdb05797	-0.086104564
71	0xbdb44d63	-0.08803823
72	0x3d7b575a	0.0613626
73	0x3dab1401	0.08353425
74	0xbd00a430	-0.03140658
75	0xbce6232f	-0.028092949
76	0x3cbf1288	0.023324266
77	0xba22fff0	-0.0006217947
78	0xbd7ae1b3	-0.0612504
79	0x3e435311	0.19074656
80	0xbccaabf8	-0.024740204
81	0xbd4cbb6e	-0.049983434
82	0xbd9b035a	-0.07568999
83	0x3b41a343	0.0029546774

l1.weight f4 [84, 84]
0	0x3ca99fd5	0.020706097
1	0x3d064dd0	0.03278905
2	0x3d9822e2	0.07428528
3	0x3ce82e74	0.028342463
4	0xbccc60e9	-0.024948554
5	0x3d92abad	0.07161651
6	0xbd95c058	-0.07312077
7	0xbd361708	-0.044455558
8	0xbd9fd15f	-0.07803606
9	0xbd2befa3	-0.041976582
10	0x3c767162	0.015041681
11	0x3c7e23ba	0.015511448
12	0xbc2daa5f	-0.010599702
13	0x3e073578	0.1320399
14	0xbc075f02	-0.008262398
15	0x3cd620a5	0.026138613
16	0xbcd84acb	-0.026402852
17	0x3dc2aa87	0.09505182
18	0xbd8cd28b	-0.068760954
19	0x3dc15811	0.094406255
20	0x3d6ce300	0.05783367
21	0xbd9371b5	-0.07199422
22	0xbb48dd47	-0.003064947
23	0x3da3a8ec	0.07991204
24	0xbb350f35	-0.0027627472
25	0xbdaf90ef	-0.08572566
26	0x3db6362b	0.088970505
27	0x3dd1682d	0.10224948
28	0xbd8d0f8e	-0.068877324
29	0xbd81405a	-0.06311102
30	0xbd80506b	-0.062653385
31	0x3d91ee00	0.07125473
32	0x3dcaa76d	0.09895215
33	0xbd84e66d	-0.06489263
34	0xbdae4a24	-0.08510235
35	0xbbf07625	-0.0073383027
36	0xbd3b382f	-0.045707878
37	0x3ddda23f	0.108219616
38	0x3c8f20fe	0.017471787
39	0xbd9f5c13	-0.07781234
40	0xbda019a3	-0.0781739
41	0xbd87e985	-0.06636337
42	0x3d4814dd	0.04884802
43	0x3d9fcaff	0.0780239
44	0xbd4a0e4c	-0.04933004
45	0x3dad6889	0.08467204
46	0xbce9ea4e	-0.028554108
47	0xbd676685	-0.056494255
48	0x3d49bc0c	0.0492516
49	0x3d868900	0.065690994
50	0x3d786338	0.060641497
51	0xbd458e05	-0.048231144
52	0x3d588041	0.052856687
53	0x3b6d89d4	0.0036245482
54	0x3e02b5db	0.12764685
55	0x3db5d1d1	0.0887791
56	0xbd883eb0	-0.06652582
57	0xbdcd4466	-0.100228116
58	0x3c5f8ab4	0.013643909
59	0xbd66f7d2	-0.056388684
60	0xbdc0453b	-0.09388205
61	0xbd653ba7	-0.055965092
62	0x3c56e50f	0.013116135
63	0xbbbdde9f	-0.005794361
64	0xbdb5c9c0	-0.088763714
65	0x3d0f03e9	0.03491584
66	0x3d5ae4f2	0.053440996
67	0x3da33a71	0.07970131
68	0xbc95f90c	-0.018307231
69	0x3ca0de5e	0.019637283
70	0x3d76e41f	0.060276147
71	0x3d88c9c3	0.06679108
72	0xbdc1a83a	-0.09455915
73	0x3c88c408	0.016695037
74	0xbdb935cc	-0.09043464
75	0xbd7635c1	-0.060109857
76	0x3cc69da2	0.024245087
77	0xbdccb2fd	-0.09995077
78	0x3d7c926d	0.06166308
79	0x3d9a9800	0.07548523
80	0x3d9441ca	0.07239111
81	0xbbc0018a	-0.0058595585
82	0x3da22434	0.079170614
83	0xbc577814	-0.013151187
84	0xbda3a267	-0.0798996
85	0x3d91c309	0.07117278
86	0x3b556d19	0.0032566248
87	0x3d5d9109	0.054093394
88	0x3caf4a52	0.021397743
89	0x3da79001	0.081817634
90	0x3c25d0e4	0.010120604
91	0x3d32d8ae	0.043663673
92	0xbc09813f	-0.008392631
93	0x3c0c0e61	0.00854835
94	0x3c1ab21b	0.009441878
95	0xbddcc335	-0.1077942
96	0xbd8c5ec3	-0.06854012
97	0xbad22caa	-0.001603504
98	0xbc75e224	-0.015007529
99	0xbdcf34d6	-0.101174995
100	0x3da4d52b	0.08048471
101	0x3d1a89a6	0.037728928
102	0x3ad4d5a4	0.0016237986
103	0x3dcd9fe6	0.10040264
104	0xbc04eade	-0.008112637
105	0xbce353fa	-0.027750004
106	0x3da87901	0.08226205
107	0x3ca5f925	0.020260403
108	0x3d126baf	0.035747226
109	0x3dc7ee7e	0.09762286
110	0xbdb5f795	-0.08885113
111	0xbdc7f724	-0.09763935
112	0x3d5886b8	0.052862853
113	0xbdd04f84	-0.101714164
114	0x3c3fbb71	0.011702404
115	0xbda23924	-0.07921055
116	0x3c7c9daa	0.015418449
117	0xbca2832e	-0.019837942
118	0xbd7802f3	-0.060549688
119	0xbd2f8a49	-0.04285649
120	0xbcd47619	-0.02593522
121	0x3d5e4577	0.054265466
122	0xbd82c2ea	-0.06384833
123	0x3dce307f	0.10067844
124	0x3c99d84c	0.018779896
125	0xbdd9b4af	-0.10630166
126	0xbd940d78	-0.072291315
127	0x3dac9aaa	0.08427937
128	0xbb1efa8b	-0.0024258222
129	0xbbd56e95	-0.0065134265
130	0x3ca2a495	0.01985387
131	0xbd75eb8c	-0.060039088
132	0x3d7c0e63	0.061537158
133	0x3d8cb532	0.06870498
134	0x3dbd3cd9	0.092401214
135	0xbdb72c12	-0.089439526
136	0xbc5d6bb9	-0.013514453
137	0x3d051553	0.03249104
138	0x3da8477b	0.08216759
139	0x3d5c3b33	0.053767394
140	0xbdd553b5	-0.104163565
141	0xbd3102ac	-0.04321544
142	0xbdbeb3ef	-0.09311663
143	0x3d9fa611	0.077953465
144	0x3d584dc7	0.05280855
145	0xbc60069e	-0.013673453
146	0xbd2081e0	-0.03918636
147	0xbd85254f	-0.06501257
148	0xbdbb604e	-0.09149228
149	0x3dc25fc6	0.094909236
150	0x3d1f74b4	0.038929656
151	0xbd7cc115	-0.061707575
152	0xbd640591	-0.05566937
153	0xbd786cd8	-0.060650676
154	0x3d55f2f2	0.052233644
155	0x3cf12e5c	0.029441051
156	0x3d907902	0.070543304
157	0x3d42ce74	0.04756017
158	0x3da02dc5	0.0782123
159	0x3cd59b2c	0.026074968
160	0x3d85fd65	0.06542472
161	0xbdc3e731	-0.09565581
162	0xbcd0fbbd	-0.025510663
163	0x3d4025a8	0.04691091
164	0xbcb0104b	-0.021492144
165	0xbdb40113	-0.087892674
166	0x3daa5568	0.08317071
167	0xbd539e3e	-0.051664583
168	0x3d419858	0.047264427
169	0x3c88c45d	0.016695196
170	0xbd54f504	-0.051991478
171	0x3da20ff6	0.079132006
172	0x3dc8fea5	0.098141946
173	0xbc8a01da	-0.016846586
174	0xbd1d73cf	-0.03844052
175	0x39bd48ad	0.00036103037
176	0x3d28c412	0.041202612
177	0x3dea53f2	0.114417925
178	0x3d284dff	0.041090008
179	0x3d98fbc0	0.074698925
180	0xbdd6b35c	-0.10483429
181	0x3cca5083	0.024696594
182	0x3d33854b	0.04382829
183	0xbd8f7077	-0.07003873
184	0x391695b5	0.00014360885
185	0x3c08c430	0.008347556
186	0x3d21d9a7	0.03951421
187	0x3d23876c	0.03992407
188	0xbd4712b8	-0.048601836
189	0x3d84f97e	0.06492899
190	0x3cc03556	0.023462933
191	0xbb68383d	-0.0035433911
192	0xbd32e0e5	-0.043671507
193	0xbaa3bef3	-0.001249282
194	0xbdbe1832	-0.09281959
195	0xbd5dfe3b	-0.05419753
196	0xbdaf80c6	-0.085694835
197	0x3c71b4b7	0.014752558
198	0xbd8989f4	-0.067157656
199	0xbddce154	-0.107851654
200	0x3bf26186	0.0073968796
201	0x3cd3c487	0.025850547
202	0xbd19163e	-0.037374727
203	0x3db0d400	0.08634186
204	0x3cdbaf83	0.026817089
205	0xbdaa7486	-0.08323006
206	0xbda2a406	-0.07941441
207	0xbd949767	-0.0725544
208	0xbda9c86c	-0.082901806
209	0x3dcc94c4	0.09989312
210	0xbcfbcbd7	-0.030736847
211	0xbb66a174	-0.0035191448
212	0x3cd41494	0.025888719
213	0x3d618492	0.05505807
214	0xbd2c0621	-0.041998032
215	0xbdd0836c	-0.10181317
216	0xbdb8b578	-0.090189874
217	0x3d5ae407	0.05344012
218	0x3dcb1ac6	0.09917216
219	0x3c83f34a	0.01610722
220	0xbc452a94	-0.012034077
221	0xbdd73420	-0.10507989
222	0x3dd9c3af	0.10633027
223	0x3ce35030	0.027748197
224	0xbce4c276	-0.027924757
225	0xbd7291ac	-0.059220955
226	0x3cb6f0a2	0.02233154
227	0xbce938ed	-0.028469527
228	0x3c7fe362	0.015618177
229	0xbda88b4c	-0.08229694
230	0x3d717e40	0.058958292
231	0x3d0ae2ef	0.033907827
232	0x3d0b2eba	0.03398011
233	0xbd04b54c	-0.03239946
234	0x3d6f81b3	0.0584733
235	0x3dbd44c7	0.09241634
236	0x3dda4f09	0.10659606
237	0xbd81ad8d	-0.0633193
238	0x3d9f6e63	0.077847265
239	0x3d055dfe	0.03256034
240	0x3d293f3f	0.04132008
241	0x3d6b1621	0.05739415
242	0xbcfe3ff1	-0.031036349
243	0xbd3172b0	-0.043322265
244	0x3cae0b0a	0.021245498
245	0xbd7a94f3	-0.061177205
246	0x3d95dd9f	0.073176615
247	0xbd1e7aca	-0.03869132
248	0x3c5971fb	0.013271804
249	0x3cc9dfc2	0.024642829
250	0xbdb9e033	-0.09075966
251	0xbdaba90c	-0.083818525
252	0x3d3e175e	0.046409003
253	0x3cd046df	0.025424419
254	0x3dd2c4b7	0.10291427
255	0xbd7856fa	-0.060629822

l1.bias f4 [84]
0	0xbd661ea2	-0.056181557
1	0xbde8f5ae	-0.11374985
2	0xbdceab6e	-0.10091291
3	0x3cbd5cd0	0.023115546
4	0xbda6ebac	-0.081504196
5	0xbd59b5d7	-0.05315193
6	0x3d5ffbed	0.054683615
7	0xbdf64dfd	-0.12026594
8	0xbca934f5	-0.020655135
9	0x3da2fde1	0.0795858
10	0x3b9e05a4	0.0048224498
11	0xbd3f380a	-0.046684302
12	0x3e5fcd0b	0.21855561
13	0x3e51e771	0.20498444
14	0xbdb2258d	-0.086985685
15	0x3ca68305	0.020326147
16	0xbda824d1	-0.08210147
17	0x3bce59db	0.0062973327
18	0xbdd57403	-0.10422518
19	0x3e507fa8	0.20361197
20	0xbd01a467	-0.031650927
21	0x3d5eaf77	0.054366555
22	0xbd9702d2	-0.07373585
23	0x3e104dd9	0.14092197
24	0x3dfd62ff	0.12372398
25	0x3d0eee0a	0.03489498
26	0xbdbe3a8b	-0.0928851
27	0x3e3125fb	0.17299645
28	0x3c2e548b	0.010640274
29	0xbd8d2d2b	-0.06893381
30	0x3eb55de5	0.35423198
31	0x3d2254d4	0.03963168
32	0xbdce0d3a	-0.100611165
33	0xbdb6b2dd	-0.08920834
34	0xbdd16708	-0.1022473
35	0xbd8560ef	-0.06512629
36	0x3db2c1f2	0.087283984
37	0x3d006d88	0.031354457
38	0xbd96ea81	-0.07368947
39	0xbcfb1248	-0.030648366
40	0xbd8c7e62	-0.06860043
41	0x3e3eb28c	0.18622798
42	0xbdaeca7b	-0.08534714
43	0xbd8a0f26	-0.067411706
44	0x3e83c120	0.2573328
45	0xbd2f07b7	-0.042731967
46	0x3e245e7c	0.16051668
47	0xbdcedcfa	-0.10100742
48	0xbd0dce82	-0.03462077
49	0x3e7ca5c4	0.2467261
50	0x3d7ed1d8	0.06221184
51	0xb9df2551	-0.00042561677
52	0xbb405fbe	-0.0029353942
53	0x3e0fbaab	0.14036052
54	0xbdd9a6d5	-0.10627524
55	0x3e34d261	0.17658378
56	0xbe02bafb	-0.1276664
57	0xbda6ccac	-0.08144507
58	0xbd858b83	-0.065207504
59	0xbdbc9e08	-0.092098296
60	0xbdd36941	-0.1032281
61	0xbc9d0692	-0.019168172
62	0x3c231ae0	0.009955138
63	0xbda59aac	-0.08086142
64	0x3db982c0	0.09058142
65	0xbdd52f90	-0.104094625
66	0xbdb719fa	-0.089405015
67	0x3e504038	0.20336998
68	0xbc9fa6d0	-0.019488722
69	0xbd06ec24	-0.032940045
70	0x3d7fca11	0.062448565
71	0x3db450e1	0.08804489
72	0x3e84c06f	0.25928065
73	0xbddf03d6	-0.108894035
74	0x3d693ece	0.05694466
75	0xbcd1f565	-0.025629709
76	0xbd7e9c4a	-0.062160768
77	0xbdce7d70	-0.10082519
78	0xbd880b0d	-0.06642733
79	0xbd7ec392	-0.06219823
80	0xbd8d6a5a	-0.069050506
81	0xb9e0f14d	-0.00042904392
82	0x3d5c536e	0.053790502
83	0x3d397e82	0.045286663

l2.weight f4 [256, 84]
0	0xbdb80e90	-0.089871526
1	0xbda0b204	-0.07846454
2	0xbc4c3bb8	-0.01246541
3	0x3d1f1919	0.038842294
4	0xbcfa93a1	-0.030587973
5	0x3bff7412	0.007795819
6	0x3d277818	0.040886015
7	0x3dd5f3da	0.104469016
8	0x3d1452b3	0.03621168
9	0xbd501b9f	-0.05080759
10	0xbcc95437	-0.02457629
11	0xbd88409d	-0.06652949
12	0x3d77429d	0.06036626
13	0xbca2e7e9	-0.019885974
14	0x3dbff0c6	0.09372096
15	0x3c637c16	0.013884565
16	0x3dc6ad9b	0.09701081
17	0x3d983a1c	0.074329585
18	0xbdd7fbcb	-0.105460726
19	0x3da4638c	0.080267996
20	0x3db8645e	0.090035185
21	0x3d08d94d	0.03341036
22	0xbdb9a445	-0.09064535
23	0x3de30400	0.11084747
24	0x3db5c4d0	0.0887543
25	0xbceff566	-0.02929182
26	0xbd114bff	-0.035472866
27	0xbcd0b85f	-0.02547854
28	0xbd41e90c	-0.04734139
29	0x3caf8403	0.021425253
30	0x3d930a8f	0.07179748
31	0x3cbd66fb	0.023120394
32	0xbc8006e5	-0.015628288
33	0xbc83b326	-0.016076636
34	0xbcd068dd	-0.025440628
35	0x3b23bce7	0.002498442
36	0x3d851973	0.06498995
37	0x3c884029	0.016632156
38	0x3bf23168	0.0073911436
39	0xbdb67612	-0.08909239
40	0x3dc19d15	0.09453789
41	0xbd73205d	-0.059357036
42	0x3dc52197	0.096255474
43	0xbb52a641	-0.0032142552
44	0xbd0aea7e	-0.033915035
45	0xbd5f6255	-0.054537136
46	0x3dabd3b0	0.083899856
47	0xbd68897f	-0.05677175
48	0xbd9b7f1b	-0.07592603
49	0xbd570121	-0.05249131
50	0xbd283d39	-0.04107401
51	0x3d87c926	0.06630163
52	0xbd8be180	-0.0683012
53	0x3d710e33	0.058851432
54	0x3b57709f	0.0032873524
55	0xbd52e66b	-0.051489275
56	0xbd3aecb9	-0.045635913
57	0xbdcd1094	-0.10012928
58	0xbdbf4d1d	-0.0934088
59	0x3c5e79e0	0.013578862
60	0xbca7531e	-0.020425376
61	0x3c87bf3f	0.016570685
62	0xbdc21e7a	-0.09478469
63	0xbdbcef6d	-0.09225354
64	0xbc6d6b97	-0.014490983
65	0xbdc6a903	-0.09700205
66	0xbb5716ef	-0.0032820066
67	0xbdadf0ab	-0.084931694
68	0x3d654938	0.05597803
69	0x3dbb5c05	0.09148411
70	0x3ca29493	0.019846236
71	0x3c9cdda7	0.01914866
72	0xba40ab95	-0.00073497865
73	0x3d145924	0.036217824
74	0x3de2ab09	0.110677786
75	0xbc4e920f	-0.012608065
76	0x3d02bce0	0.031918406
77	0xbc52c79a	-0.0128649715
78	0x3d5eb276	0.054369412
79	0x3c64404b	0.013931344
80	0x3dc3f350	0.095678926
81	0xbbcac0d3	-0.006187537
82	0x3dadd271	0.08487404
83	0x3dcf5e1c	0.10125372
84	0xbdcd53a3	-0.10025718
85	0xbc804ffd	-0.015663141
86	0x3da678d1	0.08128513
87	0xbcde3da5	-0.027129004
88	0x3dbd5db5	0.09246389
89	0xbb905c2c	-0.004405519
90	0x3d5ab6ac	0.053396866
91	0x3d99de58	0.07513112
92	0x3c9448db	0.018101146
93	0xbbd0dcbe	-0.006373971
94	0x3bae0d0c	0.005311614
95	0xbdccb899	-0.09996147
96	0xbdcf7e56	-0.101315185
97	0x3d7f8bd2	0.062389202
98	0xbc9d4e1b	-0.019202283
99	0xbd777b08	-0.060420066
100	0xbd3ee97f	-0.046609398
101	0x3d7b5217	0.061357584
102	0xbdbc0604	-0.09180835
103	0x3db162bc	0.0866141
104	0x3d96274c	0.07331714
105	0xbc05eb2a	-0.008173743
106	0xbd5ac25f	-0.053408023
107	0xbd8ee57e	-0.06977366
108	0x3dc29571	0.0950116
109	0xbdbc6d4a	-0.09200533
110	0xbcb058aa	-0.021526653
111	0xbd72d3ac	-0.059283897
112	0x3d9ada50	0.07561171
113	0x3dc336c9	0.09531934
114	0xbd40decf	-0.047087487
115	0xbda70dfb	-0.081569634
116	0xbd7fa6b0	-0.062414825
117	0x3b92e755	0.0044831433
118	0x3d3dea8a	0.046366252
119	0xbd352c2d	-0.044231582
120	0xbd84b837	-0.06480449
121	0x3d9369f3	0.071979426
122	0xbd0da3b5	-0.03457995
123	0x3d190161	0.03735483
124	0xbba1c146	-0.00493637
125	0xbdbcbc48	-0.09215599
126	0xbb5e0c97	-0.0033882016
127	0xbcdd3697	-0.02700357
128	0xbd227fcf	-0.03967267
129	0x3d7b9658	0.061422676
130	0x3dadb32b	0.08481439
131	0xbc7291a8	-0.014805235
132	0xbdda5333	-0.106604
133	0xbcc8f374	-0.02453015
134	0x3c59606d	0.013267619
135	0x3d8fbaa2	0.07018019
136	0x3ce7b986	0.028286707
137	0xbd942e22	-0.07235362
138	0xbc28ae87	-0.010295517
139	0x3cf397e4	0.029735513
140	0xbd29d430	-0.041462123
141	0xbcf47b24	-0.029843874
142	0xbdc17e5e	-0.09447931
143	0xbcc8c1b5	-0.02450643
144	0xbdc4c860	-0.09608531
145	0x3da6292f	0.08113324
146	0xbd581197	-0.05275115
147	0xbd580012	-0.052734442
148	0xbdab6910	-0.083696485
149	0xbb0d6db8	-0.002158029
150	0x3d26bdb9	0.040708277
151	0x3d2a0141	0.041505102
152	0x3dd99291	0.106236584
153	0xbcc7596a	-0.024334628
154	0xbd3c9da6	-0.046048783
155	0x3cec09f8	0.028813347
156	0x3d9e3b39	0.077261396
157	0xbdb8ce7a	-0.09023757
158	0x3cd09c5b	0.025465181
159	0xbd5e680d	-0.05429845
160	0x3d8c568b	0.06852444
161	0x3db282be	0.08716343
162	0xbd9b1834	-0.07572976
163	0x3d8f019a	0.06982727
164	0x3d38cab9	0.045115206
165	0x3dacfc29	0.08446533
166	0xbd7133cd	-0.05888729
167	0x3db45300	0.088048935
168	0x3c1d7afa	0.009611839
169	0x3dc735ec	0.09727082
170	0xbd8e913b	-0.06961294
171	0x3d1fbd5e	0.038998954
172	0xbca9f9d4	-0.02074901
173	0x3db93f90	0.09045327
174	0x3d96a1a0	0.07355046
175	0x3cb21ca6	0.021742176
176	0xbcb88528	-0.022524431
177	0xbdb28bb7	-0.08718055
178	0xbd44552d	-0.047932792
179	0x3db63df8	0.08898538
180	0xbd79fc5d	-0.061031688
181	0xbbb6a8bf	-0.0055743153
182	0x3d931402	0.071815506
183	0x3d41c275	0.04730459
184	0x3d774af3	0.06037421
185	0xbdac0f19	-0.08401317
186	0x3c1c8733	0.009553718
187	0xbba5fe62	-0.005065725
188	0x3dad090a	0.0844899
189	0x3da7e377	0.08197682
190	0x3de659ea	0.112476185
191	0xbd34919c	-0.044084176
192	0xbdb35667	-0.08756714
193	0x3c70a59f	0.014687925
194	0xbdae5086	-0.085114524
195	0xbcf176b6	-0.029475551
196	0xbc96ba7e	-0.018399473
197	0x3cc4af8b	0.024009487
198	0xbd4891f9	-0.048967335
199	0x3d5e7644	0.054312006
200	0xbc65a0a6	-0.014015352
201	0x3d7f5c3b	0.062343817
202	0x3de25ef9	0.11053271
203	0x3ce0c915	0.027439633
204	0xbda589c2	-0.08082916
205	0xbd40483b	-0.046943884
206	0x3dbd4c20	0.09243035
207	0xbd18b1e1	-0.037279014
208	0x3cc20b1f	0.023686944
209	0xbd5c5235	-0.053789336
210	0xbd44a9c2	-0.048013456
211	0xbd51a503	-0.051182758
212	0xbda16e1e	-0.07882331
213	0x3cd52656	0.026019257
214	0xbbf94cdd	-0.00760804
215	0xbd83f627	-0.06443434
216	0xbd827672	-0.06370248
217	0xbd940408	-0.072273314
218	0x3d8a6051	0.06756652
219	0x3db9b022	0.09066798
220	0xbd75bd2d	-0.059994865
221	0x3c1a8802	0.009431841
222	0x3dbb0e39	0.09133572
223	0x3d4a1865	0.04933967
224	0xbd4a265b	-0.049352985
225	0x3dc77507	0.09739118
226	0xbd8d5e6e	-0.06902777
227	0xbcffbd39	-0.031218158
228	0xbd708ac9	-0.058726106
229	0xbde12d4d	-0.109949686
230	0xbca65462	-0.020303909
231	0x3d133639	0.035940383
232	0x3c896eff	0.01677656
233	0xbc9ffc08	-0.019529358
234	0xbccabd54	-0.024748482
235	0xbd01c051	-0.031677548
236	0x3c023363	0.007946822
237	0x3d406461	0.04697073
238	0xbd83da96	-0.06438176
239	0x3c9180b6	0.01776157
240	0x3bffc989	0.0078060073
241	0x3d635633	0.055502128
242	0xbd94a9da	-0.07258959
243	0x3da9b03f	0.082855694
244	0x3dde536c	0.10855755
245	0xbd5fae84	-0.05460979
246	0xbc8df064	-0.017326541
247	0xbd9f17d3	-0.07768216
248	0x3cd30c96	0.025762837
249	0xbd8ed036	-0.06973307
250	0x3d709d5b	0.058743816
251	0xbd1da1c7	-0.03848436
252	0xbd9183ae	-0.07105194
253	0xbd85d45d	-0.06534646
254	0xbd8fa55a	-0.0701396
255	0x3d909abb	0.070607625
