models/Median/localmodel0experiment_log-2023-09-04-1614-15.pth (torch, 375691 bytes, 14 tensors)

features.conv1.weight f4 [6, 3, 5, 5]
000000 fb da 14 bd 4a a0 d3 bd e8 f4 b3 3d c3 61 fc 3c
       -0.03634165 -0.10333307 0.087869465 0.030808335
000010 81 76 76 bd ea 9a 25 bd 44 fb 67 bc 28 9d a5 bb
       -0.060171608 -0.04043094 -0.0141590275 -0.005054135
000020 8f 60 22 be 73 39 35 bc 82 66 70 bc 7b 87 41 bd
       -0.15857147 -0.01106106 -0.014672877 -0.047248345
000030 ef 5e a9 bc 72 49 b6 bd 39 56 0f be 48 bc 8f bd
       -0.02067515 -0.08900727 -0.13997735 -0.07018334
000040 61 9e 3d 3d 85 21 5d 3d 46 af a0 3d a0 8f 29 3d
       0.04629362 0.053987045 0.07845931 0.041396737
000050 09 86 7b bd bd 1d ea bd 91 18 96 3d 19 2d c6 bc
       -0.061407123 -0.114314534 0.073289044 -0.024191426
000060 68 01 d6 3a e9 f2 d3 bc 0e 1b 48 3d 13 55 97 bd
       0.0016327323 -0.025872665 0.048853926 -0.073892735
000070 47 8f ad 3d 83 0e 75 3d 33 a0 be ba 3b e7 de bd
       0.084745936 0.059828293 -0.0014543593 -0.108839475
000080 de 3d 7b bd a2 7f 0b be 44 c0 0b be 44 fd 65 3d
       -0.061338298 -0.13622907 -0.13647562 0.056149736
000090 fc 38 0d 3d 36 e2 df 3c 5a f5 61 bc de 5b 80 3d
       0.034478173 0.027329545 -0.0137914065 0.06267522
0000a0 76 0b 90 bd 89 da 25 3d 7d 41 9a ba b2 d1 2a 3c
       -0.07033436 0.040491614 -0.0011768785 0.010425972
0000b0 f8 88 d7 3b 93 dd cc 3d 0e d3 cf 3d 63 b7 82 3c
       0.0065776072 0.100031994 0.10147677 0.015956586
0000c0 a2 be 69 ba 62 66 aa 3d fc 38 24 3e f8 72 22 3e
       -0.0008916651 0.08320309 0.16037363 0.1586417
0000d0 3b d4 90 bb df 5d e5 3d a0 cf 0e 3e 03 c8 db bc
       -0.004419831 0.11199545 0.1394639 -0.026828771
0000e0 de 7f 8d 3c 0b ab 0f bd 71 20 39 bd f5 b1 cb bd
       0.017272886 -0.03507523 -0.045196954 -0.09946052
0000f0 e5 86 b3 3d ef 06 19 bd be bd 8a bd 81 f9 24 3d
       0.087659635 -0.037360128 -0.06774472 0.040277008
000100 3d dc e8 3d d4 2f 9d 3d ac 2b 0c 3e 17 c7 ed 3c
       0.11370132 0.07675138 0.13688534 0.029025597
000110 de 6e 14 3d 98 d4 39 3d d1 07 52 bc 94 6b 21 bd
       0.036238544 0.04536876 -0.012819246 -0.039409235
000120 33 0e ac 3d c8 25 77 bd 5c 17 db 3d 9b df 04 3d
       0.08401146 -0.060338765 0.10697815 0.03243981
000130 2d 26 62 3d 76 cc ac 3c b5 2c 61 3c 7d b9 14 bb
       0.05521219 0.021093588 0.013743569 -0.0022693567
000140 63 63 02 3d f2 ca 0e bc 84 8d 51 3d 7e 29 e3 3d
       0.031833064 -0.008715378 0.05116035 0.110918984
000150 f3 6e a3 bc a7 4f 35 3d 4d d1 82 3d ba 50 3a bd
       -0.019950366 0.044265416 0.06387577 -0.045487143
000160 e9 bd 00 3e 44 4a dd 3d 78 b8 9a 3d f1 9e b2 3d
       0.12572445 0.10805181 0.07554716 0.08721722
000170 2e b0 84 3d 71 97 c8 bd 54 29 a3 bd ae 5e 03 be
       0.06478916 -0.0979451 -0.07966867 -0.12829086
000180 ae d5 c4 3b 21 32 6e 3c 3f e1 cb bd 34 b3 07 be
       0.006006918 0.014538319 -0.09955072 -0.13251954
000190 8d 6f 95 3d b8 15 87 3d 09 60 b5 3c 33 ba a7 3d
       0.07296667 0.065959394 0.02214052 0.081898116
0001a0 50 3b 75 bd f5 3c 0d bd 85 c0 2f bc 87 f6 6e bd
       -0.059871018 -0.03448196 -0.010727053 -0.058340576
0001b0 28 f7 57 3c 59 64 22 3c 5a 1c ca ba ae 1e aa bd
       0.013181485 0.00991162 -0.0015419826 -0.08306633
0001c0 8b 60 a9 3d 05 07 ae bd 21 cd 53 3d 37 08 40 3d
       0.08270367 -0.084974326 0.051709298 0.046882834
0001d0 12 61 d1 bd c8 52 d5 bd ed e1 8d bd fc 69 aa 3d
       -0.10223593 -0.1041618 -0.069278575 0.08320996
0001e0 38 c5 cd bd 2a cb 00 be e7 0e 0a be 9f 84 a1 3d
       -0.10047382 -0.12577501 -0.13482247 0.078866236
0001f0 4d 96 bc bd dc 18 d2 3c 2f 99 6b 3d 08 3a de bd
       -0.09208355 0.02564662 0.057519134 -0.10850912
000200 18 af 73 bd f8 4e 02 bd f4 53 c7 bd 37 16 d7 bd
       -0.059493154 -0.03181359 -0.0973281 -0.10502284
000210 fe c4 94 3d d6 2f c1 3c 5a e8 8d bd de 1a 83 3d
       0.07264136 0.02358238 -0.06929083 0.06401609
000220 b3 80 a8 3d 98 c3 cc 3d 22 06 05 bc e4 cc 94 3d
       0.082276724 0.09998244 -0.008119138 0.07265642
000230 c8 9c 22 bd f9 8f 90 bd fa 3d 30 3d 41 6e 36 3d
       -0.0397003 -0.070587106 0.043027855 0.04453874
000240 ae 4b a5 3c 07 a2 bf bd 61 38 12 be ba 22 14 be
       0.020177688 -0.09357076 -0.1427932 -0.14466372
000250 04 ab 91 bd 19 5c 16 be 77 a9 4a bd fd 95 c1 3d
       -0.07112697 -0.1468357 -0.04947802 0.09452436
000260 c4 93 12 bd 4d 41 7e 3d fd a5 0c bd 2e 1d 21 3e
       -0.03578545 0.062073994 -0.034337986 0.15733787
000270 e2 aa a7 3d ee b9 8f 3d 24 fd 27 3d 3e 2c a5 3d
       0.0818689 0.07017885 0.041012898 0.08065079
000280 53 f3 d7 3b 28 eb 88 3b 7a 39 5d 3d 93 04 8d bd
       0.006590286 0.0041784234 0.054009892 -0.06885638
000290 d7 0d bc bc 48 19 40 bd 57 e8 34 be 41 86 0f be
       -0.022955818 -0.04689911 -0.17666756 -0.14016058
0002a0 ce 86 f2 bd be da 44 be 14 3f d2 3d e6 ab 00 3e
       -0.11842118 -0.19224069 0.102659374 0.12565574
0002b0 ad de 82 bd ac 53 4f 3d da e9 c5 3d f2 44 53 3d
       -0.06390128 0.050616905 0.09663744 0.051579423
0002c0 6c 7f 30 bb 7c 09 6b bd 2e 7f c6 3c d6 b9 e3 bd
       -0.0026931418 -0.057382092 0.024230566 -0.1111943
0002d0 15 c4 ad bc 0b 58 08 bd 38 6f 06 3e 72 b4 40 3d
       -0.021211663 -0.03328709 0.13128364 0.047047086
0002e0 51 0d 03 3e 47 ce 1c be 2c fe 00 bd 78 75 4b bd
       0.12798049 -0.15313064 -0.031492397 -0.049672574
0002f0 ae 26 00 be 96 d6 cf bd bb b2 f7 bd 59 d6 75 bc
       -0.12514755 -0.10148351 -0.12094637 -0.015004718
000300 41 72 76 be 06 bb 94 bd 47 af 64 bd c4 96 90 bd
       -0.24067022 -0.072622344 -0.05583122 -0.07060006
000310 89 f2 41 3d 7c f6 74 bc 36 f5 a2 3c d5 9e 11 be
       0.04735044 -0.014951345 0.019892316 -0.14220746
000320 13 d9 cc 3d 4f 6f 20 3e 7b 2c f8 bb 2b d4 02 3e
       0.10002341 0.15667461 -0.007573662 0.12776248
000330 87 55 fe 3d 59 d4 38 3e 14 21 22 3e f7 ef 8c 3d
       0.12418657 0.18049754 0.15832931 0.06881707
000340 3d 96 16 3e d0 60 63 3c dd 57 be bd 3f 8d be bc
       0.14705749 0.013878062 -0.09294102 -0.02326071
000350 e9 55 f7 bd 1b 0b b1 3d 3f 3c 4f 3c cb e2 e8 bd
       -0.12076933 0.08644696 0.012648641 -0.11371382
000360 18 fc ea ba 66 a4 68 bd d2 70 d2 bd b6 2e 82 bd
       -0.0017927913 -0.056797408 -0.10275425 -0.06356566
000370 86 e1 48 bd 1e fb df 3d bd 4b fd 3d a9 9d 01 3d
       -0.0490432 0.10936569 0.123679616 0.031644497
000380 0b a8 25 3d 68 a3 6e 3d 28 a2 b4 3d 9b d6 8b 3c
       0.04044346 0.058261305 0.08819991 0.017070105
000390 bd 36 51 3d 81 af d7 bc 14 42 b4 3d 3e 33 15 be
       0.051077593 -0.026328804 0.08801666 -0.14570329
0003a0 8e c6 2b bd 68 08 40 bd d9 45 0b bd af 74 87 bd
       -0.041937403 -0.046883017 -0.03400216 -0.066140525
0003b0 05 65 e7 bd 5f d4 9a bd db 1b 60 bd d6 ae bd 3d
       -0.11298565 -0.07560038 -0.054714065 0.09261863
0003c0 39 dd 99 bd 63 26 a7 3d 83 03 21 bd 9e 8a 78 bd
       -0.07512898 0.081616186 -0.03930999 -0.06067907
0003d0 e6 5a fe 3c b2 26 f3 3b b4 ae 5c be 41 f4 2e be
       0.031049203 0.0074203843 -0.21551019 -0.17085363
0003e0 03 60 4c be 23 94 44 bd 0b 5a 4c 3c c0 45 15 be
       -0.199585 -0.047992837 0.01247264 -0.14577389
0003f0 91 5b bb bc 17 c5 18 be fb 97 41 3b da 19 d2 bc
       -0.02287081 -0.14918934 0.002954005 -0.025647093

features.conv1.bias f4 [6]
000000 86 61 0e bb d1 68 c3 3c d2 43 0b 3b d8 74 ba 3c
       -0.002172561 0.023853691 0.002125014 0.022760794
000010 d9 7e fe 3c 16 84 a0 bd
       0.031066345 -0.078376934

features.conv2.weight f4 [16, 6, 5, 5]
000000 00 94 d7 3d 0f ac c5 3d 7d e3 78 3d e1 64 e6 3b
       0.10526276 0.09651958 0.060763825 0.0070310687
000010 37 e3 be 3d 13 98 5c 3d d9 c1 4e 3d 10 0c e1 3c
       0.093206815 0.053855967 0.050477836 0.027471572
000020 a3 28 08 bd 5e 30 d7 3c 1c 1a b4 3d d6 3e c5 3c
       -0.03324188 0.02626818 0.087940425 0.024077814
000030 61 7a 2f 3c bc 65 63 3c f7 39 64 3c f9 bd c3 3d
       0.01071033 0.013879236 0.0139298355 0.09557719
000040 00 f8 b0 3d 2a a4 4d bd a0 b0 b4 3d 82 74 87 3d
       0.08641052 -0.050205387 0.08822751 0.06614019
000050 3e 00 d9 bc f1 11 bc ba 45 fb 8c bd 25 6a 5f 3d
       -0.026489373 -0.0014348609 -0.06883863 0.054544587
000060 f0 86 5f 3d 04 2e 03 3d 8b d5 90 bd 34 af 85 3c
       0.054572046 0.032026306 -0.0707198 0.016318895
000070 c2 44 85 3c fa de 3a bd 0f 2c be bb 15 50 06 3d
       0.016268138 -0.045622803 -0.005803592 0.032791216
000080 b9 69 11 bd 90 d4 9c 3d bc 8b 0b bb 8f ad b4 bd
       -0.035501216 0.076577306 -0.0021293005 -0.08822166
000090 4e d1 98 bd 8f 8e 93 3d 57 43 cf 3d 3e 16 2b 3d
       -0.07461797 0.07204925 0.10120266 0.04176926
0000a0 5d ff 55 3d 67 06 dd 3d bc 67 e9 3c 6d aa cb 3d
       0.052245487 0.10792237 0.028491847 0.099446155
0000b0 ce c0 0c 3b f9 b0 5e 3d 30 f2 16 3c 3d b8 40 3d
       0.0021477225 0.054367993 0.009213015 0.047050703
0000c0 4a 26 42 3d 82 81 95 3d b5 e4 c8 3c b2 3b e8 bb
       0.047399797 0.07300092 0.024523119 -0.0070871944
0000d0 60 94 d2 3d fe 1b 65 ba 2b 7e 10 bd 1d da 11 3d
       0.102822065 -0.0008739828 -0.035276573 0.0356084
0000e0 d3 d8 fc 3d 9e c8 bf 3d 0a 53 01 3e c1 c0 dc 3c
       0.123460434 0.093644366 0.12629333 0.026947381
0000f0 1d 74 82 3d f7 e2 9d 3d 34 27 90 bc 55 d0 f4 3d
       0.06369803 0.07709306 -0.017596819 0.11953799
000100 ae 3e bc 3d fa be 82 3d 62 7f 3e 3d fb bf 1b bd
       0.09191643 0.06384082 0.0465082 -0.038024884
000110 66 29 2e bd be b9 85 bd 0d 9c b0 3d 96 d5 0c 3a
       -0.04251995 -0.06529568 0.08623514 0.0005372403
000120 84 42 03 3e 22 9a 09 3e 0d 74 9e 3d 5a 4a e2 3d
       0.12818342 0.13437703 0.07736979 0.11049338
000130 ce f7 e8 3d 80 86 f1 3d c5 27 91 3c 4c cb dc 3d
       0.1137539 0.11793232 0.017719159 0.10780963
000140 d5 86 ed 3d e0 7f 94 bc a7 ce 9d 3d 0d 4e 9b 3c
       0.11597983 -0.018127382 0.077054314 0.018958116
000150 02 2a c0 3d e0 e8 97 bc 5f 11 c9 ba d4 03 6a bd
       0.09383012 -0.01854366 -0.001534026 -0.057132557
000160 f1 fa b1 bd 4b b2 a8 3b 7a 7c f8 bc d0 1c aa 3d
       -0.086904414 0.0051482073 -0.030332793 0.08306277
000170 af 19 3b 3c 92 00 b3 3d 45 5b 47 3d ce ed 0c bd
       0.011419698 0.08740343 0.048671026 -0.034406476
000180 db ef bf 3d 78 16 4c 3d 5d 42 2c bd 64 9b d2 3d
       0.09371921 0.049826115 -0.042055476 0.10283545
000190 56 88 62 3d 46 e5 90 bd 81 c9 df bd 8a da a8 bd
       0.0553058 -0.070749804 -0.10927106 -0.08244808
0001a0 07 fc 99 bd 86 3a bc bd 6d 0c da bd fa af 8e 3c
       -0.075187735 -0.0919085 -0.10646901 0.017417897
0001b0 de 9a 47 bc cb dd f5 bd 02 7b 6b bb b9 6b cf bd
       -0.012182919 -0.12005194 -0.0035931473 -0.10127968
0001c0 f5 c5 46 bd af 53 e7 bc 11 c2 e9 bd 37 5d bc bd
       -0.04852863 -0.028238146 -0.11413968 -0.09197467
0001d0 5f 8c e3 bd fd f0 86 bd 57 2d c1 bd 09 da de bd
       -0.11110758 -0.065889336 -0.09432476 -0.10881431
0001e0 56 56 1a bd dc ed b2 bd 78 e1 5c bd 6d ad d6 bd
       -0.037679993 -0.08736774 -0.05392596 -0.10482297
0001f0 be 93 37 bd de 88 a8 bc 5b a3 f0 ba 24 9d 67 3d
       -0.044818632 -0.020573076 -0.0018359231 0.056546345
000200 a7 ef f7 3a b4 41 0b bd 00 bb 0b bd 5c a3 f9 3c
       0.0018916026 -0.033998206 -0.034113884 0.030473404
000210 34 e4 d5 bb c5 b2 2c 3d 85 dc 9f 3d 98 2d 2d 3c
       -0.006527448 0.042162675 0.07805733 0.010569952
000220 f8 c6 7d bc 0d 30 85 bd 45 50 b7 bd 0c 27 b7 bc
       -0.015489332 -0.065033056 -0.08950857 -0.022357486
000230 e2 e7 d2 3c f2 9d 79 bd 51 d3 13 bc 14 78 28 3d
       0.025745336 -0.060941644 -0.00902255 0.04113014
000240 43 6e 2c bc 5f 2c ea bc 16 86 b3 3c 82 a1 65 3d
       -0.010524335 -0.02858561 0.021914523 0.05606223
000250 54 86 9b bd 1d 70 19 3d e3 41 91 3d 93 08 08 bd
       -0.075939804 0.037460435 0.07092645 -0.033211302
000260 73 e5 7d bd a4 3c ab 3d 73 f8 3b bd a5 be 95 bd
       -0.061986398 0.08361176 -0.045891237 -0.07311753
000270 85 c4 f6 3c dc 21 8a bb 0c e8 38 bd aa 00 18 bd
       0.030123005 -0.004215462 -0.045143172 -0.03711001
000280 66 76 ef 3b 12 48 e4 3c e1 91 a0 bb 62 e5 6c 3d
       0.0073078154 0.027866397 -0.0049002026 0.057835944
000290 47 62 5e 3d c2 4a 96 bd 6f 6f 32 3c b8 16 0a 3d
       0.054292943 -0.07338478 0.010890826 0.033713073
0002a0 03 f5 33 bd 42 c8 15 bd e2 92 5e 3c 52 cc 28 bd
       -0.043934833 -0.036567934 0.013584824 -0.04121048
0002b0 76 dc 9c 3d c0 42 8b 3c be 2c 4b bd 1a 7c 39 bd
       0.07659237 0.016999602 -0.049603216 -0.045284368
0002c0 a5 0a f0 bc 89 8e 1d 3b ba aa 73 3d eb 88 c5 3c
       -0.02930195 0.0024041256 0.05948899 0.02411314
0002d0 9c 0c 5c bd 3b 8f 6d bd fa cf 83 bc 25 88 53 bd
       -0.053722963 -0.057997923 -0.016090382 -0.05164351
0002e0 95 42 cf 3c 9a dc 99 3c de 2f 0a bd 7d 85 c6 ba
       0.025300303 0.018781949 -0.033737056 -0.0015145984
0002f0 5d 93 6a 3d 29 a7 bd 3c f2 32 86 3c dd 2d 3e bc
       0.057269443 0.023150997 0.016381714 -0.011607614
000300 2d 6c 98 3d 64 6a ce 3d 97 f3 41 3d f2 92 a5 3d
       0.07442508 0.10078886 0.047351446 0.08084668
000310 a0 03 27 3d 5f 76 d7 bc 18 0c 53 3d a5 f7 9a bc
       0.04077494 -0.02630156 0.051525205 -0.018916914
000320 0b 36 4f 3d 55 8c 87 3d 19 10 6a 3d c6 c7 da bc
       0.05058865 0.06618563 0.05714426 -0.026706588
000330 b9 1e 40 bd 62 28 b5 3d ff ce e0 3b 53 05 de 3d
       -0.0469043 0.08845593 0.0068606134 0.10840859
000340 1d 20 8a 3d 0a 9a b7 3b f3 ab 82 3c ea cd fc bc
       0.06744406 0.0056030797 0.015951132 -0.030859906
000350 d6 81 ca 3c 8e 61 85 bb 95 a4 c6 3d c3 a2 17 bd
       0.024720114 -0.0040704673 0.0969936 -0.037020456
000360 01 b8 2e 3d e0 ea 92 3d 1e 7a 9d 3d 5c a4 9c 3d
       0.04265595 0.07173705 0.07689308 0.076485366
000370 f2 c3 66 bd 3b e7 95 3d 1e 68 bc 3d f4 d6 f4 bc
       -0.05633921 0.07319494 0.09199546 -0.029887654
000380 be 67 3b bd 15 dd 69 3d 80 27 9b ba c8 e0 45 3d
       -0.045753233 0.057095606 -0.0011837333 0.04831007
000390 8e 72 f3 3c fc 28 54 3d d2 c9 19 3d c0 bb 5f 3c
       0.02971771 0.0517969 0.037545986 0.013655603
0003a0 b4 be ce 3c 4d 12 c0 3c 5c 38 19 3d 2d 4d b9 3c
       0.025237419 0.023446226 0.037407264 0.022619808
0003b0 ea 91 3d 3d 31 63 c6 3d 01 61 b7 39 c3 f0 96 3d
       0.046281733 0.09686888 0.00034976754 0.073701404
0003c0 d5 7a 29 3d cf 60 4a 3d d2 24 60 bc 4a 86 91 3d
       0.041376907 0.04940873 -0.013680654 0.07105692
0003d0 b1 64 07 3d 67 47 53 3d 12 47 b2 3d fa f0 14 bd
       0.03305501 0.051581766 0.08704962 -0.036362626
0003e0 7b 06 0e bd 7e ef c6 3c 84 dd a2 bd 05 fe dc bc
       -0.03467415 0.02428412 -0.07952407 -0.026976595
0003f0 8e 85 d7 bb 79 28 1a 3d f2 ab d3 bd c6 3f 43 3d
       -0.0065772003 0.037636254 -0.1033553 0.04766824

features.conv2.bias f4 [16]
000000 89 4d 7b bd fa 63 e3 bc 4b 2b 91 3c aa f8 2a bd
       -0.06135324 -0.027757633 0.017720839 -0.04174105
000010 c9 d2 fd bc db b5 49 3d 2c b3 97 bd 49 16 14 bd
       -0.0309843 0.049245697 -0.07407221 -0.036154065
000020 a2 9b 47 bc 7c f7 bc 3d 3e f5 6c bd be b2 94 bd
       -0.012183102 0.092268914 -0.05785107 -0.07260655
000030 32 aa 97 bd 45 61 33 3d c7 86 10 3d 44 bb 85 3d
       -0.07405509 0.043793935 0.035284784 0.06529859

features.fc1.weight f4 [120, 400]
000000 d3 32 3a 3d 67 4b 25 3d 6e 0c ff bb 86 33 1f bb
       0.045458626 0.040355112 -0.007783464 -0.0024292185
000010 bf e6 4d 3c 89 88 4a bc d9 8f 2c 3d d4 74 bc 3c
       0.012567221 -0.012361654 0.04212937 0.023004927
000020 8e c8 ea 3b 74 86 04 bd 47 e0 1c 3d 6e c0 83 bb
       0.0071650213 -0.032354787 0.038299825 -0.004020742
000030 1b c0 cf bc 61 64 35 bd d6 1d 25 bd 45 79 1d 3d
       -0.025360158 -0.044285182 -0.040311657 0.03844573
000040 84 69 f1 bc 70 46 35 3d 78 42 ea 3a ac 88 56 bd
       -0.02946926 0.044256628 0.0017872592 -0.052376434
000050 83 e6 8d bc 58 df ab 3c 68 5f 00 3d 17 54 f7 3c
       -0.01732183 0.020980522 0.031340986 0.030191464
000060 a0 da f7 bb 93 75 46 3d 1c ab fd 3c 44 ef 12 3d
       -0.007563904 0.04845197 0.03096538 0.035872713
000070 01 6c 0e bc e4 2f 30 3c ec 2e 29 3d ec 04 59 bc
       -0.008692742 0.0107536055 0.041304514 -0.013245802
000080 1f 8a 1d bd a0 94 49 bd 1c 56 ab bc 70 64 4e bc
       -0.0384618 -0.049214005 -0.020915084 -0.012597188
000090 20 7b 8f 3c 4d bf 7c bc b5 80 49 3c a4 0e 25 bd
       0.017514765 -0.015426469 0.012298753 -0.040297166
0000a0 24 73 28 bc 39 cb 26 3d bc ba 89 3c 88 a7 9c bc
       -0.010281358 0.040721152 0.016812675 -0.019122854
0000b0 08 ac 11 3d e1 e5 ed 3c ef 38 2a 3d 14 75 99 bb
       0.035564452 0.029040279 0.041558202 -0.0046831463
0000c0 f5 1e 81 bb 49 4f ca 3c e2 49 c0 bc bf 24 fa 3c
       -0.003940458 0.02469601 -0.02347273 0.0305351
0000d0 42 87 25 3d 2a 58 d6 bb 1a c5 35 3d 3c 3d 35 3d
       0.040412195 -0.0065412717 0.044377424 0.04424785
0000e0 9d a6 ec 3c f0 f1 04 3d 68 6c 0e 3c 39 08 2e 3d
       0.028888041 0.032457292 0.008692838 0.04248831
0000f0 c2 5d 2f 3d e3 31 c5 bc e4 02 86 bc ca 78 36 ba
       0.042814024 -0.02407164 -0.0163588 -0.0006960748
000100 3f 3b 8d 3c 57 a8 f9 bc f2 84 26 3d dd 8d 1a bd
       0.017240165 -0.030475779 0.04065413 -0.037732948
000110 ac 87 1c b9 5f 13 5b 3c 95 60 aa bc 47 05 93 bc
       -0.00014927861 0.013371318 -0.020798007 -0.017946852
000120 c5 6f 1b 3d 5c e8 f5 3c 59 d1 f0 bc 77 a9 9f bc
       0.03794839 0.030018024 -0.0293967 -0.019489987
000130 de 2f 1a 3b e2 b8 73 bc 0c 10 c6 3c 94 95 af 3b
       0.0023527066 -0.0148756225 0.024177574 0.0053584073
000140 5d c6 c1 bb 7c d6 ab bc a4 4a 01 bc 54 60 90 bc
       -0.0059135393 -0.020976298 -0.007891331 -0.017624058
000150 e2 8f 45 bd b6 fc 1f 3d ae 14 53 bd d2 9b 43 bd
       -0.04823292 0.039059363 -0.051533394 -0.047756024
000160 8c cb 24 3d fa 5a 05 3d e2 57 29 bd 4b b9 2b 3c
       0.04023318 0.032557465 -0.041343577 0.010481189
000170 1f 3e 08 3b 30 4c 27 3d 18 f2 fa 3c aa 1e 53 bb
       0.002078898 0.040844142 0.030633017 -0.0032214322
000180 33 7b 56 bd 71 25 01 bd be 88 6d bc 7e bf 1a bc
       -0.052363586 -0.031529848 -0.014497934 -0.009445069
000190 0d e5 96 bc 65 b2 7d 3c 9c 81 bf bc e2 e2 29 bd
       -0.018419767 0.015484427 -0.023377232 -0.041476138
0001a0 05 5d b2 3c c3 29 69 3c e5 8f 86 3c 92 a9 fa 3a
       0.02177287 0.014231148 0.016426036 0.0019124022
0001b0 1a 88 3e 3d 97 c0 bd bc d2 bf 26 3d 6f e6 ef bc
       0.046516515 -0.023163123 0.040710278 -0.029284684
0001c0 1a e4 a8 3c 77 d9 ce 3c 7b 31 a9 3c 7b 1f 1c 3d
       0.02061658 0.02525018 0.020653477 0.03811596
0001d0 1e 98 36 3c a6 94 13 bc ec 87 9c bc 8e a5 d3 bc
       0.011144666 -0.0090076085 -0.019107781 -0.025835779
0001e0 b5 90 1d 3d 9c f4 f6 bb 11 46 f7 bc 8b 6c ca bc
       0.03846808 -0.007536484 -0.030184777 -0.02470996
0001f0 99 09 2e bd 8d 15 e3 bb e6 e5 c8 3c 0d fb b5 bc
       -0.04248962 -0.0069300593 0.024523687 -0.022214437
000200 1d 6d 46 bc ea bf 14 3d 10 e6 1e bc 93 f3 31 3b
       -0.012110976 0.036315836 -0.009698406 0.0027153238
000210 ed d1 ae 3b 7d e1 c8 bc 52 0f 3a 3d 60 f7 ba bc
       0.0053350837 -0.024521584 0.045424767 -0.022823036
000220 a1 1c bb bc 2e f3 e5 3b 40 ee b2 3c a7 8d 8d bc
       -0.0228408 0.0070175147 0.021842122 -0.01727946
000230 7b bf 3f bd cc 39 38 bb 09 02 40 3c 01 7f d0 bc
       -0.04681347 -0.0028110621 0.011719235 -0.025451185
000240 64 b4 f0 bc de fc 49 bd db b7 09 3d ec 5c b7 3c
       -0.029382892 -0.04931342 0.033622604 0.022383176
000250 eb 68 32 3d 06 fc 4c bd aa 44 4b bd e2 e2 89 bc
       0.04355709 -0.050045036 -0.04962603 -0.016831819
000260 3a 60 68 3c cf 65 10 3d 26 0e 4c 3b 4e 87 f3 3c
       0.014183098 0.035253342 0.0031136363 0.029727604
000270 3d b7 27 bb 44 89 93 bc d4 d3 57 bc 6d b6 21 3c
       -0.0025591396 -0.01800979 -0.013173062 0.009870154
000280 2c 65 35 bd e3 4d ce 3c c9 af a2 3c f9 a4 46 bd
       -0.04428594 0.025183624 0.019859212 -0.048497174
000290 5a 08 2b 3d 6a f2 dd 3c 6e 4b 2c 3d 59 62 ec bc
       0.04175601 0.027093131 0.042064123 -0.02885549
0002a0 b0 87 7f bc 38 fa 97 3b 2b 06 4e bd 4b 82 20 bd
       -0.015596315 0.0046379827 -0.05029885 -0.039186757
0002b0 36 a5 14 bd 68 bf 40 bd 0e fe 79 bc bd 2d f3 3c
       -0.03629037 -0.04705754 -0.015258325 0.029684896
0002c0 29 f6 5f 3c 99 f9 82 3c 61 21 a0 bc da ef 13 bc
       0.013669529 0.015988158 -0.019547166 -0.009029353
0002d0 96 75 19 3d b9 61 28 3d b1 f6 e2 bc 1c 22 41 3d
       0.037465654 0.04110882 -0.027705522 0.04715167
0002e0 23 2a 3f 3d 12 a9 d3 3c cf 4f 1e bd 95 41 27 3d
       0.046671044 0.025837455 -0.03865033 0.04083403
0002f0 c3 b1 32 3d e9 8f 0c bd 9e 3f ce 3a 65 e4 df bc
       0.043626558 -0.03431693 0.0015735512 -0.027330587
000300 7c 84 0a 3d 0e 68 46 bd c8 8b e4 3c 06 a5 7c bb
       0.033817753 -0.048439078 0.027898684 -0.003855051
000310 68 86 ff 3c c7 9e 01 bd 75 56 e7 3c fc cc 41 3b
       0.03119202 -0.031645562 0.028239468 0.0029571643
000320 34 a4 8d 3b 25 f9 45 3c 01 53 8b 3c 60 7f 47 3d
       0.004322553 0.0120833265 0.017007353 0.04870546
000330 f5 67 16 bc d9 04 df 3c 35 aa c3 bc c4 ee ad 3c
       -0.009180059 0.027223991 -0.023884872 0.021232016
000340 70 7a 0d 3c 4f 0d f8 3c 61 f1 22 3d 57 af 17 bd
       0.008635148 0.030279784 0.039780978 -0.03703245
000350 e3 d2 9b 3c c4 9e 31 bd d4 01 8a bc 4c 0d 40 bd
       0.019021457 -0.0433643 -0.016846575 -0.04688768
000360 56 2f bd 3c f1 57 0a bc 3c 2e 2b bd 59 ae 00 bc
       0.02309386 -0.008443818 -0.04179214 -0.007854068
000370 77 a6 37 3d ca 71 bf 3c 45 fe 35 3d 8b 14 0d bd
       0.044836488 0.023369689 0.044431943 -0.03444342
000380 80 ef 4a bd f9 5b b7 3c 00 70 10 bd 0c a2 10 bd
       -0.04954481 0.022382723 -0.03526306 -0.03531079
000390 c6 b1 8f bc dd 37 45 bd 2e 21 86 bc 48 cb 32 3b
       -0.017540824 -0.04814898 -0.016373243 0.002728181
0003a0 ba 84 bf bc c6 ab 12 bd 67 fb 36 3d 50 c3 ff bb
       -0.023378719 -0.035808347 0.04467335 -0.0078052655
0003b0 cf 72 ba 3c 99 b6 f9 bc 8a 2f 23 bd 6a 18 b0 3c
       0.022759823 -0.030482577 -0.03984026 0.021496017
0003c0 b7 20 9d bc 65 67 b8 3c 51 7e 46 bd 74 bb 42 3d
       -0.019180639 0.02251024 -0.04846031 0.04754205
0003d0 fe c6 09 3c f4 69 32 bd 17 63 9f 3b da 20 a4 bb
       0.00840926 -0.043558076 0.0048641074 -0.005008799
0003e0 d7 59 9b 3b 01 ea da 3c 25 4b ac 3b 30 89 52 3d
       0.0047409344 0.02672291 0.0052579814 0.051400363
0003f0 10 54 8b 3c ef 1d 5f ba 40 e6 cb bb 5c 3b da 3c
       0.017007858 -0.00085112354 -0.0062225163 0.026639633

features.fc1.bias f4 [120]
000000 32 93 53 bd 5c e4 c1 bc c9 1d f8 3c 3e 96 32 bb
       -0.05165405 -0.02366846 0.03028764 -0.0027250196
000010 58 1e 09 3d 89 8d 20 3d 1d 06 12 bd 85 a0 25 bc
       0.033476204 0.03919748 -0.03565036 -0.010109072
000020 7a ef 6f 3d e7 34 0c 3d 0a 85 ca bc 7a c0 8a bb
       0.058577992 0.03423014 -0.024721641 -0.004234371
000030 ab 21 27 bd c1 28 3e bd de d9 0a bd a7 68 15 bc
       -0.040803593 -0.046425585 -0.03389918 -0.009119189
000040 9f dc f3 3c a0 86 9e bc 04 ca 0f bd 5b fd c9 3a
       0.029768286 -0.019351304 -0.035104766 0.0015410589
000050 11 b0 54 3d 6e 60 47 bb d1 d9 a1 bc bd d1 51 3d
       0.051925723 -0.0030422467 -0.019757183 0.051225413
000060 a2 f1 d0 bb 20 45 01 3d 23 74 9e bc 1c a7 d8 bc
       -0.006376461 0.031560063 -0.019342488 -0.026446871
000070 56 29 8c 3c 0c b9 0a bb 94 9f 17 3d 60 03 1c 3c
       0.017109554 -0.0021167425 0.03701742 0.009522289
000080 c6 09 21 bd 27 04 b0 3c 94 d7 fa bb 47 d5 0a 3d
       -0.03931596 0.021486355 -0.0076550934 0.033894803
000090 a8 87 b1 39 9a 55 a4 bc 69 fe 14 3d 75 72 c2 3c
       0.00033861143 -0.02006035 0.036375437 0.023736218
0000a0 0f 0d 28 3c e6 9b d0 3b 00 8a 73 3b a6 eb be bb
       0.01025702 0.006366241 0.0037161112 -0.0058264313
0000b0 77 21 8d b9 7b d8 06 bd 4b 76 53 3c e3 50 02 3d
       -0.0002691855 -0.032921296 0.012906621 0.03181542
0000c0 ad 9f 63 bc 71 9c 4c bd b7 b3 3b 3d 65 65 2f bd
       -0.01389305 -0.04995388 0.045825686 -0.042821307
0000d0 1f f7 96 3c cc 59 49 bd b1 4e d2 bc 88 0a 0d bd
       0.018428383 -0.049157903 -0.025672289 -0.03443387
0000e0 11 2e 18 3d d0 00 10 3d 87 dd 38 bc 63 5e 8b 3c
       0.037153307 0.035157025 -0.011283285 0.01701278
0000f0 24 db c7 bc 77 7c a1 3c a7 14 c9 3c 82 db 2f bd
       -0.024396487 0.01971267 0.02454598 -0.04293395
000100 c8 1e ef 3b cb b1 5a bc 75 36 0d bd 25 69 e9 3b
       0.0072973706 -0.013348053 -0.034475762 0.00712313
000110 23 97 28 bd d3 9c 75 bd c7 be 06 3d e4 f3 32 3d
       -0.04115976 -0.059964012 0.032896783 0.043689623
000120 26 76 e4 bc e8 e0 67 3b 39 01 5f bd 4a 5a 68 3d
       -0.027888369 0.0035381857 -0.054444525 0.05672673
000130 c2 f7 4f 3c c2 5a 41 3d 29 b9 05 bd 29 17 9b 3b
       0.012693347 0.047205694 -0.032647286 0.0047329855
000140 aa 75 8c bc 5d 10 1a 3c 56 d5 6d bd ea ed 9a 3c
       -0.01714595 0.009403315 -0.05806478 0.018912274
000150 94 31 3a bc 63 44 22 3d d7 b6 41 3b d6 96 5d bb
       -0.011364359 0.039616 0.0029558444 -0.003381183
000160 88 37 0b bd f9 d8 c2 bc aa d1 b6 bc 57 43 4b bd
       -0.033988506 -0.023785101 -0.022316772 -0.049624767
000170 83 41 ea 3c a9 d0 5b bd 02 bc 12 3d 18 df de 3c
       0.028595692 -0.05366579 0.03582383 0.027205989
000180 de 31 38 bc 2b 49 22 bd f9 52 61 3c 26 72 89 bc
       -0.011242358 -0.03962056 0.013752692 -0.016778063
000190 05 f8 05 3d ad 4d 51 3d 3a 70 87 bb 0f 47 a8 bc
       0.032707233 0.051099468 -0.0041332515 -0.020541696
0001a0 a1 7c 79 3b 73 18 ba 3c 10 a4 0b bd 00 9d 91 3d
       0.003806867 0.022716736 -0.03409201 0.071100235
0001b0 f0 bc ca 3a f9 85 05 bd 80 66 c3 bc a8 3c b4 3c
       0.0015467685 -0.03259847 -0.023852587 0.02200158
0001c0 f9 d6 05 bd 79 82 d3 bc ed 12 9e bb f3 31 ad bc
       -0.032675717 -0.02581905 -0.0048240335 -0.021141982
0001d0 88 d4 00 3d 05 4c 7d 3c 8b 7a 01 bd 49 dd 11 3b
       0.031452686 0.015460019 -0.031611007 0.002225714

features.fc2.weight f4 [84, 120]
000000 2d 16 9c bd 15 0d a0 3d b2 e4 24 bd 15 d2 9b bd
       -0.07621417 0.07814995 -0.040257163 -0.07608429
000010 20 e7 6e bd bc 27 b4 bc d5 f1 30 bd 8c d6 a8 bc
       -0.058325887 -0.021991603 -0.04319938 -0.020610116
000020 f9 b3 ff 3c ff 5a df 3c 21 78 e8 bb c2 6a 52 3c
       0.031213747 0.02726507 -0.0070943986 0.012842836
000030 d7 78 62 3b 52 b9 4d bd 7f 55 03 3d 2f a3 23 3d
       0.003455689 -0.050225563 0.032063957 0.039950546
000040 14 4a 88 bc da 09 3a bd 3c 5b a1 bd ff a0 4c 3d
       -0.016636886 -0.04541955 -0.0787873 0.049958225
000050 39 2d 3b bc 38 15 9e 3d ee a6 21 bd 65 b1 9d bc
       -0.011424356 0.07718891 -0.039465837 -0.019249627
000060 88 13 82 3c cc ef a0 3c e2 35 94 3d d3 30 8e 3d
       0.015878454 0.019645594 0.0723684 0.06942906
000070 c8 a0 a3 bb 1b f2 71 bd 08 4b 98 3d 64 7c b3 3c
       -0.004993532 -0.05906878 0.07436186 0.0219099
000080 27 0e 2c bd bb 52 8b 3c 19 5f 03 3d a0 50 f3 bc
       -0.042005684 0.017007222 0.032073114 -0.029701531
000090 c8 2f 04 3c 91 f1 cb 3b 82 24 a6 3d 39 02 79 3d
       0.008068033 0.0062238653 0.08112432 0.060793135
0000a0 8e 80 83 ba 5c 8b 7c 3d be 06 64 3c 4d 41 a7 bd
       -0.0010032819 0.06165634 0.013917623 -0.08166752
0000b0 25 3f a9 bd ae 58 1b 3d 7c 73 10 bd ec 46 b8 bd
       -0.08263997 0.03792637 -0.035266384 -0.08997902
0000c0 3e dc ac bb a8 0d 9c bd 26 df 7c 3c 5b 69 01 bd
       -0.0052752784 -0.07619792 0.015434062 -0.031594615
0000d0 9a 84 aa 3d d1 4d 3c bd dc 46 2c bc ca 30 b8 3c
       0.08326073 -0.04597265 -0.010514941 0.022484202
0000e0 bb e8 bd 3d 13 d2 57 3d 87 ef c8 3c 47 29 93 3d
       0.092729054 0.052690577 0.024528278 0.071856074
0000f0 02 02 83 bc 9f 3f 79 bd 1e b2 9e bd 1d 19 5d 3c
       -0.015992168 -0.06085169 -0.07748817 0.013494757
000100 cb 3e d0 3c 0b ee 8a bc 00 b2 61 3d 23 f2 46 bd
       0.025420567 -0.01695921 0.055101395 -0.048570763
000110 8b 70 62 bd 63 15 83 bc 27 a5 86 3d d6 af 26 bc
       -0.05528311 -0.016001409 0.06574469 -0.0101737585
000120 ef fa ae bd b8 f2 7f 3d b9 0f 09 3b 26 08 22 bc
       -0.085439555 0.062487334 0.0020913912 -0.009889638
000130 b7 db 0c 3d 99 fd 70 bd dc df 19 3c e8 6f 82 bd
       0.034389224 -0.0588356 0.009391751 -0.06369001
000140 22 98 06 bd 4f c0 a9 3d 70 b5 20 3d ba 34 91 3c
       -0.03285993 0.08288633 0.039235532 0.017725337
000150 4e 79 b7 bc d1 98 26 3d 1b 16 6c 3d 99 bc 4e bc
       -0.02239671 0.04067308 0.05763827 -0.012618207
000160 3a 46 a3 3c 11 3d a4 bb 2a 22 ad bd 8a cc 36 3c
       0.019930948 -0.0050121625 -0.08453782 0.011157164
000170 af 63 93 bb 23 7f d9 bc 8f b2 0d 3d 9f c3 01 bd
       -0.004497967 -0.026549881 0.034594115 -0.0316807
000180 d9 b7 35 bd 80 76 c0 3d a1 5f 63 bd 41 d7 ba 3c
       -0.044364784 0.09397602 -0.05551112 0.02280772
000190 73 60 8d bc 7d c5 87 bd 90 e4 c5 bc 5d 39 d3 3c
       -0.017257905 -0.06629465 -0.024156839 0.025784189
0001a0 e5 6c c7 bc 4f 7e 4c bc 51 c8 40 bb 5f cf 68 3d
       -0.024343917 -0.012481286 -0.0029416273 0.05683839
0001b0 24 c6 16 3d 76 d6 86 3d a3 50 0b 3c d1 61 f9 bc
       0.036810055 0.06583874 0.008503112 -0.03044215
0001c0 4b da d3 3c 92 2d e4 bc cc d8 41 3d 85 87 49 bd
       0.025860926 -0.02785376 0.047325894 -0.049201507
0001d0 a9 0e 2c 3d 6a 78 8d bd 5c f1 87 bd da 69 6b ba
       0.04200617 -0.06907733 -0.066378325 -0.00089803117
0001e0 2e 29 69 bd 4d b6 59 bd b3 c6 23 3d 56 5b 9f 3d
       -0.056924038 -0.05315237 0.039984416 0.07781093
0001f0 56 40 9d 3d 5c c3 d0 3c cc 29 ae bd bf db b5 bc
       0.07678287 0.02548378 -0.08504066 -0.02219951
000200 fc be 8d 3d 0d 6c 18 bb 34 ee ba bd f7 23 8f bd
       0.06921193 -0.0023257763 -0.09127465 -0.069892816
000210 95 0b f0 bc 5e 56 bf 3d 52 41 bb 3b 4f a8 56 bd
       -0.029302398 0.09342645 0.005714574 -0.052406605
000220 b5 81 01 3d f4 2f 2d bd 67 e9 83 bc fe 9f e7 bb
       0.03161784 -0.04228206 -0.016102506 -0.007068633
000230 8b 2d 0a 3d bd 49 8f 3d 80 d0 ab 3d 1a 68 66 bd
       0.03373484 0.06996486 0.083893776 -0.056251623
000240 3f c6 9e bd 17 5f ee 3c cf 6b 1b 3d 3f 5c 81 3d
       -0.07752656 0.029098077 0.03794461 0.06316423
000250 bc 94 95 bb 84 f4 8c 3d b3 89 e4 3b 29 ae e4 bc
       -0.0045648497 0.06882575 0.006974423 -0.027915077
000260 6f 83 76 3c db 48 09 bd 4c 18 72 3d c6 96 a4 bd
       0.015045985 -0.033516746 0.059105203 -0.0803657
000270 a1 f9 6e bd fb 87 8b bd ea e8 ca bc ee 95 61 bd
       -0.058343533 -0.068130456 -0.024769265 -0.055074625
000280 87 1b 8f 3d c7 bf 1d 3c e5 c0 96 3d 33 10 4b bd
       0.06987672 0.009628243 0.073610105 -0.049575996
000290 55 4d ab bd 56 0c b6 3d 3d b1 5f 3d cf eb 94 3d
       -0.08364359 0.08889072 0.054612387 0.072715394
0002a0 c7 48 75 bd 5b b8 89 3d 64 43 b8 3b 7a 21 51 3d
       -0.05988386 0.06724616 0.005623268 0.051057316
0002b0 c8 ed 0f 3d 1c 21 37 bd 01 3e 9b bd f3 88 5a bd
       0.035138875 -0.04470931 -0.07580186 -0.05335326
0002c0 54 c3 62 bc c6 07 b7 3d e4 b8 36 3d 76 f2 9a bc
       -0.013840515 0.089370295 0.04460992 -0.018914443
0002d0 1a 4d 9b bd b2 06 63 3d df 6f 96 bc 49 08 ad bc
       -0.07583065 0.055426307 -0.018363891 -0.021122115
0002e0 5f ab 29 3d bf fd 61 3d 0e c5 0a 3d 3a 43 27 3c
       0.041423198 0.05517363 0.033879332 0.010208899
0002f0 c3 0f 95 3d 7a 11 33 3d 33 f0 57 3c a2 52 7b 3c
       0.07278397 0.04371784 0.013179827 0.015339525
000300 6d e0 50 3c c4 a3 fd bc c7 43 cf 3c 44 d9 52 bd
       0.01274882 -0.030961879 0.025300873 -0.051476732
000310 63 d3 83 3d b5 c9 ae 3d 3b 02 0a 3b bb c5 c5 3b
       0.06436803 0.08534566 0.0021058458 0.006035534
000320 9b af d8 bc f1 63 99 3d 6b 31 c7 3d 85 f3 5e bd
       -0.026450923 0.074897654 0.097262226 -0.054431457
000330 6c 6f 6c 3d a8 43 aa bd 01 1b a3 3d 73 c3 2c 3d
       0.057723448 -0.08313686 0.07964135 0.042178582
000340 2a e7 af 3d f2 57 81 bd 86 c7 16 bc 5b c7 25 bd
       0.08589013 -0.06315602 -0.0092028435 -0.040473323
000350 4a 39 e9 bc 05 c4 b0 3d f4 22 03 bd 37 f8 a1 3c
       -0.0284697 0.08631138 -0.032015756 0.019771678
000360 2a ba fc bc 7e 9d 60 bd 6e e1 b4 3d 6f b6 84 3d
       -0.030850489 -0.054837696 0.0883206 0.06480109
000370 a3 63 c2 3c 25 a4 90 3d 16 24 03 3d 9f f0 a5 3d
       0.023729151 0.07062558 0.032016836 0.081025355
000380 0b ef 00 bd 19 24 42 3c 5a 61 43 bc 86 dc 99 bd
       -0.03147797 0.011849427 -0.011925066 -0.07512765
000390 4b 87 c1 bc e9 04 77 3c 7d ac bb 3c 50 98 d0 3c
       -0.023624083 0.015076854 0.022909397 0.025463253
0003a0 45 f0 a0 bd 29 fd b3 3d 34 e4 87 3d 56 43 a5 3d
       -0.07858328 0.08788521 0.06635323 0.08069484
0003b0 67 d5 9b 3d 3b fc 10 3d 42 64 c9 3d 54 ac 10 39
       0.07609063 0.035396796 0.09833576 0.00013797107
0003c0 ec 92 a1 3b d8 00 21 bd bf d1 b7 3d 41 02 c1 3c
       0.0049308445 -0.039307445 0.08975553 0.023560645
0003d0 8f 7e a8 3d 6c 9e ac 3d 60 74 6d bc e1 b4 47 bd
       0.08227264 0.08428654 -0.014493078 -0.048756484
0003e0 57 95 2c bd 86 5b 6b bd f6 b9 51 3d d0 17 6b 3d
       -0.04213461 -0.05746033 0.051202737 0.057395756
0003f0 e7 28 c1 3c e9 aa 79 bd bb b3 89 3b 53 dc 91 bd
       0.023579074 -0.06095401 0.0042023337 -0.07122102

features.fc2.bias f4 [84]
000000 e8 8a ad 3d c4 c3 28 bd 9d 7e b9 3d 51 a0 a1 3d
       0.0847376 -0.04120232 0.09057353 0.07891906
000010 21 ab aa ba 74 ef 9c bd 74 71 a3 bd 94 f7 47 3b
       -0.0013020971 -0.076628596 -0.07980624 0.0030512558
000020 3a e3 88 bd f5 b9 1d 3c 67 e9 cf 3c fd 28 6c bd
       -0.06683965 0.009626855 0.02537985 -0.057656277
000030 85 ba fe bc 80 ca 2b bd 05 30 7c bc 1e 7f a9 bd
       -0.031094799 -0.041941166 -0.015392308 -0.08276199
000040 44 d0 1d 3c 6e 5a 8f bd 3e 6c 29 3e 40 4c 0d bd
       0.009632174 -0.0699967 0.16545197 -0.034496546
000050 d3 7a af bd 2e 3f 0f 3e 0f 5e 91 3b f3 fa 2a bd
       -0.08568349 0.13988945 0.0044362615 -0.04174323
000060 f4 c9 51 3d 1e 6e 8f 3b 57 6b 07 bd 27 d7 9d 3d
       0.051217988 0.0043771407 -0.03306135 0.07707053
000070 bb a8 8b 3d 9b 10 bc 3d 13 da 92 bd 96 b6 c1 bb
       0.06819292 0.09182855 -0.071705006 -0.0059116585
000080 d4 33 f5 3c 57 5d aa bd 78 b4 bf bd 2a 46 ed bc
       0.02993194 -0.083185844 -0.093605936 -0.02896412
000090 3a ad b5 bd c1 4b a5 3c b6 2e f5 3c b7 50 92 3d
       -0.08870931 0.020177724 0.0299295 0.071443014
0000a0 b1 73 a3 bd 44 79 8e bd 85 18 8e bd 5d 5f b8 3d
       -0.07981051 -0.06956723 -0.069382705 0.09002564
0000b0 11 74 ab 3d 71 b1 15 3d cb 09 ac 3d 47 b4 84 bc
       0.08371747 0.036546174 0.08400305 -0.016199244
0000c0 11 ea 45 bd 00 ce f5 3c 72 27 32 3c 34 0e f9 bc
       -0.048318926 0.030005455 0.010873662 -0.03040228
0000d0 bf 1a 47 bd e4 9e 7b 3d a0 4f 2b bd 96 02 0c 3b
       -0.04860949 0.061430827 -0.041823983 0.0021363846
0000e0 ca 7d 80 3d 4e e7 96 3b 19 f1 7f bd 66 b5 b8 bd
       0.06273992 0.0046052104 -0.062485788 -0.09018974
0000f0 6f 90 0a 3e 8a 30 2d bc d2 25 b6 3d 5b 04 be 3c
       0.1353166 -0.010570655 0.088939324 0.023195436
000100 06 ae d8 bc d6 78 8a 3d b9 ed 58 3d b0 74 a3 3d
       -0.026450168 0.06761329 0.052961085 0.07981241
000110 8f 3a ba bd 08 49 33 bd b3 ea aa bd 41 b2 e0 3d
       -0.090932004 -0.04377082 -0.083455466 0.10971499
000120 86 c5 66 3d 3c 03 26 bc 40 68 21 bb 91 96 9a bc
       0.056340717 -0.010132607 -0.0024628788 -0.018870624
000130 12 37 5d 3c e7 dc be bc 53 fc 84 bd f0 f0 f2 3d
       0.013501899 -0.023298694 -0.064934395 0.118623614
000140 bb f7 a2 bc e5 ff 86 bd 50 f7 92 bd 0e 29 97 bd
       -0.019893518 -0.06591777 -0.07176077 -0.073808774

l1.weight f4 [84, 84]
000000 60 f9 b5 bd 15 7a 81 3d 74 23 90 bd 67 e8 a7 3d
       -0.08885455 0.063221134 -0.07038012 0.08198624
000010 fd d6 de 3d ad 04 ed 3b 85 68 c3 bd 20 ec 22 3d
       0.108808495 0.0072332234 -0.0954142 0.039775968
000020 fb 15 81 bc b7 db b5 bd c5 5e 5d 3d 91 fa 20 bd
       -0.015757551 -0.08879798 0.054045457 -0.03930146
000030 82 fc 54 3d 09 e2 34 3c 09 6f a0 3d e7 01 cc bd
       0.051998623 0.011040219 0.07833678 -0.099613
000040 6c 35 b6 3d dd 0b f0 ba 37 49 70 3d 6f 1f 82 bc
       0.08896908 -0.0018314082 0.058663573 -0.01588413
000050 f8 b6 3e 3d d8 f7 9f 3d 5b 81 b6 bd 9f 3e b6 3d
       0.04656121 0.07810944 -0.08911391 0.08898663
000060 35 f4 f3 bc e6 5b 98 3d 92 31 0a 3d 4e 98 a9 3b
       -0.029779533 0.07439403 0.03373868 0.005175627
000070 51 ed 33 bd 79 57 ab bd e0 2c 37 3c b0 7e de 3d
       -0.043927494 -0.083662935 0.011180133 0.108640075
000080 25 6b d9 3c de a5 10 3b ef ab c2 3d 0b b7 4e bd
       0.026540348 0.002207152 0.0950545 -0.050467532
000090 39 f5 4d bd 17 06 ab bd 86 f2 25 bd 3f 90 d6 3d
       -0.05028269 -0.08350771 -0.04051449 0.104767315
0000a0 66 59 af 3d df ce 05 3d 06 cb 1a bd 21 43 dc 3d
       0.08561973 0.03266799 -0.037791274 0.10754991
0000b0 85 06 3e bd 7f 47 18 3a 99 39 1b 3b 71 bb a0 3d
       -0.046392936 0.00058089936 0.0023685454 0.078482516
0000c0 4a 43 8b 3d 62 49 37 bc cf 0a 84 bd 78 5a 20 3d
       0.06799944 -0.011186929 -0.06447374 0.039148778
0000d0 1e c6 a0 3d 62 8a 7c 3d 71 93 a8 bd 3e ea d1 bd
       0.07850288 0.06165541 -0.08231247 -0.10249756
0000e0 10 74 bc bd a2 81 c8 bd e9 5c a4 bd ec 83 81 3c
       -0.09201825 -0.097903505 -0.08025534 0.015809976
0000f0 d1 dd 39 3d b6 a6 83 3d 79 1a b1 3c a0 b5 98 bd
       0.045377556 0.06428282 0.021619068 -0.07456517
000100 11 36 f1 3c ba a2 04 bd 9f 12 c2 bd cc 70 32 3d
       0.029444726 -0.03238175 -0.09476208 0.043564603
000110 57 7a 8e 3d a0 47 66 bd c6 e2 c1 3d 22 4a 8f 3d
       0.06956928 -0.05622065 0.09467082 0.069965616
000120 95 be 49 3d 45 73 b5 3b 6d cb be 3d 47 7c d7 3d
       0.04925402 0.005537423 0.09316144 0.10521751
000130 f0 d2 0c 3d 2a b8 92 bb 77 38 db 3d ac bd 97 3c
       0.034380853 -0.0044775205 0.10704129 0.01852306
000140 bf 1d b3 bd dd 46 87 3d 57 71 74 bd 0a 77 a8 bc
       -0.08745908 0.06605313 -0.0596784 -0.020564575
000150 64 d3 c6 bc f0 4e a9 3d 93 83 1a 3d b0 73 88 bd
       -0.02427072 0.08267009 0.037723135 -0.06662691
000160 e3 e0 b1 3d 1d dc 46 bc 97 23 3b bd 3c c5 c8 3d
       0.08685472 -0.01213744 -0.045688238 0.098032445
000170 35 f8 16 3d 41 c8 c7 bd fa 09 7b 3d 0f 16 a9 3d
       0.036857802 -0.09754992 0.06128881 0.082561605
000180 36 7f a5 bd 75 cd 31 bc 00 9e 42 3c 7d d5 b9 3d
       -0.08080904 -0.010852207 0.01187849 0.09073923
000190 eb 31 81 bd 1b b7 cc bd 20 57 69 bd 8f 9d 4b 3d
       -0.06308349 -0.09995862 -0.056967854 0.049710806
0001a0 04 dc 63 bc 5a 83 b7 3c 40 ac 71 bd 85 ae 06 bd
       -0.013907436 0.0224015 -0.05900216 -0.03288128
0001b0 7e fa 91 3c b7 97 8a 3c eb 44 c7 bd 11 73 55 bd
       0.01781964 0.016918046 -0.09729942 -0.05211169
0001c0 b6 f0 88 3d fb 09 b5 3d 64 a6 7b 3d 22 02 c8 3d
       0.06686537 0.08839794 0.06143798 0.09766032
0001d0 67 8e ab bd 73 78 ae bd 04 b2 87 bd b2 16 ce bd
       -0.083767705 -0.085190676 -0.06625751 -0.100629225
0001e0 bf c1 92 3c 0c 6e db bd 2c bc 8c 3d 7e 79 c1 3d
       0.017914651 -0.10714349 0.068718284 0.09447001
0001f0 8e d5 8c 3c 93 2e dc 3c 8d 4c 5e 3d cc cf c7 3d
       0.017191675 0.026877677 0.054272223 0.09756431
000200 74 4c 72 3d b7 c8 b8 bc f4 ba a2 bc 17 17 8a bd
       0.059154943 -0.022556646 -0.019864537 -0.06742685
000210 94 e5 8d 3d 1d 08 d6 bd 58 a2 a1 bc fd 82 25 3d
       0.06928554 -0.10450766 -0.019730732 0.040408123
000220 a4 ed dd 3d 8d 65 d7 3d be 7b cf bc 37 86 90 3d
       0.10836342 0.10517416 -0.02532756 0.070568494
000230 3e e0 b6 bd c5 f6 6c bd de e2 50 3d 2b c9 b0 bc
       -0.089294896 -0.057852525 0.050997607 -0.0215803
000240 71 b0 b7 3d 73 14 b6 3d ed 16 2a bd dc 31 5b bd
       0.089692004 0.08890619 -0.04152577 -0.053514346
000250 e3 d8 9a 3c aa b5 9f bd e4 8a 91 bd 45 36 96 3d
       0.018902248 -0.077983215 -0.071065694 0.0733457
000260 05 e3 8c bc 0a 65 a1 bd fa 89 8f 3d 83 cf b6 bd
       -0.017198095 -0.078806 0.07008739 -0.089262985
000270 15 d5 2f 3d 3c 69 d1 bd 5d 5d 2a 3c fc 91 f6 3c
       0.04292782 -0.1022515 0.010398236 0.030098908
000280 1e e0 c1 bd c2 15 23 bd 1a 57 0b bd 65 88 a7 bd
       -0.09466575 -0.03981567 -0.034018613 -0.08180312
000290 ce b7 d3 bd 01 14 2e bd 57 65 bf bd 42 ec cf ba
       -0.10337792 -0.042499546 -0.09345501 -0.0015863257
0002a0 78 f8 cf 3d 33 8b 4a 3c 9e bb ec ba 8c b0 4a 3d
       0.101548135 0.012362289 -0.0018061285 0.049484774
0002b0 c4 be b1 3c 43 77 d3 3c 2e ad a4 3d dd 8f 3e bd
       0.02169741 0.025813704 0.08040844 -0.046523917
0002c0 ac 83 15 be 70 9b 3c bd 68 a9 a6 3d ed b3 bf 3c
       -0.1460101 -0.046046674 0.081377804 0.023401225
0002d0 23 48 ef 3b d6 af 9d bd 98 a2 f2 bc b3 84 4a bc
       0.0073023005 -0.07699554 -0.029618546 -0.0123607395
0002e0 b9 8a ae 3b a8 db 2a 3d f2 cb 22 bd 25 38 84 3d
       0.0053265956 0.041713387 -0.03974528 0.06456021
0002f0 af d1 46 3c e0 98 d1 3b b0 76 17 3c 47 4b a2 bb
       0.012134953 0.006396398 0.009244606 -0.0049528214
000300 05 52 72 3c 83 4a 13 bd e0 64 6e bd 9f fb 8e bd
       0.014790063 -0.03595973 -0.05820167 -0.06981587
000310 a1 a7 cd bd ed 5e cb 3c 8d 7e a6 3d db 2c c6 3d
       -0.10041738 0.024825538 0.081296064 0.09676524
000320 47 f9 2d 3d a4 38 1d 3d 87 5e c8 bd 54 2a bd bd
       0.042474058 0.038384095 -0.09783655 -0.09236589
000330 1d 71 74 3b 87 54 91 3d 60 80 08 bd c8 5e cb bd
       0.0037298866 0.070962004 -0.033325553 -0.099301875
000340 08 3f 5e bd 13 cc af 3d 7c 3d 36 bd d3 dd b4 3d
       -0.05425933 0.08583846 -0.04449223 0.08831372
000350 89 98 61 3d 5c 55 a6 3d fb ab 72 3d 8c ef a7 bd
       0.05507711 0.0812175 0.059246045 -0.08199987
000360 0d ae 03 bc 2b 89 b5 bd d3 db b8 bd 14 f4 56 bd
       -0.008037102 -0.08864053 -0.09026303 -0.052478865
000370 0a fd 18 bd b7 2b cb bc ea d6 d9 3d d3 39 b0 3d
       -0.03735069 -0.024801118 0.10636695 0.08604779
000380 55 77 42 3b 59 ac 5c bd c0 02 03 bd 82 96 15 3b
       0.0029673178 -0.0538753 -0.031985044 0.0022825305
000390 ea 2e 0a 3d dd 5a 67 3c c2 53 cf 3d 1b af aa bd
       0.033736147 0.014120785 0.101233974 -0.0833418
0003a0 20 3b 99 3d 54 7d bb 3b de 1f 94 3d 4e a5 df 3c
       0.0748198 0.0057217274 0.07232641 0.027300503
0003b0 0d 1f 2e 3b 5e 66 04 3d 2a 89 29 3d f2 11 e5 3d
       0.00265688 0.032324187 0.041390575 0.111850634
0003c0 75 f5 26 bc d8 ea d1 ba 82 3d 05 bd 05 58 65 bd
       -0.010190357 -0.0016015423 -0.03252936 -0.055992145
0003d0 c0 31 92 bd b7 41 32 3d 80 70 b9 3d e6 64 97 3d
       -0.07138395 0.0435197 0.09054661 0.07392292
0003e0 2c 33 80 bb 88 4f 59 3d aa ae cd bc 81 2d 02 3d
       -0.00391235 0.053054363 -0.0251077 0.031781677
0003f0 7e 6d b3 3d 8d ce 70 3d 39 11 dd 3b b8 0c db 3d
       0.08761118 0.058790732 0.006746438 0.10695785

l1.bias f4 [84]
000000 09 ac 85 bc 57 90 36 bd 91 dd 48 3e 14 6c 6d bd
       -0.016317384 -0.044571247 0.19615771 -0.0579644
000010 72 f4 08 bc 8d fe f8 bc c3 66 da 3d a3 c1 22 3c
       -0.008359062 -0.030394817 0.106641315 0.009933862
000020 7c 9a a6 3e 7c f2 b9 bc 0d 34 27 3d ec 76 55 3e
       0.32539737 -0.022698633 0.040821124 0.20846146
000030 33 b3 cf 3d 8c 5f f1 bc 84 b2 1c 3d 16 a6 44 bc
       0.101416014 -0.029464506 0.038256183 -0.012002489
000040 90 35 1b bd 1a de 89 bc a3 9b b5 3d 7d 9d b6 bd
       -0.037892878 -0.01682954 0.08867576 -0.08916757
000050 7d 84 41 bd 1b a5 d2 bd 73 a0 a4 3d ae e3 0a 3e
       -0.04724549 -0.102853976 0.08038416 0.13563415
000060 7d cf 9f bc ca 39 06 3e 56 e2 d9 3d 64 ba a3 bd
       -0.019508118 0.13107982 0.10638873 -0.079945356
000070 96 be 24 3e fa cf ab bd 2e c2 b4 bd 0a 84 b5 bc
       0.16088328 -0.08389278 -0.08826099 -0.022157688
000080 c7 53 b7 3d ac bb 52 3e 37 16 a6 ba fe 58 83 3e
       0.08951526 0.20579404 -0.0012671415 0.25653833
000090 db 7f ca bd eb 2f f0 bc ea b1 1a bd ba dd 81 b9
       -0.09887668 -0.029319724 -0.03776733 -0.00024769997
0000a0 46 5d 50 bd dd b7 da bd 98 87 cc bc a2 36 be bd
       -0.050870202 -0.106796004 -0.024967 -0.09287764
0000b0 12 3e bd bd 20 9b 37 bc fb ef ae bd 9e a4 18 bd
       -0.092403546 -0.011206418 -0.085418664 -0.037266366
0000c0 82 0b 36 3d cd db 2b bd 76 fd 42 3d 3b ff e6 3c
       0.04444457 -0.041957665 0.047605 0.028197875
0000d0 00 20 3a bd 5a 85 b9 bd c2 f2 3d 3e f5 fc dd bd
       -0.045440674 -0.09058638 0.18549636 -0.10839263
0000e0 79 d8 54 3e 5d 63 98 bd 70 31 27 3c 7f de 83 bd
       0.20785703 -0.07440827 0.010204658 -0.06438922
0000f0 7f e4 97 bd b8 1b 64 3d d5 ca a3 bd fc 55 a4 bd
       -0.07416629 0.055690497 -0.079976715 -0.08024213
000100 62 d7 bc bc 75 61 a4 bd 3b fa 69 bd 9d b8 69 bb
       -0.023051921 -0.08026401 -0.057123404 -0.0035663017
000110 eb 0b 28 3d 03 19 b5 bd d0 da 5c 3e 69 e4 12 3e
       0.04102699 -0.08842661 0.21567845 0.14344944
000120 71 48 42 bc 94 13 8f bd 21 57 ab 3c f8 6a a6 bb
       -0.011858092 -0.06986156 0.02091557 -0.0050786696
000130 a3 cb 44 3d 53 0b e6 3c 36 7d 64 3e 89 eb 5d bd
       0.048045766 0.028081572 0.22313389 -0.054179702
000140 c6 87 5e 3d 20 34 b7 3d 31 65 94 bd cf f4 28 3e
       0.054328702 0.08945489 -0.07245863 0.16499637
