models/fedavg/globalmodelexperiment_log-2023-09-05-1021-43.pth (torch, 375691 bytes, 14 tensors)

features.conv1.weight f4 [6, 3, 5, 5]
000000 a3 1a 40 3e dc e2 24 3d 1e 16 fc bc 95 fc 27 3e
       0.18760161 0.040255412 -0.030772265 0.16404946
000010 6e d8 4c 3d 59 61 3d 3e c5 1b 96 3d 3d 05 b2 3d
       0.05001109 0.18494166 0.07329515 0.086924054
000020 b6 bc 25 3e 0a f3 cf 3d df e2 b5 bd 1a ec ef 3d
       0.16185269 0.10153778 -0.08881163 0.11714955
000030 9b 1e e7 bd 5f 2b 80 bd b8 11 a0 bb c2 be f3 bd
       -0.112851344 -0.062582724 -0.0048849247 -0.119016185
000040 7e f0 ba bd 1c b7 e6 bd f5 7d ba 3d ef a0 7f bd
       -0.091279015 -0.11265394 0.09106056 -0.062409338
000050 b5 f4 03 be 06 2e 92 3d 9c 1b b4 bd 13 fa 42 bd
       -0.12886317 0.071376845 -0.087943286 -0.04760177
000060 9a 54 15 be a8 c5 7f bc ed 10 94 bd b4 70 6d 3d
       -0.14583054 -0.01561109 -0.07229791 0.05796881
000070 5e b8 6d bc 9e 73 2a bd 21 e9 26 3d ee ec de bc
       -0.014509289 -0.041614167 0.040749673 -0.027212586
000080 9d ad 86 3b 69 13 91 3d 1b a6 fd bd c5 c3 9d bd
       0.004110052 0.0708378 -0.12385198 -0.07703356
000090 a4 dd 87 bd a2 00 7e bc b0 80 44 3d 7d 99 8c 3c
       -0.066340715 -0.015503081 0.04797429 0.017163033
0000a0 38 26 18 be 0e df 0c bd c6 c3 43 bd a6 5c ac bc
       -0.1485833 -0.03439241 -0.047794126 -0.021040272
0000b0 5a 25 14 be cc 20 ff bd 6a ae c5 3c d6 3b 42 3d
       -0.14467373 -0.124574274 0.024131019 0.047420345
0000c0 cf a9 13 bc 41 81 11 be da e1 b4 3d ea e8 ea 3c
       -0.0090126535 -0.14209463 0.0883214 0.028675515
0000d0 12 bd 72 bd c7 7a cf 3d 52 13 b3 3d 40 fd f4 bc
       -0.059262343 0.1013084 0.087439194 -0.029905915
0000e0 ca 52 a3 bd 35 42 16 3d 62 b6 04 bd 69 5c a3 bc
       -0.07974775 0.036684234 -0.032400496 -0.019941526
0000f0 de fe a4 3b 08 01 3b 3b 18 42 a5 3d 3e 84 1b 3d
       0.0050352653 0.002853455 0.08069247 0.037967913
000100 1d 08 b4 bd 47 a1 db bd 9e 7b 47 3d 94 24 29 bd
       -0.0879061 -0.107241206 0.048701875 -0.04129465
000110 02 e8 b2 3a 4c 18 ad 3d 0b ae eb 3d a8 6d ef 3d
       0.0013649466 0.084519 0.115078054 0.11690837
000120 e8 b4 95 bd 08 b0 8e 3c ab 0f 0d 3d 5e 8d 56 3d
       -0.07309896 0.017417923 0.03443877 0.052380912
000130 de 3d 76 3d b6 67 9f bd 0d 4b 7d bd c7 0b a2 3d
       0.060117595 -0.07783453 -0.061839152 0.079124026
000140 ac 70 e2 bd 68 11 59 3c 9b cb ad 3d b4 73 a4 3c
       -0.11056647 0.013248779 0.084861 0.020074703
000150 86 3f 1b bc 7a 95 6e 3c 84 a2 c7 bb d4 6d a1 3c
       -0.009475594 0.014562005 -0.0060923714 0.01970569
000160 95 cb 58 3d b2 1c b5 3d 3c 11 d2 3c 09 fa 8d 3d
       0.052928526 0.08843364 0.025642984 0.06932456
000170 10 64 e0 3d 0e 6d e5 bc 8c 4d b6 3d 29 4b b5 bc
       0.109565854 -0.028006103 0.0890151 -0.022130566
000180 48 3e 00 bd d2 9e 28 bd 70 4d 72 3d 48 a0 bb 3d
       -0.031309396 -0.041167088 0.05915588 0.091614306
000190 b3 55 96 3b 59 af 92 3d 9b 6f 78 3d 5f e9 db 3d
       0.004587853 0.07162351 0.06065331 0.107378714
0001a0 f1 23 ca 3d ba 92 e7 3c 62 94 b8 bd 6d c6 58 bc
       0.098701365 0.028268207 -0.09012677 -0.013230902
0001b0 06 b9 e2 bc c0 53 50 3d 6e 50 11 bd 90 e4 5a 3d
       -0.027676117 0.05086112 -0.035477094 0.05344063
0001c0 e1 f0 67 bd 4e 77 db bd 1b e5 2b 3d db 75 a1 3d
       -0.056626204 -0.10716115 0.04196654 0.07883807
0001d0 d4 e6 00 bc a0 7f 1b bd 42 22 04 bc 3c ee b8 3c
       -0.007867534 -0.03796351 -0.008064808 0.022574537
0001e0 54 92 f5 bd 70 51 b0 bc e1 0d cc bd 2e 5d 5f 3d
       -0.119908005 -0.021523207 -0.09963585 0.054532222
0001f0 93 f5 0b bd 27 11 15 3d 65 8b 36 bd b9 a9 27 3e
       -0.034169745 0.03639331 -0.04456653 0.16373338
000200 62 1e 30 3d d8 52 bc bc 16 86 96 bc d9 c3 20 3d
       0.042997725 -0.022988722 -0.018374484 0.039249275
000210 c6 94 54 3d e9 56 01 3e b5 dd b9 3d 3e 85 0e 3d
       0.051899694 0.1263081 0.090754904 0.03479504
000220 e2 16 d2 3d 6e 85 df 3c c6 89 fc 3d 7b 0e 53 bd
       0.10258271 0.027285304 0.12330966 -0.05152748
000230 4f ab 22 bd 44 21 dd ba 68 b1 a7 3d 8b 70 90 3d
       -0.039714154 -0.0016870876 0.081881344 0.07052716
000240 21 42 e6 bb 38 cc cf 3d f5 3f e1 3d 49 50 d4 3d
       -0.007026926 0.101463735 0.10998527 0.10366876
000250 5a 80 7a 3d cf 97 a8 bd 44 d6 86 3d 12 cc 2f bd
       0.06115756 -0.0823208 0.06583837 -0.042919226
000260 a5 17 8a 3d 46 3f d6 bd 45 28 9d bd fa e1 8d bd
       0.06742791 -0.10461287 -0.076736964 -0.06927867
000270 f0 ad 09 3d 1a 24 3a bc 17 7b ff bd 77 ac f9 bc
       0.033613145 -0.011361146 -0.124746494 -0.030477745
000280 b5 99 b1 3d 7e ba b3 3b 5b 6e be bd b0 ab b7 3d
       0.086718954 0.005484878 -0.092983924 0.08968294
000290 a1 86 68 bd a6 e4 99 3c 20 4e fd 3c a0 ad f1 3c
       -0.056769017 0.018785786 0.030921042 0.029501736
0002a0 cb 3f 10 3d f4 91 55 bd 4b 4e f5 3c cc 95 23 3d
       0.035217088 -0.052141145 0.02994456 0.03993778
0002b0 d1 d1 13 3d 59 15 2e bd 5a d2 cc bb 36 21 ce 3d
       0.03608877 -0.042500827 -0.006250662 0.10064928
0002c0 3a 4d 59 bd 49 b3 cb 3d 37 d8 07 be f8 97 b1 3d
       -0.053052165 0.09946305 -0.13266073 0.08671564
0002d0 4b 5f 9b 3d f1 0a b0 3d d0 f1 82 3d 72 37 c7 3c
       0.07586535 0.08595837 0.06393778 0.02431843
0002e0 13 c3 9f bd 4e de c4 bc 47 05 4a bd 38 9a bb 3d
       -0.07800879 -0.024031784 -0.04932144 0.09160274
0002f0 1a 3c ab 3d 77 df 0e be 83 df 57 bc 5a 10 d2 3d
       0.08361073 -0.13952433 -0.013175848 0.10257025
000300 f5 75 62 bd e5 cc d9 3c 50 7b 45 3d ce a0 fd 3d
       -0.055288274 0.02658696 0.048213303 0.12384187
000310 ae e8 9c bc fa 91 ac 3c a0 3c be bc 95 6a d5 bd
       -0.01915392 0.0210657 -0.023222268 -0.104207195
000320 f8 d0 f3 3d 94 e2 e0 3d 7a ae 07 be 1c b6 30 be
       0.11905092 0.10980716 -0.13250151 -0.17256969
000330 2c 1b c2 3c 70 ad ce bc d8 92 13 3e 9b c6 de bc
       0.023694597 -0.025229186 0.14411485 -0.027194312
000340 82 e2 63 bc 30 bf bf bd e2 26 2c bd d4 55 88 bd
       -0.013908984 -0.09362638 -0.04202927 -0.066569954
000350 24 52 61 bc 56 e9 64 3b 13 3e 20 be 43 62 c9 3d
       -0.013752494 0.0034929118 -0.1564868 0.09833195
000360 b0 5a c8 3d 87 b1 3c bc bd 76 4f 3d a8 bf 0f 3b
       0.09782922 -0.011516935 0.050650347 0.0021934304
000370 a9 6d 9b 3c 78 78 b0 bd 17 0c 36 bd 14 40 b0 3d
       0.018973188 -0.086167276 -0.044445124 0.08605972
000380 85 46 96 bd 53 44 15 3d 77 a8 33 3c 61 c2 8d 3d
       -0.07337669 0.036442112 0.010965458 0.069218405
000390 1a d8 a1 bd 59 07 ce 3d 0e 1e 7c bd ff c4 9e 3d
       -0.07902546 0.10059995 -0.0615521 0.07752418
0003a0 88 76 d1 bc 67 e2 8f bb 6f da 37 bd dc 77 9f bd
       -0.025569215 -0.004391003 -0.04488605 -0.07786533
0003b0 44 83 ec bd b8 5b 74 bd 3a 5f 80 3d 58 1b fb 3d
       -0.115484744 -0.059657782 0.06268163 0.12261075
0003c0 fa 99 10 3d e6 f1 5f 3c 9f 5c 80 3c 0a fc 0a 3d
       0.035303093 0.013668513 0.015669165 0.03393177
0003d0 00 3a a5 3d e7 47 51 bd fe d2 9e 3b 07 be 87 3d
       0.08067703 -0.051093962 0.0048469296 0.06628042
0003e0 c2 4a e9 3a 91 8c 92 3d 14 f1 2c bc c0 7b 49 3b
       0.0017798769 0.07155717 -0.010555524 0.0030743927
0003f0 ed bc 5c bd ab 0c 39 3d fb db 0c 3c ec 30 0b bc
       -0.05389111 0.045178097 0.008597369 -0.008495551

features.conv1.bias f4 [6]
000000 14 dd 04 be 59 59 ec 3d 83 de 95 bd df 3c 88 3d
       -0.1297496 0.11540479 -0.07317831 0.06652235
000010 ec 12 82 bc 3e 0c ba 3d
       -0.015878163 0.09084366

features.conv2.weight f4 [16, 6, 5, 5]
000000 d4 d5 d3 3c 34 77 97 3d f2 8d 74 bd cc a3 c3 bc
       0.025858797 0.07395783 -0.059705682 -0.023881815
000010 42 af dd bc ac 39 0a 3d 13 1d 0a 3d a2 90 2c bd
       -0.027061108 0.033746406 0.033719134 -0.04213012
000020 25 cd 2e 3d 88 f5 c0 3d 26 66 1b bd c9 d4 a2 3d
       0.04267611 0.09421831 -0.037939213 0.07950742
000030 f4 06 65 3c 4c 54 28 bd 60 3d 82 3d b2 63 da bc
       0.013978709 -0.041096017 0.063593626 -0.026658867
000040 70 ed d1 3d 0f d2 a8 3d df 28 13 bd b0 dd 02 3c
       0.10250366 0.082431905 -0.03592765 0.007987425
000050 97 69 b3 3d d4 57 b9 3c a3 91 d2 3c 44 56 b2 3d
       0.08760374 0.022624888 0.02570421 0.0870786
000060 26 4f a0 3d 4c 0b d5 3d c2 27 3f 3a b4 15 e5 3b
       0.07827596 0.10402545 0.0007291996 0.0069911126
000070 8c 7d 66 bd 61 65 44 bb d6 56 3f bd 4e 60 2b 3d
       -0.056272075 -0.0029967653 -0.046713673 0.04183989
000080 69 08 1f bd b7 fb dc 3c a0 52 8f 3d 9d a7 f9 bc
       -0.03882638 0.026975496 0.06998181 -0.030475432
000090 f0 43 ea 3c 30 fc b2 39 3b 93 08 3c ab 23 46 bd
       0.028596848 0.000341387 0.008335884 -0.04837386
0000a0 d5 65 50 bc 92 97 55 3d 62 e1 27 bd 3e 2e dd bc
       -0.012719591 0.0521465 -0.040986426 -0.026999589
0000b0 58 55 0f 3d da ea 81 3c c9 27 80 bd bf f5 4b 3d
       0.0349935 0.015859056 -0.062575884 0.04979491
0000c0 84 54 94 bd ba 51 89 3c 18 9c f5 bc ca d4 2d 3c
       -0.072426826 0.016762603 -0.029981658 0.010609815
0000d0 7e 5f 80 bd 76 75 a4 3c 59 eb 93 bd 8d 2f ff 3b
       -0.06268214 0.020075541 -0.072226234 0.007787651
0000e0 ec eb 13 bd 2b bf aa bd 11 b6 65 3d 7c b6 db 3b
       -0.036113665 -0.08337244 0.056081835 0.0067051034
0000f0 52 b6 15 bc 73 2e 71 bc e6 74 8b bd 91 6c c3 3c
       -0.009137707 -0.014720547 -0.06809406 0.02385548
000100 e5 40 02 bd 4c 59 75 bd 6e e4 37 bc d8 a1 c9 3c
       -0.03180017 -0.059899613 -0.0112238955 0.024613306
000110 f5 05 ae bd dc df 99 bc a0 4e e9 3c e1 e7 e7 bc
       -0.0849723 -0.018783502 0.028479874 -0.02830881
000120 7a 3b 77 bd a7 f8 80 bc ce 11 a7 bd aa 24 0e 3d
       -0.060359456 -0.015743567 -0.08157693 0.034702934
000130 32 a3 fa bc a8 2a 0a 3c 07 ed 57 bd ae f4 1b 3d
       -0.030595396 0.008433022 -0.05271628 0.03807514
000140 f1 be 91 bd 80 f1 05 3c 45 06 91 bd 05 48 24 3d
       -0.07116497 0.008175254 -0.07081274 0.040107746
000150 23 b6 69 bd fd 36 33 bc c2 43 9c bd 8e 52 0b bd
       -0.057058465 -0.010938403 -0.07630111 -0.034014277
000160 e7 46 95 bc e2 a0 86 bd a0 24 52 bd db d3 11 3d
       -0.018222285 -0.06573655 -0.05130446 0.03560243
000170 2f bc b8 bc 8e e4 6a bc de e6 58 3b 18 d1 dc 3b
       -0.02255067 -0.014336718 0.0033096592 0.006738793
000180 60 db 89 3d 53 22 b0 bd 52 15 11 bd 56 17 a0 bd
       0.067312956 -0.08600297 -0.035420723 -0.07816951
000190 dd bf 85 3d 98 63 00 3d 0f a2 b1 3d 13 31 71 3d
       0.06530736 0.03134498 0.08673488 0.05888469
0001a0 6e d4 cc 3d 14 53 58 3d 4c bf cf 3c 7a cc 88 bc
       0.10001455 0.052813604 0.025359772 -0.016699065
0001b0 24 08 fd 3c ee 78 ec bc a6 61 15 3d 17 a8 df bb
       0.03088767 -0.028866258 0.036470078 -0.006825458
0001c0 12 6d 73 3d ba f8 44 bc 6a 47 ff bc 0e 7c c0 bc
       0.05943019 -0.012022192 -0.031161983 -0.023496654
0001d0 c0 d7 f5 bb 18 5f e6 3c 31 c7 27 bd c8 60 8e 3d
       -0.007502526 0.028121516 -0.040961448 0.06952053
0001e0 af 39 37 3d 3f 1e ba 3c dc 2b 72 3d d0 e9 87 bc
       0.044732746 0.0227195 0.05912386 -0.016590983
0001f0 36 b8 39 bc e3 e1 0c 3d 51 54 9d 3d 55 29 9f 3d
       -0.011335423 0.03439511 0.07682098 0.07771555
000200 71 77 4a 3b 86 26 60 3d 7e 64 ab 3d 37 c9 9a 3d
       0.0030893947 0.05472424 0.08368777 0.0755791
000210 68 db d1 38 6c 8e 83 bb 4a 04 e1 3c 6a 35 2c bd
       0.00010006764 -0.0040147807 0.027467865 -0.042043127
000220 17 e0 c9 3c 00 e2 e4 b7 b2 27 99 3c 0f 35 92 bd
       0.024642987 -2.7284957e-05 0.018695686 -0.071390264
000230 ff 53 e8 bc c8 44 3c 3d d8 0d 04 3d af 6f 8d 3d
       -0.028360365 0.045964032 0.032239765 0.069060676
000240 10 60 aa 3d 4e 0a 9f bc 2c e3 1f 3d 99 3b 03 bd
       0.08319104 -0.019414093 0.039035007 -0.03203926
000250 78 dd de bb fb 94 6d bd b5 7a 8e bc fa 1f 23 3d
       -0.0068013035 -0.058003407 -0.017392496 0.039825417
000260 de 6a 1e bd 42 1d be 3c 63 cf 87 3d 7f 3b 29 3d
       -0.038676135 0.02320731 0.06631353 0.041316506
000270 02 fe 23 3d ab f5 3c 3d f8 26 96 bd 3d f8 0b 3d
       0.040037163 0.046132725 -0.073316514 0.034172285
000280 71 b2 c0 ba 47 ee 3e bb 47 c1 3a bd 52 45 98 bd
       -0.0014701617 -0.0029133724 -0.04559448 -0.07435097
000290 20 d5 c7 b8 cd b6 26 3c f0 de 97 3d 7c 1c c3 3c
       -9.528757e-05 0.010175419 0.07415569 0.023817293
0002a0 8b 8b b5 3d 6c 6d a2 bc 0e c1 60 3d 49 9d 8c 3d
       0.08864506 -0.019827567 0.05487161 0.06865937
0002b0 83 10 4e 3d aa 8d 20 bd ca 6c 81 bd ab bd f4 bc
       0.050308716 -0.0391976 -0.06319578 -0.029875597
0002c0 47 e7 6d bd 27 d9 5f bd 6c 91 e7 bb 84 11 8e 3b
       -0.05808189 -0.054650452 -0.007066896 0.004335584
0002d0 86 80 3e 3d 94 0b b2 b9 3f a8 ab bd 7e 8a 65 bd
       0.04650929 -0.00033959432 -0.083817 -0.05604028
0002e0 d0 7c e5 bc 0a 14 8b bd 39 9c 6e bd 4e 17 89 3d
       -0.028013617 -0.067909315 -0.058254454 0.06693898
0002f0 eb 5b 7a 3a 29 8f 3b 3d 60 ac bf 3c 09 4c f5 bc
       0.000955044 0.045790825 0.023397624 -0.029943483
000300 18 b5 0a 3d 8b 1f 6d 3d bb 9a 78 bd 67 50 a3 3d
       0.03386411 0.05789141 -0.060694437 0.0797432
000310 cf 0c 8e 3b a7 92 88 bd 97 ca 3f 3d 4e 9d 7f 3c
       0.004335023 -0.06668597 0.046824064 0.015601469
000320 20 11 99 bd 93 6f 9f bd 55 39 95 bd fa 97 5b bb
       -0.074739695 -0.07784953 -0.07286326 -0.0033507333
000330 f0 38 ec 3c dc df 9b 3c fa d6 f7 bc d0 42 a2 3d
       0.028835744 0.019027643 -0.030253876 0.079229
000340 b3 3c 22 3c 56 7b b8 3a 93 28 8a 3c d3 c9 82 bd
       0.009902167 0.0014074843 0.01686505 -0.06386151
000350 f0 2f ac 3c 3e b3 61 3d 25 0b 43 bc 3a 07 17 bd
       0.021018952 0.05510258 -0.0119045125 -0.036872126
000360 1f 2e ec 3c 00 53 36 3d 43 d9 94 bd 74 8c ef 3c
       0.028830586 0.04451275 -0.07268002 0.029241778
000370 91 4d c1 bb ae f1 5e 3c 7a 3a f1 bc 91 06 5a bc
       -0.005899139 0.013607426 -0.02944683 -0.01330723
000380 21 d5 87 3d 57 fe 35 bd 07 92 8d 3d 9e 69 7e 3d
       0.06632448 -0.04443201 0.06912618 0.062112443
000390 4c cb f7 bc 6f e3 5a bd 11 36 93 bc 83 cf 84 3d
       -0.030248307 -0.053439554 -0.017970117 0.06484892
0003a0 9c 3e 1a bd b2 20 57 bd 38 0d 30 bc 0b 4a 8f bc
       -0.037657365 -0.052521415 -0.010745339 -0.017491361
0003b0 e8 b3 1f 3d 35 fd 1a bd 74 c6 ae bc 6e d1 ef bc
       0.03898993 -0.037839133 -0.021334864 -0.029274669
0003c0 e2 af 2f bc 88 d8 ae bc d7 5c 13 bd 10 af 43 bd
       -0.010723086 -0.021343485 -0.03597721 -0.047774374
0003d0 39 b8 93 3c 0d 2d 89 bd 97 9f 58 3d 65 6e 02 3d
       0.01803218 -0.06698046 0.05288657 0.03184356
0003e0 0c fe 39 bd a0 4b f0 3c e9 31 5b bd fe e8 90 3d
       -0.045408294 0.029332936 -0.053514395 0.0707569
0003f0 d3 71 8a bc 75 6a 71 3d 9b dc a3 bc 9d 4f 82 bd
       -0.016899979 0.058939416 -0.020002654 -0.06362841

features.conv2.bias f4 [16]
000000 70 78 b8 bd 5f a3 e0 bc cc f8 22 3b 5e 9a b1 bb
       -0.09007347 -0.027421651 0.0024867533 -0.0054200133
000010 cc 06 d9 bc cf 3c 16 bd 2e e2 8a 3d a5 0b a6 3d
       -0.026492499 -0.036679085 0.067814216 0.0810769
000020 16 1d 82 3c 48 7e d2 3d b5 63 78 bd af 9f 01 bd
       0.01588301 0.102779925 -0.060641963 -0.031646427
000030 8c ce 9c bd 02 9c 2b bd 3a 86 32 bd fc df 2d 3d
       -0.07656583 -0.041896828 -0.04358504 0.042449936

features.fc1.weight f4 [120, 400]
000000 b3 a8 ef 3c 8f 6e 19 bd a2 7c 18 3d 8f 9c 03 3d
       0.029255247 -0.037458953 0.037228234 0.032131728
000010 fa f1 cd 3a 0c 10 03 bd 7e 9c ee bc af 7c d6 bc
       0.0015712373 -0.031997725 -0.029127356 -0.0261825
000020 ce 18 48 3c bc 16 97 3c 41 44 8f 3c 1a b6 b5 3c
       0.012212945 0.018443458 0.0174886 0.02218156
000030 5f c8 52 bd 1d ae 05 bd 86 19 ca bc a3 02 16 3c
       -0.05146062 -0.03263675 -0.024670374 0.009155902
000040 6d 0e 07 bd 94 6e 55 bc af f5 32 3d 6d ac ae 3b
       -0.032972742 -0.013026852 0.043691333 0.0053306133
000050 50 2c cc 3b 2b b5 a0 bc 28 33 34 bd 87 db ac 3c
       0.0062308684 -0.019617638 -0.0439941 0.021100773
000060 fe ce 26 3d b2 34 19 bd c5 14 91 3c 38 ba 95 3c
       0.040724747 -0.03740377 0.017710099 0.018277273
000070 6a 42 fc 3c b4 d5 97 3a 29 d8 16 3c 1d 8c 30 bd
       0.030793387 0.0011584074 0.00920681 -0.043102372
000080 91 32 47 bd 48 a1 3c 3d f9 80 ad 3c 70 05 46 3d
       -0.04863221 0.046052247 0.021179663 0.04834503
000090 35 13 62 3c 7e 44 f3 bb 66 e0 8d bc 40 51 41 3c
       0.013798525 -0.0074239364 -0.017318916 0.011799157
0000a0 1a 78 31 3d a5 9c 79 3c b0 8d 68 bc 8b e8 aa 3c
       0.04332743 0.015235101 -0.014193937 0.020862838
0000b0 67 9e 22 bd a2 63 f9 bc 2a b5 f1 3c 64 d2 b3 bc
       -0.039701845 -0.030443016 0.029505331 -0.021950908
0000c0 42 79 09 bc 5d af 31 bd 8e b2 3d 3d fa f8 20 bd
       -0.0083907265 -0.04338013 0.04631286 -0.039299943
0000d0 a5 ef ab bb 9d 5a d7 bb 76 4a 8c 3c fd b6 8b 3c
       -0.0052470737 -0.0065720812 0.01712535 0.017055029
0000e0 29 da 3b 3d 1e 07 f8 bc f8 9e fd bc 78 c6 36 3d
       0.04586235 -0.030276831 -0.030959591 0.04462287
0000f0 e0 ea f0 3a 2d 9b 23 bd 29 0b ac 3c 79 ff fc 3c
       0.0018380545 -0.03994291 0.021001415 0.030883538
000100 c5 4f 32 bc db d9 0a bd 94 62 4b 3c fb 8c 34 3d
       -0.010883276 -0.03389917 0.01241364 0.044079762
000110 17 17 a5 bc 96 28 20 3d 4a 5a 94 3c 38 00 2e 3d
       -0.020152612 0.039101206 0.01810946 0.042480677
000120 1e 6f d6 bc 18 f4 37 bd a5 44 d3 3b 36 90 34 bc
       -0.026176032 -0.04491052 0.006447392 -0.011020711
000130 c5 8f 92 bc 2c a4 3b bd 57 0e 25 bd 8a ea 4a 3d
       -0.01789082 -0.045810863 -0.04029688 0.04954008
000140 15 89 ad 3c 66 15 1d bc f8 26 46 3c 80 26 7a 3c
       0.02118353 -0.009587621 0.012094252 0.015267968
000150 44 e7 17 bd d4 e9 36 bd 96 95 02 3d c1 a7 ba 3c
       -0.037085786 -0.04465659 0.031880938 0.02278507
000160 af b9 17 ba ef 30 0b bd ca c0 b3 3b 00 42 88 3c
       -0.0005787862 -0.033982214 0.0054856287 0.016633034
000170 8e 7a f2 bb 4e 59 47 bd ac 73 01 3d 4b da a8 bc
       -0.0073998636 -0.048669152 0.031604454 -0.020611903
000180 4b d8 33 bc 8f 20 11 bd 9d 86 10 3d 28 bd ff 3c
       -0.010976861 -0.03543144 0.035284627 0.031218126
000190 1c 2e 22 3d 92 3a d1 bc 4e 8e 3d 3d 38 68 c5 bc
       0.039594755 -0.025540624 0.04627829 -0.024097547
0001a0 e7 7a 0a 3c c5 bb 25 bd d5 84 20 3d 5d d6 a1 bc
       0.008452154 -0.040462274 0.03918918 -0.019755537
0001b0 d3 f6 de bb a4 00 48 bd da 3d bb 3c 32 57 3c bd
       -0.006804326 -0.048828736 0.022856642 -0.045981593
0001c0 f0 83 42 3d 0b 1f 39 bd e6 3b f3 bc 23 d6 bc 3c
       0.047489107 -0.04519562 -0.029691648 0.023051327
0001d0 47 db 00 3d 39 9e a3 bc 84 1e 1f 3d 3a c4 43 3d
       0.03145912 -0.019972907 0.03884746 0.047794558
0001e0 04 5b 00 3d f2 33 a5 3c 12 eb 43 3d 9d 32 01 bd
       0.0313368 0.020166371 0.047831602 -0.03154241
0001f0 0e 0f 90 3c 6d 0b f6 3c 11 96 99 3c 60 6e 19 bc
       0.017585304 0.030034745 0.018748315 -0.009364694
000200 d0 c2 b1 3b cf 54 0b 3c 9c 20 f6 bb 44 41 47 3c
       0.005424835 0.008504107 -0.0075112116 0.012161557
000210 94 9b d1 3c b8 e5 2f 3d 6e 64 44 3d 29 59 bd 3c
       0.02558688 0.042943686 0.04794734 0.023113804
000220 65 a1 18 3d fa 3a e7 bc 8a 67 26 3c d7 e4 3f 3d
       0.037263293 -0.028226364 0.010156522 0.046849098
000230 88 28 4c 3d bf 7b b2 bc 0c 03 48 bd 9e ff 7c bc
       0.04984334 -0.021787522 -0.04883103 -0.015441803
000240 56 fb ab 3c 55 b7 04 bd 26 cf 43 3d ce 81 83 39
       0.02099387 -0.0324014 0.047804974 0.0002508298
000250 13 22 f3 3c 10 30 30 bd 3a 7c bc bc 31 4f cb bc
       0.029679334 -0.043014586 -0.023008455 -0.024818035
000260 c8 3c 23 bd 5b c7 92 bc 8f 4a c6 3c 2a 46 a6 bc
       -0.039852887 -0.017917326 0.024205474 -0.020297129
000270 c2 80 89 3c ea 14 c6 3c c4 c1 28 bd bc 14 85 bc
       0.01678503 0.024179894 -0.041200414 -0.016245238
000280 c0 49 b6 3b 1e c9 da bb 70 10 1a bb a9 96 14 3c
       0.005562991 -0.006676807 -0.0023508333 0.009069123
000290 1a 42 b9 3c 73 77 fe bc b7 92 47 bb a1 7b af bc
       0.022614527 -0.031062817 -0.003045244 -0.021421256
0002a0 94 16 c7 3c 50 64 b5 3c 4e 94 31 bd 3c 82 2a 3d
       0.024302758 0.02214256 -0.043354325 0.041628107
0002b0 3c ac 4a 3d 2a 34 d6 3b d5 4e a0 3b 4e c3 27 3d
       0.04948066 0.00653698 0.00489221 0.04095774
0002c0 a1 4a 09 bb 12 d5 29 bd 92 a7 1f 3d 11 19 31 bc
       -0.0020949023 -0.041462965 0.038978167 -0.010809199
0002d0 e4 c2 b3 bc 41 28 1b bd 2b 70 e9 bb 84 bc 23 3d
       -0.021943517 -0.037880186 -0.007123967 0.039974704
0002e0 b9 d6 e5 bc 1e 3b a7 bb a9 08 9d 3c c7 ff 98 bc
       -0.02805649 -0.005103483 0.019169169 -0.018676652
0002f0 a6 e4 dd 3c 34 33 24 3d 9a 13 cb bc fa b6 ad bb
       0.027086567 0.040087894 -0.02478962 -0.0053013535
000300 80 f4 fa bc d0 c2 1d 3c 73 f9 8b 3b c2 41 2a bc
       -0.030634165 0.009628966 0.00427168 -0.010391654
000310 28 8e 36 3d 05 bd 64 3c de 84 ff bc 5b de 2e bd
       0.044569165 0.013961081 -0.031191286 -0.042692523
000320 91 19 cf 3b e4 fe bc bc bb 7b 08 3d 0d 2a 34 bc
       0.0063201864 -0.02307076 0.033321124 -0.010996354
000330 8d b6 04 3d 04 38 23 3d ea 89 0f 3d b7 97 d8 bc
       0.032400656 0.039848343 0.035043634 -0.02643953
000340 99 c5 4b 3c 6f 73 b9 bc 17 ce 90 3c ed 98 9e bc
       0.012437248 -0.02263805 0.017676396 -0.01936003
000350 32 20 14 bd 2e 13 d4 bc a2 01 90 bc 75 48 27 3d
       -0.036163516 -0.025888052 -0.017578904 0.040840585
000360 9f 98 19 bd c7 b6 a5 3c 03 cd 29 3d 7a 38 90 3c
       -0.037499066 0.020228757 0.04145528 0.017605055
000370 3f c5 23 3c 15 03 14 bd 9a 11 d7 3c a8 b0 89 bc
       0.009995758 -0.03613575 0.02625351 -0.01680787
000380 83 5f e5 3b 99 1a 1c bd 56 8e d6 bc 2a 3b 23 3d
       0.0069999113 -0.038111303 -0.026190918 0.039851345
000390 7f 62 34 3d cb 99 37 3c ef d1 3e 3d b0 57 e7 3c
       0.044039246 0.011206101 0.046586927 0.028240055
0003a0 a5 2e 25 bd 72 f9 9c 3c 6c 38 b6 3b 50 f4 d3 bb
       -0.040327687 0.019161914 0.005560925 -0.0064683333
0003b0 42 ae 8d bb 86 4c f3 bc 9b bc 43 bc e5 f1 49 bb
       -0.0043237517 -0.029699575 -0.0119468225 -0.0030814346
0003c0 90 de 04 bd d1 0a 30 3d 14 4e b5 3c 83 47 45 bd
       -0.032438815 0.042979065 0.022131957 -0.048163902
0003d0 c1 7e fe bc f2 3c fe bc 80 c8 d9 3c b2 ca 40 3d
       -0.0310663 -0.03103492 0.026584864 0.047068305
0003e0 d0 d8 bd 3b 1b 79 64 3c 28 6f 3d bd e6 28 3f bd
       0.0057936683 0.013944889 -0.046248585 -0.046669863
0003f0 91 fd e4 3c e1 4d 33 3d 32 14 3d 3b 68 2e 56 3b
       0.027952941 0.043775443 0.0028851149 0.003268147

features.fc1.bias f4 [120]
000000 e8 41 f3 bb a2 e3 d6 bc 24 48 04 bc 5f 82 7c 3c
       -0.007423628 -0.02623159 -0.00807384 0.015411942
000010 2e c5 29 3d a6 29 2c bd 7a fa 82 bc 2b f5 82 bc
       0.04144781 -0.042031907 -0.015988577 -0.015986046
000020 da 04 13 3c 93 58 b7 bb d2 1b b5 3b 90 d3 6c 3d
       0.008973325 -0.0055952757 0.005526998 0.05781895
000030 eb 3e 18 bd 25 c1 4c bd bc aa 23 bd f1 6b 8d 3c
       -0.03716938 -0.049988884 -0.039957747 0.017263385
000040 0d 67 10 bd 4c 9e c9 3c 3e cd 85 3d 0c 62 b6 3a
       -0.035254527 0.024611615 0.065332875 0.0013914718
000050 02 7f a3 bb 74 91 b6 bb 08 36 93 3b f7 7a 83 3d
       -0.0049895057 -0.0055715386 0.004492525 0.06419938
000060 78 c3 d5 bc 5f e0 53 3d a3 82 40 3d 4b bb 65 bd
       -0.026094183 0.05172765 0.046999585 -0.05608682
000070 5c 3f 45 bb e0 08 9a 3d ee 76 17 bd 55 73 c3 ba
       -0.003009758 0.07521224 -0.036978655 -0.0014911691
000080 73 bc b7 3c 9f 8a 16 3c 27 bf 08 3d 02 82 b2 3c
       0.022428727 0.009188323 0.033385422 0.021790508
000090 3a 29 07 3c 47 0b 3d bc 81 d0 1d bd 61 98 97 3b
       0.008249575 -0.011538333 -0.038528923 0.0046263193
0000a0 07 52 1b 3d e3 09 85 3c bb 98 47 3d 48 76 2e 3d
       0.037920024 0.016240066 0.04872964 0.04259327
0000b0 6b 04 31 3d f7 5c 0f 3c f0 84 26 bc f2 8f 00 3d
       0.043217104 0.008750192 -0.010163531 0.031387277
0000c0 f5 28 d2 3c c0 6d af 3c b1 49 9f 3c 55 fa 1f bc
       0.025654295 0.021414638 0.019444318 -0.009764274
0000d0 e1 80 ed bb ca bf 3e 3c cd dc a6 bc 72 a2 14 bd
       -0.0072480296 0.011642406 -0.020368958 -0.036287732
0000e0 b7 ae b0 bc db d0 27 bc de 90 35 3c 94 f3 26 bd
       -0.021567686 -0.010242666 0.011081902 -0.040759638
0000f0 c4 f6 84 bb 13 f7 5e 3d 84 3c b2 bc 71 3a 28 bd
       -0.004057737 0.054434847 -0.021757372 -0.04107136
000100 ed 3b b8 bc de 6b 52 bd c6 f2 34 3d 3e cf ff bb
       -0.022489512 -0.0513724 0.04417684 -0.0078066876
000110 3b bf 06 bd 17 ed 6c bb 1c 1e 34 3c 40 3d 3e 3d
       -0.032897215 -0.0036152059 0.010993507 0.04644513
000120 12 61 2b 3d 4c bf 14 bd 06 8b 12 3c 02 19 42 3d
       0.04184062 -0.036315247 0.008944279 0.04738713
000130 cc 1d 0c bd b4 1f 7a 3c 9f cf 62 3d 40 5b c6 bc
       -0.034208104 0.015266348 0.055373784 -0.024213433
000140 c0 d8 b3 3c 56 bb 88 3d aa 5c ca 3b dc 1c eb 3a
       0.02195394 0.066763565 0.006175597 0.0017937678
000150 71 d6 47 bd 1c 6b cc bb 4d fe e7 bc 46 56 f5 bc
       -0.04878849 -0.0062383544 -0.028319502 -0.029948365
000160 f5 17 81 bc 64 4a 0d bd 48 f0 47 3d d5 8b 37 bd
       -0.015758494 -0.034494773 0.048813134 -0.04481109
000170 24 69 48 3d c9 84 ee 3c 71 fd 0a 3d 18 34 bb 3c
       0.048928395 0.029116051 0.033933107 0.022851989
000180 a9 36 88 bb 0c 4e cd bc 27 f2 54 3c 10 8e 5f 3d
       -0.0041569066 -0.02506163 0.012997187 0.05457884
000190 80 d8 02 bd 47 ce 38 bd e1 e1 2d 3c f6 35 ca 3c
       -0.03194475 -0.045118596 0.010612936 0.024683934
0001a0 8c 54 0c 3d ad be db bc d2 36 23 bd 71 51 1b 3c
       0.034260318 -0.02682432 -0.039847203 0.009479866
0001b0 6d ff 47 3c 4a 55 02 bc ef d4 3d bd 3a de 4c 3d
       0.012206894 -0.007954905 -0.046345647 0.05001662
0001c0 69 ed 34 bd 73 03 e0 3b c5 ae a0 3c 1a 79 c1 3c
       -0.044171724 0.0068363487 0.019614587 0.023617316
0001d0 fe 7e 2e 3d 4d ce 08 3d d3 a1 07 3d a2 de ac bc
       0.042601578 0.03339987 0.033113312 -0.021102253

features.fc2.weight f4 [84, 120]
000000 48 db 06 3d 45 a9 18 bd a8 97 72 bc 94 31 97 bc
       0.032923967 -0.037270803 -0.0148066655 -0.018456258
000010 e1 0e 42 3d d3 df 3e bc e2 56 1b bc 3a df 53 3b
       0.04737747 -0.011650044 -0.009481164 0.0032329098
000020 64 a2 53 bd 36 0b 9c bd 44 a7 65 bc 53 d5 4e bd
       -0.05166854 -0.07619326 -0.01401693 -0.05049641
000030 59 65 95 3d 3d 0e 55 3d ab 17 3f bd 95 a1 b7 bd
       0.07294721 0.05201553 -0.04665343 -0.08966366
000040 c6 00 a7 3d 6e 94 0b 3d 3f 63 8d bd 4e 5e a3 bd
       0.081544444 0.0340771 -0.06903695 -0.079769716
000050 d1 cd 83 bd 95 56 01 bd 5e fe 6b bc c4 9b 1c 3d
       -0.06435741 -0.03157671 -0.014403908 0.038234487
000060 7b 9e 8c bd e2 34 5a 3d 6a 54 a3 3d 45 66 90 bd
       -0.06866165 0.05327309 0.07975085 -0.07050756
000070 57 8b d4 bc 36 01 77 bd 79 31 d1 3b 44 9b 99 bc
       -0.025945349 -0.06030389 0.0063840714 -0.018750794
000080 43 5b a5 3d 4d 21 0a bd 32 56 92 bd 0c f1 85 3d
       0.080740474 -0.033723164 -0.07145347 0.06540117
000090 b2 6c 4e bd aa a6 12 3c c1 96 96 3d dd 3a a7 3d
       -0.05039663 0.008950869 0.07352973 0.08165524
0000a0 c9 64 4b bd 95 2b 91 3c f3 71 3f 3d 64 4e fd 3c
       -0.049656663 0.017720977 0.04673953 0.030921169
0000b0 64 d9 42 bd 12 91 03 3d 63 5e 48 bd d8 4f 40 3d
       -0.0475706 0.03212077 -0.04891814 0.046951145
0000c0 3c d5 86 3d 86 3a 4a 3c cb cf d3 bc b4 d7 47 bd
       0.0658364 0.012343055 -0.02585592 -0.048789695
0000d0 3a bc 88 3d 2a 48 5f 3d f1 06 d1 3c 00 63 b3 bc
       0.06676526 0.05451218 0.025516005 -0.021897793
0000e0 3c aa 75 bb f9 d4 47 3d b7 b9 a0 3d 63 cc 8a 3c
       -0.00374855 0.04878709 0.07847922 0.016943162
0000f0 a8 ea ea ba 8a 0d 5f 3d 51 7b 2f bd 88 8b 81 bd
       -0.0017922716 0.05445627 -0.042842213 -0.063254416
000100 a8 40 27 bd e2 29 af bd a3 c5 da 3b 48 27 25 bd
       -0.040833145 -0.085529104 0.006676392 -0.040320665
000110 24 9c 97 bd f4 39 a1 bd 3c c0 a7 bd 89 b1 b9 3c
       -0.07402828 -0.07872382 -0.08190963 0.022667663
000120 7d 5a 8a 3b 46 4f 8c 3d d1 a5 97 bd 0a bd 6b 3d
       0.004222213 0.06851058 -0.07404674 0.05755333
000130 42 a1 23 bc e0 90 3c 3d fb 11 9b 3d 84 8b 1f 3d
       -0.009987177 0.0460366 0.07571789 0.03895141
000140 98 6d bd 3d 20 b1 af bd fb 83 e2 bc 67 43 33 bd
       0.09249419 -0.08578706 -0.027650824 -0.04376545
000150 4e 5c cc 3c 1c 0d 8e 3d 46 a6 00 3d 7f 2b a1 bd
       0.024946358 0.06936094 0.03140857 -0.07869624
000160 dc b2 d8 3c 3b 37 43 3d 6c 91 94 bc 9e 9a 2f bd
       0.026452474 0.047660094 -0.018135749 -0.042872064
000170 fc dc b2 bd f0 90 5a 3d 6a d5 75 bd b3 24 00 3d
       -0.08733556 0.05336088 -0.06001798 0.031285
000180 bc bb 82 3d ea 4d bb bd 7e df 11 bd 33 05 b1 3d
       0.06383464 -0.0914572 -0.03561353 0.0864357
000190 d3 32 24 bc 66 27 50 bd b7 da 02 bd 87 65 1e 3d
       -0.010021883 -0.050818823 -0.031946864 0.038671043
0001a0 3e 6f 45 3d ef 9b 66 bc 44 1b 7f 3d b6 72 ae 3d
       0.048201792 -0.014075263 0.062281862 0.08517973
0001b0 f8 63 3e 3d 50 8c 7b 3d 5d f3 70 3c 72 61 65 bd
       0.046482056 0.06141311 0.01470646 -0.056001134
0001c0 5a bd dc bb b2 26 37 bd ad 16 cf 3c 61 34 ab 3b
       -0.0067364397 -0.044714637 0.025279367 0.00522475
0001d0 7b e5 8a bd 47 d7 b5 bd 39 e5 de ba c5 b0 8b 3a
       -0.06782051 -0.088789515 -0.001700557 0.001065754
0001e0 38 97 75 3d bb 3a fb bc 1d 2f 9c 3d 31 e1 19 bc
       0.059958667 -0.030667653 0.07626174 -0.009392069
0001f0 20 e8 cb 3c ad 50 d6 bb 96 f1 9c 3d 24 b9 9d bd
       0.02489096 -0.006540379 0.07663266 -0.077013284
000200 9d 59 f4 3c ec f4 c9 3c a5 46 49 bd d6 95 bd 3c
       0.029827887 0.02465292 -0.049139638 0.023142736
000210 60 7a b1 3b 2c 0d 87 3d e5 04 46 3c f6 b6 80 bd
       0.0054161996 0.06594309 0.012086128 -0.06284897
000220 aa 2a a0 3c 3c e2 b8 bd f0 f2 c0 3c 93 ed e8 bc
       0.019551594 -0.09027526 0.023553342 -0.028433597
000230 2d 71 a9 bd 34 4e 5c 3d f2 61 59 bc 77 f2 9a bd
       -0.0827354 0.053785518 -0.013267981 -0.07565778
000240 e9 9f a8 bd d3 db 79 3d c3 75 a2 3d 7e e7 16 3d
       -0.082336254 0.061000656 0.079326175 0.036841862
000250 be 97 8c bc 06 7c b3 3d 56 5e 86 bd 7f 33 7f bd
       -0.0171622 0.0876389 -0.06560962 -0.06230497
000260 6f f1 a7 ba 95 07 d8 3c 22 5e 83 3d 61 35 9f 3d
       -0.0012813042 0.026370803 0.06414439 0.07773853
000270 e4 df 5d bd 1b 49 67 bd 61 e1 6f 3d 1e a3 82 bd
       -0.054168597 -0.056466203 0.058564547 -0.063787684
000280 7f 5d 00 3d 7b b7 b3 bd 54 bf 87 bd 09 f5 ad bd
       0.031339165 -0.087752305 -0.0662829 -0.08494002
000290 42 7c 5c bd 6d 6f 05 3d 14 c5 74 3a 19 2b 50 bd
       -0.05382944 0.032576967 0.0009337228 -0.05082235
0002a0 cf 55 97 bd f0 ac 9f bd 5d e3 a7 bd 4c 9a 92 bd
       -0.073894136 -0.07796657 -0.08197663 -0.07158336
0002b0 f8 1b ae bd 65 70 a7 3d 30 23 0c 3d 3a 03 ab 3c
       -0.08501428 0.081757344 0.034213245 0.020875562
0002c0 9b fc ad 3d c0 19 8c bd c8 a6 29 3d f6 06 af bb
       0.08495446 -0.06840849 0.04141882 -0.005341406
0002d0 e4 94 2c 3d f8 fc bc 3d 4a da 18 bd ec 83 6e bd
       0.04213418 0.092279375 -0.03731755 -0.05823128
0002e0 4f 9f 73 bd 34 91 ab bc ea aa aa bd 65 73 40 bc
       -0.0594781 -0.020943262 -0.083333805 -0.011746262
0002f0 91 0c 63 3d 66 48 a0 3c 14 d4 0a 3d 5a 98 af bd
       0.055431906 0.019565772 0.03389366 -0.08573981
000300 ba 8a a1 bd 26 8d 22 bc ee 6e af 3d 93 bc 8f 3d
       -0.07887788 -0.009921348 0.0856608 0.070183896
000310 34 e1 76 bd 7c d6 c0 3d 94 e3 a2 bd d8 08 3e bd
       -0.060273364 0.0941591 -0.07953563 -0.046395153
000320 58 6b 53 3d af 2e 9d bc c9 9f f2 3c ef 8d 87 3c
       0.051616043 -0.0191873 0.029617207 0.016547171
000330 d5 90 2f 3d 0d c1 34 3d b7 85 24 3d 80 53 4e bd
       0.042862732 0.04412942 0.040166583 -0.0503726
000340 98 88 49 bd 61 05 8e bc 12 44 7a 3c 3a c9 4a 3c
       -0.04920253 -0.01733655 0.015275018 0.012377078
000350 f2 bf f9 3c 99 12 f5 3c ce 9a 78 bd 5a 51 05 bd
       0.030487034 0.029916095 -0.06069451 -0.032548286
000360 e5 3a 7b 3c ca 05 a9 bd 88 5e 9a 3d 67 32 3e 3b
       0.015333866 -0.08253057 0.07537562 0.0029021741
000370 72 79 c2 3d b2 05 ac bd fd 71 5c 3b 1c e5 d7 3a
       0.0949582 -0.08399524 0.0033637278 0.0016471478
000380 d8 c8 8f bb 7c 6a e7 3c e4 64 3a 3d 34 da 99 bd
       -0.004387956 0.028249018 0.045506373 -0.07512322
000390 55 3e a9 bd 29 ea ce 3a 5a cf 60 bd 82 15 45 3c
       -0.08263842 0.0015786338 -0.054885246 0.012029054
0003a0 a4 d9 4f bd e0 76 c5 3c 55 01 43 bd 8d e3 25 bd
       -0.050744668 0.024104536 -0.047608692 -0.040500212
0003b0 01 69 04 3d 36 d7 b3 3d 08 f8 b8 bd 1f 55 8d 3d
       0.032326702 0.087812826 -0.09031683 0.06901001
0003c0 c8 d5 83 3b 06 37 35 bc d6 44 89 3c 79 11 93 bc
       0.0040232874 -0.011060482 0.016756456 -0.017952668
0003d0 e6 b1 ab 3d 69 db 5b bc ed 08 a2 3b 50 5a e9 bc
       0.08383541 -0.013419011 0.0049449117 -0.028485447
0003e0 4a 9f 4c 3c 86 4e 50 3d 43 d4 80 3d 78 e3 87 bd
       0.012489149 0.050856136 0.06290486 -0.06635183
0003f0 b8 31 1b bd e0 3b 68 3c f2 18 8c 3d 08 cc ef 3c
       -0.037889212 0.014174432 0.068406954 0.029272094

features.fc2.bias f4 [84]
000000 47 3a 2d 3d 68 86 a5 bb 0c b3 33 3d 93 31 3b 3d
       0.042291906 -0.005051423 0.043871924 0.045701575
000010 4c 87 07 bb 0d 3a f8 bc ba af cd bc 0e c6 0a 3e
       -0.0020680008 -0.030301118 -0.025108207 0.13552114
000020 5c b9 3c bd fa 8e e2 bc 07 02 7c bd be 6b aa bc
       -0.04607521 -0.027656067 -0.06152537 -0.020803329
000030 ee 3f e8 3c e8 ec f7 3d 69 78 86 3d c6 49 35 3c
       0.028350797 0.12105733 0.06565935 0.011064952
000040 b1 a1 09 bc 14 b1 09 3e 36 30 83 bd 73 4f d3 bd
       -0.008400367 0.13446456 -0.0640568 -0.10317888
000050 c0 2d bc bd 07 db e5 3b ee 84 8d 3d aa 46 be bd
       -0.091884136 0.0070146355 0.0691012 -0.09290822
000060 4c 9a 83 bd 04 a7 90 bc 7a ff 4f 3d 26 c7 9d 3d
       -0.06425914 -0.017657764 0.05078075 0.07704
000070 6e 7b 26 3e 03 85 84 3c 14 8d cc bc 88 53 85 bd
       0.16258022 0.016176706 -0.024969615 -0.06510073
000080 67 b4 87 bd e0 f5 44 3c 27 d9 b6 bb 96 86 e4 3d
       -0.06626206 0.012021512 -0.005580086 0.11158483
000090 ee d4 50 ba de f9 83 bd 5c 5a f1 bc b3 64 15 3e
       -0.00079662993 -0.06444143 -0.029462032 0.14589195
0000a0 5b d1 c4 bc d6 04 63 3d d4 04 a9 bd a3 f4 b8 bd
       -0.02402561 0.055424534 -0.08252874 -0.09031036
0000b0 0a a0 46 bd 0a fc e2 3d d8 8a 93 3d d6 bb c7 3d
       -0.04849247 0.11083229 0.07204217 0.09752624
0000c0 de 27 41 3d 50 aa 05 3d f7 67 a0 bd ff 92 d5 3d
       0.04715716 0.032633126 -0.0783233 0.10428428
0000d0 ca 96 cc 3d 1e 55 aa bd 1d 2e 07 3e 82 d0 21 3d
       0.09989698 -0.08317016 0.13201185 0.03950549
0000e0 ad b5 22 3c 4c 07 8e bc ac fa 12 3d 39 67 6a 3c
       0.00993101 -0.017337464 0.03588359 0.014306837
0000f0 ee 60 73 3d 48 0c da 3b 52 e9 cf 3d 4a 55 a8 3d
       0.05941861 0.006654296 0.10151924 0.082193926
000100 d6 c7 21 3e 68 c6 64 bd c9 84 0e bd 46 74 e4 3d
       0.15798888 -0.055853277 -0.034794603 0.1115499
000110 5f 4a 86 bd d5 56 94 3d ee bd b3 bd 4a 5c ad bd
       -0.06557154 0.072431244 -0.087764606 -0.08464868
000120 34 2e 89 3c b8 a0 cc 3d 4b 35 38 bd ea 14 54 bc
       0.016745664 0.09991592 -0.0449727 -0.012944439
000130 5e 8f ca 3d be 21 93 bc 8e 92 a9 bc 0d 9f 1a 3e
       0.09890626 -0.017960425 -0.020699766 0.15099736
000140 40 fe 5d b9 d3 4a 4c bd 6d 7e a0 bd a3 2b 64 bc
       -0.00021170918 -0.049876045 -0.07836614 -0.013926419

l1.weight f4 [84, 84]
000000 67 11 90 3c b2 d9 d9 3c 3f 23 98 3d ee 55 c7 3c
       0.017586423 0.026593063 0.07428598 0.024332967
000010 78 89 f2 bc 1e ba 90 3d 1d 06 8b bd aa e8 4d bd
       -0.029606566 0.07066749 -0.067882754 -0.050270714
000020 59 66 92 bd 0f 21 2a bd 42 88 76 3c cf 5a 29 3c
       -0.071484275 -0.041535433 0.015047135 0.010336592
000030 fe 09 25 bc a3 4b e2 3d 33 13 e8 bc 27 af d5 3c
       -0.010073183 0.11049583 -0.028329467 0.026084496
000040 03 0b c1 bc a1 ef c1 3d a4 68 8c bd 24 58 b5 3d
       -0.023564821 0.09469534 -0.06855896 0.08854702
000050 ea 4b 66 3d 63 88 8b bd 70 ac 87 bc ae 3c a6 3d
       0.05622474 -0.06813123 -0.016561717 0.081170425
000060 3a 30 00 bc 30 12 ae bd c8 2c ac 3d 42 da c7 3d
       -0.007823998 -0.08499563 0.08406979 0.09758426
000070 6f a5 99 bd 27 a9 8d bd 7c 54 86 bd 06 71 94 3d
       -0.07502257 -0.06917029 -0.06559083 0.0724812
000080 aa a8 c9 3d 28 2e 83 bd 34 cd b5 bd 3a fb 99 bc
       0.09846623 -0.06405288 -0.0887703 -0.018796552
000090 b6 e9 61 bd 26 58 dd 3d 0a 49 46 3c 3c b2 b9 bd
       -0.055154525 0.108078286 0.012102375 -0.09067199
0000a0 41 40 9b bd da 07 81 bd a8 a7 30 3d 57 96 94 3d
       -0.07580615 -0.06300326 0.04312864 0.072552375
0000b0 73 7a 18 bd e0 32 99 3d ea 48 ec bc b6 d7 7c bd
       -0.03722615 0.07480407 -0.028843362 -0.061729155
0000c0 bb fe 46 3d 29 7b 74 3d 79 50 80 3d d7 89 33 bd
       0.048582774 0.059687767 0.06265349 -0.043832626
0000d0 8e a7 7d 3d 67 24 6c 3b c2 92 e9 3d 53 00 bf 3d
       0.06192737 0.003603244 0.11404945 0.09326234
0000e0 6a 3d 87 bd e7 5a cd bd 4f 02 ba 3c 76 1f 63 bd
       -0.06603511 -0.10027104 0.022706179 -0.055449925
0000f0 58 da cf bd 26 9f 59 bd ed 86 81 3b 2b 24 8c bb
       -0.10149068 -0.05313029 0.003952852 -0.0042767725
000100 1b 07 b7 bd 5e 06 93 3c e3 6e 5a 3d a6 6d 91 3d
       -0.08936902 0.017947372 0.053328406 0.07100992
000110 7a d6 91 bc 3a cc a4 3c f8 70 6e 3d fe 9c 92 3d
       -0.017802466 0.020116914 0.058213204 0.0715885
000120 9e b4 c3 bd 2c 21 6c 3b 02 e3 bc bd 55 de 80 bd
       -0.09555934 0.0036030514 -0.09222986 -0.062924065
000130 e5 eb a4 3c d6 70 cb bd b1 80 78 3d 0b 83 70 3d
       0.020132015 -0.09933631 0.060669605 0.058718722
000140 7b c7 8d 3d be 0f 60 bb 37 3b a1 3d 27 de c3 bb
       0.069228135 -0.003418907 0.078726225 -0.0059774104
000150 1f b3 a4 bd 2f f8 8c 3d 66 b6 57 3b 6e d1 60 3d
       -0.08041977 0.06883275 0.0032915114 0.054887228
000160 02 d6 9f 3c 26 82 aa 3d f8 dc 76 3c d3 b7 2e 3d
       0.019511227 0.08325605 0.0150673315 0.042655777
000170 24 66 04 bc 7c 07 fe 3b 59 7d 1b 3c 6e 6c d9 bd
       -0.008080993 0.007752357 0.009490334 -0.106163844
000180 b6 23 8c bd 12 fb 61 bc 99 4a ae bc 68 35 cf bd
       -0.06842749 -0.01379277 -0.021275805 -0.10117608
000190 5c c9 a5 3d 02 cb 28 3d ba c5 12 3a 70 03 c3 3d
       0.08095047 0.04120923 0.00055989216 0.0952214
0001a0 32 e7 62 bc a7 f8 fd bc 7d 8c a7 3d 7c 43 90 3c
       -0.013849067 -0.031002356 0.08181093 0.017610304
0001b0 7b 42 0d 3d 81 ca c7 3d db b2 b9 bd 5c 0f c5 bd
       0.03448723 0.097554214 -0.09067317 -0.0962207
0001c0 e4 fa 60 3d 5d 60 d4 bd a8 68 48 3c 32 ec a2 bd
       0.054926768 -0.10369942 0.012231983 -0.07955207
0001d0 e9 22 83 3c 9e df ad bc 5d 7d 66 bd 43 64 35 bd
       0.016007857 -0.021224793 -0.0562719 -0.04428507
0001e0 ec 22 bc bc 43 18 5e 3d 51 1f 77 bd e3 05 b6 3d
       -0.02296587 0.054222357 -0.0603326 0.088878416
0001f0 67 46 ba 3c 09 5e da bd 72 a5 a1 bd 5a 33 a7 3d
       0.022738649 -0.10662467 -0.07892884 0.081640914
000200 00 8e 31 3b 30 ab 14 bc e2 c3 a5 3c b0 f1 78 bd
       0.0027092695 -0.009074017 0.020235006 -0.060777366
000210 9d 51 84 3d ac 29 89 3d 0a f3 c0 3d a4 c9 b9 bd
       0.06460879 0.066974014 0.09421356 -0.09071663
000220 eb 79 c4 bb 90 04 05 3d d2 77 9a 3d 16 b7 63 3d
       -0.005995979 0.032475054 0.07542385 0.055594526
000230 75 4d d7 bd e6 04 31 bd 08 bd ad bd 8f 88 9f 3d
       -0.10512821 -0.043217562 -0.084833205 0.07789718
000240 98 c3 39 3d 48 6c 68 bc c7 61 31 bd fa 3d 86 bd
       0.04535255 -0.0141859725 -0.04330614 -0.0655479
000250 50 1f ba bd ff c1 ad 3d d9 fc 1e 3d 26 03 87 bd
       -0.09088004 0.084842674 0.038815353 -0.065923974
000260 d2 8b 64 bd 7d ed 64 bd 6d c1 56 3d cc de e9 3c
       -0.055797406 -0.05589055 0.05243056 0.02854862
000270 57 46 8c 3d e6 2e 2c 3d 0d a6 9b 3d 76 f4 dc 3c
       0.06849354 0.042036913 0.07600031 0.026972037
000280 c6 b5 87 3d 48 5b c7 bd 2b a0 9b bc e8 c7 10 3d
       0.066264674 -0.097342074 -0.018997272 0.035346895
000290 dd 29 a8 bc 4b 87 b6 bd 49 5b a5 3d c0 cf 44 bd
       -0.020527774 -0.08912524 0.08074052 -0.04804969
0002a0 5a 18 44 3d d3 38 81 3c d2 50 55 bd 1a 59 9f 3d
       0.047874786 0.015774166 -0.05207903 0.07780667
0002b0 13 2a c6 3d 95 3c 96 bc f1 b6 06 bd 8a b7 4d 3a
       0.09675994 -0.018339435 -0.03288931 0.0007847479
0002c0 c7 f6 21 3d e9 38 df 3d f4 10 28 3d 11 f2 95 3d
       0.039541986 0.108995266 0.041031793 0.07321561
0002d0 72 f9 d5 bd 82 79 c7 3c 87 ff 1d 3d de 75 8f bd
       -0.104479685 0.024349932 0.038573768 -0.07004903
0002e0 29 ed bb 3a a5 bc 33 3c fc 17 21 3d 66 52 e0 3c
       0.0014337647 0.010970269 0.039329514 0.02738304
0002f0 14 e6 69 bd 43 34 84 3d 21 75 a6 3c 5e 02 d0 bb
       -0.057104185 0.06455281 0.020319523 -0.0063479384
000300 b0 78 3f bd 4e 07 b4 ba a4 e5 bd bd ed 86 57 bd
       -0.046745956 -0.0013735087 -0.09272316 -0.05261891
000310 8b 86 aa bd b4 d5 8c 3c 0d 67 8a bd af 3a dd bd
       -0.08326443 0.017191745 -0.067579366 -0.10802209
000320 c7 c7 ea 3b 6c fa da 3c a8 3f f7 bc a9 49 ac 3d
       0.0071649286 0.026730739 -0.03018172 0.08412487
000330 3a 6b ea 3c 24 6c aa bd 66 c6 a2 bd 43 aa 8b bd
       0.028615583 -0.083214074 -0.07947998 -0.06819584
000340 b4 ed ac bd 36 8b cb 3d ee 4a 0b bd 16 3c 80 bb
       -0.08443776 0.09938662 -0.034007005 -0.003913413
000350 7a d7 fa 3c 2f e1 54 3d 74 6b 2a bd fd ad cc bd
       0.030620325 0.051972564 -0.04160638 -0.09994123
000360 ce d7 ac bd 01 12 64 3d 34 98 c5 3d ca db 9d 3c
       -0.08439599 0.055681232 0.09648171 0.019269843
000370 21 8f 16 bc 7c 26 d7 bd 8b b2 c8 3d 21 45 d2 3c
       -0.009189398 -0.10505387 0.09799679 0.025667729
000380 d6 fd e0 bc ea bf 72 bd 24 24 fc 3c 54 1e e2 bc
       -0.027464788 -0.059265055 0.030778952 -0.027602352
000390 0c 8c 3b 3c 9c 01 ba bd f5 57 87 3d 3d 82 19 3d
       0.011446964 -0.09082338 0.06608573 0.03747772
0003a0 6a e4 19 3d d0 f5 11 bd e8 78 6f 3d 29 c0 be 3d
       0.03757135 -0.035634816 0.058464915 0.093139954
0003b0 6b c0 da 3d 90 09 79 bd 6e 44 a0 3d bc 86 fc 3c
       0.10681232 -0.060800135 0.07825552 0.030825965
0003c0 af 13 27 3d c6 69 7b 3d 8c ae ea bc 4c be 25 bd
       0.040790256 0.06138017 -0.028647684 -0.040464684
0003d0 4a 42 83 3c e4 42 77 bd ce b6 96 3d 65 05 1c bd
       0.01602282 -0.060366526 0.07359086 -0.038091082
0003e0 56 7b 12 3c 0f 5e e1 3c 6e 77 b7 bd 90 1f a1 bd
       0.008940538 0.027510671 -0.08958326 -0.07867348
0003f0 bc c0 31 3d 1d d1 d7 3c 88 4f d3 3d b3 0a 8e bd
       0.043396696 0.02634483 0.10317904 -0.069356345

l1.bias f4 [84]
000000 04 ce 55 bd aa 37 d4 bd 8a 1b c0 bd 7f 70 48 3d
       -0.052198425 -0.103621796 -0.09380253 0.04893541
000010 03 d8 ac bd 1a 45 06 3c a4 c8 e5 3c 3c bc de bd
       -0.084396385 0.008195186 0.028049774 -0.108757466
000020 30 b4 a2 bc 0e ca 31 3e 96 33 46 3d a2 00 3e bd
       -0.01986131 0.17362234 0.04838904 -0.046387322
000030 3e 9b 16 3e c1 ba 61 3e 8d 25 b2 bd d5 47 bc 3d
       0.14707658 0.22043897 -0.086985685 0.091933884
000040 4d 3f a9 bd c0 5b bd 3d b6 18 d0 bd a0 d7 5c 3e
       -0.08264027 0.092460155 -0.10160963 0.2156663
000050 ae 5e dc bc fa ae 10 3e a1 84 b4 bd 2e e8 7d 3d
       -0.026900616 0.14129248 -0.088143595 0.061989002
000060 29 d8 cf 3d 50 3d ca 3d 52 57 bd bd 3a 5b 49 3e
       0.10148651 0.09874976 -0.09245171 0.19663706
000070 44 51 55 3b 69 0c 9d bd 59 b2 84 3e 6b 2b 3e 3d
       0.0032549659 -0.07668383 0.25917318 0.046428125
000080 b3 8a d9 bd 3a 5b ac bd 3e d2 db bd 46 9b b2 3d
       -0.10622158 -0.084158376 -0.1073346 0.08721022
000090 d8 1b 60 3e 0c b2 1f 3d 9b d8 99 bd e3 f1 42 bb
       0.21885622 0.038988158 -0.07512017 -0.0029746227
0000a0 20 d3 79 bd f8 e8 d1 3d 2a e6 ab bd ad f1 8d bd
       -0.06099236 0.102495134 -0.0839351 -0.069308616
0000b0 91 3b 32 3e 9c 5b 2b bd bf ab 5f 3e af d8 d0 bd
       0.17405535 -0.041835412 0.2184286 -0.10197579
0000c0 75 35 01 bd d5 91 54 3e 85 c0 81 3d d2 11 9b bc
       -0.03154512 0.20758756 0.06335548 -0.018929396
0000d0 0c fc f3 3d 12 8b a9 3d 81 8c cd bd 41 2c 05 3e
       0.119133085 0.08278479 -0.100365646 0.13005163
0000e0 1f d6 d9 bd fe 08 9d bd f2 35 59 bd a3 6f cc bd
       -0.106365435 -0.07667731 -0.053029962 -0.099822305
0000f0 61 25 cb bd 80 b6 28 3d 44 0f 5e ba 3a 94 a5 bd
       -0.09919239 0.04118967 -0.00084709027 -0.080849126
000100 a7 ce b5 3d 42 ab a5 3d 08 c6 ad bd a1 f4 6e 3e
       0.088773064 0.080893055 -0.08485037 0.23335506
000110 c0 b7 b1 bc 21 47 0e bd 93 23 a6 3d bb c8 04 3e
       -0.021694064 -0.034735803 0.08112254 0.12967198
000120 c2 ca 5d 3e 0a d3 da bd 80 bc ce 3d aa 06 b7 bc
       0.21659377 -0.10684784 0.10094547 -0.022342045
000130 1a af 61 bd a1 96 02 bd 9a 03 7b bd 84 67 67 bd
       -0.05509863 -0.031881932 -0.06128273 -0.056495205
000140 a3 c1 87 bd 43 de 3a 3e 6e 51 fc 3d 1d 7b d6 3d
       -0.0662873 0.18248849 0.12320219 0.10472701
