models/fedavg/globalmodelexperiment_log-2023-09-04-1928-25.pth (torch, 375691 bytes, 14 tensors)

features.conv1.weight f4 [6, 3, 5, 5]
000000 cc 9d 5b bd 14 a5 28 bf b2 e9 4f 3e 5a 0b a9 3e
       -0.053617284 -0.6587689 0.20303991 0.33016473
000010 bc 3b 5c bf c7 0e bb 3e 29 ba e4 bd 3e f2 71 bf
       -0.8602865 0.36534712 -0.1116832 -0.9451026
000020 f5 0f fc be c6 ff b2 3d ca 33 28 3e 30 04 78 3f
       -0.49230924 0.08740191 0.16426006 0.9688139
000030 85 91 d1 be 68 d3 33 bf 84 bf 4f 3c 2a d5 83 be
       -0.40931335 -0.70244455 0.012679938 -0.2574857
000040 b6 13 83 3e ad 57 5c 3f cd b0 17 3f 03 33 be bd
       0.25600976 0.8607128 0.5925415 -0.092870735
000050 cc 5b f8 3e c5 39 d1 be 7f e1 e6 3d 06 fe 30 be
       0.48507535 -0.40864387 0.11273479 -0.17284402
000060 c7 ec 93 3d b3 04 8a be 3e 14 ee be 10 27 af 3e
       0.07222896 -0.2695671 -0.4649982 0.3420949
000070 e9 60 39 3f e0 8e d0 bc 0f 01 1a 3e a8 91 ac bd
       0.724135 -0.025458753 0.15039466 -0.08426219
000080 57 a8 10 bf 27 07 53 bd f4 18 0c 3f 5a f1 4d be
       -0.56506866 -0.051520493 0.54725575 -0.201116
000090 48 0c 77 3f 2a b0 f8 bd c6 96 cd be c8 28 f2 3e
       0.96503115 -0.12142976 -0.40154094 0.4729674
0000a0 35 ee 3d bf de 4b b3 3c cc 53 4f 3f bc 72 0d 3f
       -0.741916 0.021886762 0.8098724 0.55253196
0000b0 03 95 db bc fe c9 72 3e 6c 48 c1 be 37 f5 3b 3e
       -0.026804453 0.23709866 -0.37750566 0.18355261
0000c0 13 0b ce 3d e8 24 ce 3e 72 a7 3f 3e 0f a1 e5 be
       0.10060706 0.40262532 0.18716219 -0.4484944
0000d0 3e d5 1e 3e da 09 ee 3e 92 9c 74 be db 3d d8 3e
       0.15511033 0.4649189 -0.23887852 0.42234692
0000e0 a0 4a 84 bd 75 f8 51 bf c8 3a d7 be 9b 41 14 3d
       -0.06459546 -0.8201974 -0.42037034 0.03619538
0000f0 9d 99 31 3e 6d 51 50 3f 7e d4 df be bb 98 2f bf
       0.17343755 0.81374246 -0.43716806 -0.68592423
000100 82 09 cc 3c 9c da 83 be 0c 8f 4b 3e a8 02 33 3f
       0.024906877 -0.25752723 0.19878787 0.6992593
000110 d6 fb a9 3e ce a4 b8 be 5a 63 d1 3e d5 cf dd be
       0.33199948 -0.36063236 0.40896112 -0.43322626
000120 d8 1e 59 3d bd d4 ac be 9c 74 3a be 21 f6 03 bd
       0.05300793 -0.33756056 -0.18208545 -0.03221715
000130 12 52 54 3d 74 75 e8 bd 98 59 8f 3e 4e da 78 3e
       0.05183608 -0.113505274 0.27998042 0.24302027
000140 30 87 82 3d 40 56 0f 3e a5 1f 9a 3d 37 cd 13 3f
       0.06373441 0.13997746 0.07525567 0.5773501
000150 4e 6c b4 3d ee f7 8c be 76 f6 13 3f 3b 91 95 3f
       0.0880972 -0.27532905 0.57797945 1.1684946
000160 db d5 20 3f 98 a8 08 bf 58 c5 3a 3e f2 7f c4 3e
       0.6282632 -0.53382254 0.18239343 0.38378865
000170 93 e4 e3 3e 4f ce cd be e6 85 a4 be 2c 17 d6 bd
       0.44510326 -0.40196463 -0.32133406 -0.104536384
000180 cd a2 34 bf 4b 1d 9e bf e8 bc 71 bf bd ee 01 3f
       -0.70560914 -1.235269 -0.94428873 0.5075491
000190 1d 2e 7d 3e 60 77 4f 3e 4a 58 d9 bd 3a a7 78 3e
       0.24724622 0.20260382 -0.10612543 0.24282542
0001a0 30 e9 82 3d c2 0b 46 be 29 64 95 bd fe d4 81 be
       0.06392133 -0.19340423 -0.07294495 -0.25357813
0001b0 10 83 16 3e 88 d1 50 be 76 5e 19 bf f8 36 86 3e
       0.14698434 -0.2039243 -0.5990976 0.26213813
0001c0 3d a2 9d 3f 24 64 94 3e 04 35 3a bf bb d9 3b 3d
       1.2315136 0.2898265 -0.72737145 0.04586194
0001d0 94 2f e0 3c af 7e ce 3d dc ee ca be 21 e2 8c bc
       0.027366437 0.10082757 -0.3963536 -0.01719767
0001e0 b2 ce 4f 3d 51 dd 5a bf 45 a3 c1 bf ba a8 37 bf
       0.05073423 -0.8549395 -1.5127951 -0.7174183
0001f0 f0 24 54 3f b8 c5 ef 3d 6a 4d fd bc ee a2 01 bf
       0.8286886 0.11707634 -0.030920703 -0.50639236
000200 c9 92 1e be 77 a4 fa 3d ba e9 36 be 1b ca c1 be
       -0.15485682 0.122384004 -0.17862597 -0.37849507
000210 81 65 03 bf ae 6a 00 be f7 29 12 be 0e 7a a1 be
       -0.5132676 -0.12540695 -0.14273821 -0.31538433
000220 d8 bd aa 3e 81 10 71 3f b1 1e 7c 3e 64 29 e0 be
       0.33347964 0.9416581 0.24621083 -0.4378158
000230 e2 3e 61 3e e6 2a bf 3e 1c 2f 21 3f dc 35 a7 3d
       0.21996644 0.37337416 0.6296251 0.0816457
000240 a9 be 63 3e f1 a0 d5 3e 24 8c 7b be b2 07 31 bf
       0.222407 0.4172435 -0.24565178 -0.6915237
000250 ba 31 6e be 52 6b 89 3f b0 ed 6c be 03 e1 31 3f
       -0.23261157 1.0735877 -0.23137546 0.69483966
000260 e9 83 8d bf a1 26 04 3f b7 6f f0 bd 9c 5d be be
       -1.1055881 0.51621443 -0.11740058 -0.37180793
000270 1b 52 1d 3f e2 96 b4 bf 4a 7d d4 3e eb 58 ab be
       0.6145341 -1.4108546 0.41501838 -0.33466277
000280 9a d5 af be f7 80 2b 3f ff 38 85 bf 52 23 18 3f
       -0.34342653 0.6699366 -1.0408019 0.59428895
000290 8a c0 9d be 6b f4 e9 be 7a 3a e6 3c 94 2f 9a bf
       -0.30810958 -0.4569429 0.028104056 -1.204577
0002a0 d3 55 1c 3e 2b b7 11 bf bd 49 2b 3f 40 ce 92 3f
       0.15267114 -0.5692012 0.6690939 1.1469193
0002b0 16 f9 b1 bd d6 98 84 3f 6a 63 3d 3f c7 b2 01 bd
       -0.086900875 1.0359142 0.7397982 -0.031664636
0002c0 02 15 5a 3f 06 9c 82 bf ad 44 2e 3f 4d 35 be bd
       0.85188305 -1.0203865 0.6807354 -0.0928751
0002d0 84 88 0f 3c 57 01 a8 3f ef a7 29 bf 1c 92 98 3f
       0.008760575 1.3125409 -0.6627187 1.1919589
0002e0 de ed 8f 3e 02 f4 47 be 16 31 9b 3f e9 5a 28 bf
       0.28111166 -0.19526675 1.2124355 -0.6576372
0002f0 a2 95 8b 3f ba ea 14 bd aa 92 5d bf f0 04 66 3d
       1.0905039 -0.036356665 -0.86551917 0.056157053
000300 32 ea c0 bf 67 41 19 3d 42 1c 37 bf 8b 29 b6 be
       -1.5071471 0.03741589 -0.71527493 -0.3557857
000310 74 7e e5 3e 2c 0e 35 bf d4 6e b0 3e 31 8f 8f be
       0.4482304 -0.7072475 0.34459555 -0.28038934
000320 f7 b7 cd be 05 15 db 3e 82 13 6b bf 2f e7 cd 3e
       -0.40179417 0.42789474 -0.9182664 0.40215442
000330 33 e7 8d be 7e 76 41 be 25 c2 4a 3f 14 9b 49 bf
       -0.27715454 -0.18892857 0.7920249 -0.78752255
000340 ee 50 3b 3f 33 c1 ac be c1 45 95 bd d2 d7 75 3f
       0.73170364 -0.3374115 -0.07288695 0.9603244
000350 68 e3 e7 be d0 5c 88 3f 0a cc f0 bd 4c 11 f0 be
       -0.45290685 1.0653324 -0.11757667 -0.46888196
000360 1d f0 52 3e f1 c3 45 bf 35 70 33 3e 6e bd 14 bf
       0.20599408 -0.7725211 0.17523272 -0.58101547
000370 75 03 d0 bd 86 7c 0b 3f 3b 91 64 be 67 c5 e7 3e
       -0.101569094 0.5448688 -0.22321026 0.45267794
000380 f4 57 54 bd de 88 8d 3e cc 25 63 3e de 7b cf 3d
       -0.05184169 0.27643484 0.22182387 0.10131048
000390 87 92 01 3f 1a 10 2e 3f 06 d6 c8 3d ab c6 d7 bd
       0.5061421 0.6799332 0.09806447 -0.1053594
0003a0 3b 88 38 be 90 60 4c bd 1b 33 48 3e 1e e0 5d be
       -0.18020718 -0.049896777 0.19550745 -0.21667525
0003b0 91 82 cd be 75 a7 e5 be 57 a8 b2 be 65 21 db bc
       -0.40138677 -0.44854322 -0.34894058 -0.026749322
0003c0 a2 0f 01 bf 3a b4 19 bf 89 6a 42 bf 60 f4 0d bf
       -0.5041448 -0.6004063 -0.7594381 -0.5545101
0003d0 97 71 8f be 3e 04 90 bd 9a 85 f6 be 04 1f 29 bf
       -0.2801635 -0.07032059 -0.48148805 -0.6606295
0003e0 4e 4e 08 bf 39 6c 09 be e2 c5 2a bd 9d 31 44 be
       -0.53244483 -0.1342019 -0.041692622 -0.19159551
0003f0 90 7b 6c be 32 1a 3a be bc 58 c2 3d c5 ea 26 3d
       -0.2309401 -0.18174055 0.09489581 0.040751237

features.conv1.bias f4 [6]
000000 26 52 0c 3f ae 6f ab bf a6 ee 26 bf 62 d5 91 3e
       0.5481285 -1.3393457 -0.652079 0.2848311
000010 9c aa 62 bf 25 8d fa 3e
       -0.8854158 0.4893581

features.conv2.weight f4 [16, 6, 5, 5]
000000 90 60 3a 3e 78 63 18 3d dc 47 06 3e 1a 93 48 3d
       0.18200898 0.037204236 0.1311335 0.048968412
000010 75 8d a6 3d f4 ab 86 3e 5d 1f cc 3d 96 5b 9f 3d
       0.081324495 0.26303065 0.099669196 0.077811405
000020 e4 cc 1f 3d 9f 7e 45 bc bc c8 48 3e 6d 69 5f 3d
       0.03901376 -0.012054115 0.19607824 0.0545439
000030 f2 27 a1 bc de ea 0e bd 7a 6c 11 be 7e ed 9d 3e
       -0.019672368 -0.034891956 -0.14201537 0.30845255
000040 84 d0 24 3e 50 37 fa 3c 36 49 c6 3d 50 fe c8 39
       0.16095167 0.030543953 0.09681933 0.0003833645
000050 bf 0a 1c 3e 64 71 0d 3e 9a 8f 0f 3d 78 2a b5 3d
       0.15238474 0.13812786 0.03504906 0.08845991
000060 65 e0 80 bd 6c 5e 94 3d b6 31 ec 3d f5 f8 36 3e
       -0.062928 0.07244572 0.11532919 0.17868407
000070 64 62 12 3e b6 64 43 3e 07 6d b6 3d cc 8d 39 3e
       0.14295346 0.19081387 0.08907514 0.18120497
000080 ea b5 28 3e ee f6 55 3e 08 6b 4c 3e d3 4b e8 3d
       0.16475645 0.20894977 0.19962704 0.11342587
000090 2b 5b 04 3e e1 9a 2a 3e b8 43 41 3e a0 fd 40 3e
       0.12925403 0.16660644 0.18873489 0.1884675
0000a0 c4 a9 d2 3d 32 3b 7b 3d 6d b5 29 3c ad 9d 47 3d
       0.102862865 0.06133575 0.010358197 0.048734356
0000b0 ef 05 a4 3d e8 3f 69 3d fe 76 37 bd d7 1f 4f bd
       0.08008944 0.05694571 -0.044791214 -0.050567474
0000c0 88 83 61 bd 47 47 61 bd d6 17 40 3e 85 9d e1 bb
       -0.05505708 -0.054999616 0.18759093 -0.006885233
0000d0 b6 84 bf 3d a2 46 03 bc f1 09 df 3d a9 db e0 3c
       0.093514845 -0.008012446 0.10890568 0.027448492
0000e0 df 40 4c bd 97 e6 91 bd 4e af a8 bb e4 72 06 3d
       -0.049866553 -0.0712406 -0.005147851 0.032824412
0000f0 ce de 4b 3e 64 97 bc bc b2 b8 10 3c 31 9d 0a 3e
       0.19909212 -0.023021407 0.008833097 0.13536526
000100 26 8c 43 3e 52 7f 8a 3d fc 7a 07 bd 4b 23 4c 3d
       0.19096431 0.06762566 -0.03307627 0.049838345
000110 cd 04 87 3d f6 09 6c 3d f4 e5 0c 3d 38 b0 fe bd
       0.065927126 0.057626687 0.034398988 -0.12435955
000120 f5 76 49 bb 88 7a 16 bd e0 07 a2 bd 45 f8 30 3e
       -0.003074107 -0.03673795 -0.07911658 0.17282207
000130 24 36 68 3d ac fa 16 3d cc 26 68 bd 70 85 1e bb
       0.056692258 0.036860153 -0.056677625 -0.0024188422
000140 9c 27 3f 3e f2 25 2e bd 9b 6b 95 3d 69 a3 ab 3c
       0.18667454 -0.042516656 0.07295915 0.020951943
000150 2f 93 88 3c 08 7b 39 3e d6 26 e4 3c 7a be c3 bc
       0.016671745 0.18113339 0.02785055 -0.023894537
000160 c2 a0 65 bd 2c 91 8a bd cc 39 df 3d 4b 75 77 bd
       -0.056061514 -0.067659706 0.10899696 -0.060414594
000170 9c 57 28 be 40 c0 a5 bd 81 36 22 be a3 0e 2e 3e
       -0.1643967 -0.080933094 -0.15841104 0.16997771
000180 31 38 70 3d d2 00 b3 3c 84 58 95 3b ae a9 04 3e
       0.05864734 0.021850977 0.004557671 0.12955353
000190 e4 da 24 3d f4 91 04 3e 11 bb 54 bd 52 56 59 3d
       0.040247813 0.12946302 -0.051936213 0.053060837
0001a0 43 89 0f be 3b 9f 3d be f2 81 f1 be b7 6e ec be
       -0.14017205 -0.18517773 -0.47169453 -0.4617822
0001b0 b3 26 9f be 69 f4 80 be 82 bc eb be 36 2f 5e bf
       -0.31084213 -0.2518647 -0.46042258 -0.8679079
0001c0 d9 c1 64 bf 7d c9 35 bf b5 01 de be 54 37 f2 be
       -0.8935829 -0.7101057 -0.43360677 -0.47307837
0001d0 31 46 49 bf ed 8c 49 bf ba cc 40 bf 82 31 04 bf
       -0.7862273 -0.7873066 -0.7531239 -0.5163804
0001e0 3f 1a ae be 1e 0c 18 bf 44 0f 1e bf 96 bd 19 bf
       -0.340044 -0.5939349 -0.61742043 -0.6005491
0001f0 45 fb dd be 44 d3 98 3e 37 b6 01 3e 64 61 5c 3e
       -0.43355766 0.29848683 0.12667166 0.21521527
000200 7d 82 34 3e a9 47 ae 3e c1 36 e4 3c bb 52 b5 bd
       0.17627902 0.34039047 0.02785814 -0.0885367
000210 01 32 91 bd 1e 36 46 bd 58 e5 bb 3d d2 b3 da 3d
       -0.070896156 -0.048391454 0.09174603 0.10678829
000220 fa 34 92 bd d8 12 ab bd 03 29 3a be ea 42 c1 bc
       -0.07139011 -0.083532035 -0.18179707 -0.023591477
000230 b2 83 60 3e 83 bf bc bd ab c5 80 bd 27 8c 13 bc
       0.21925238 -0.092162155 -0.06287702 -0.009005583
000240 22 51 75 3c de 61 f4 3d 83 c7 b2 bd 7c 29 ae bd
       0.014972957 0.11932729 -0.0872946 -0.08504006
000250 1d 30 63 be 53 89 4e bd 80 76 9b bd 53 3e fd be
       -0.22186323 -0.05042393 -0.075909615 -0.49461612
000260 85 53 0c bf ee 80 af be 71 b5 4e be 59 b4 47 3e
       -0.5481494 -0.34278053 -0.20186402 0.19502391
000270 6d 06 9d 3c 6a ba 1d bd b4 6a ed bc 2b 22 de 3d
       0.019168103 -0.038507856 -0.028981544 0.10846361
000280 c3 ca f2 3e 48 01 d1 3e 22 2a c1 3e da 8c 99 3e
       0.4742032 0.4082129 0.37727457 0.29990274
000290 e8 c3 9e 3e 32 0a 0d be 80 3e a6 be 96 00 c8 be
       0.3100884 -0.1377342 -0.3246956 -0.39062947
0002a0 35 99 ba be 20 78 0b be 0d 46 65 be 54 9a 41 be
       -0.36445013 -0.13620043 -0.22390004 -0.18906528
0002b0 4f 21 85 be fc f0 95 be 77 11 30 be 70 9b 02 3e
       -0.26001975 -0.2928542 -0.17194162 0.12754607
0002c0 87 e4 bc bd 4a 24 a3 bd 94 81 cc bb e3 d3 81 3e
       -0.09223276 -0.07965906 -0.006241033 0.2535697
0002d0 ec 18 06 3c 54 b5 a4 bd 79 db c2 bc ae 23 1f 3c
       0.008184653 -0.08042398 -0.023786293 0.009713097
0002e0 d5 33 1a 3e bf 6b 70 3d fc 15 8e bc 73 b8 c4 3d
       0.15058835 0.058696505 -0.017344467 0.096054934
0002f0 60 86 d7 3d 3c a7 a9 3d 04 d2 f9 bc 0d 4b a9 bd
       0.10523677 0.082838506 -0.030495651 -0.08266268
000300 e3 22 a7 3c da fc 86 3d d4 95 84 bb ce 42 8f 3e
       0.020402377 0.06591196 -0.004046181 0.27980655
000310 da d4 0d 3e b9 71 08 3e c4 bd ef 3d 70 06 9f ba
       0.13850728 0.13324632 0.11706117 -0.0012132656
000320 ea 2c 57 bc cc 23 77 bc 38 84 24 3d f6 27 0f 3a
       -0.013133267 -0.015084218 0.040165156 0.0005460972
000330 01 44 80 3d 9c 1c 87 3e 8d c7 e6 3e d4 b1 17 3f
       0.06262971 0.26389015 0.4507412 0.5925572
000340 25 e6 c8 3e 92 c9 47 3e 36 4f 9f 3d ac b7 05 3e
       0.39238086 0.19510487 0.0777878 0.13058347
000350 d6 fb 1f 3e e6 18 fc 3d b3 4c ae 3d 26 7a cc bd
       0.15623412 0.123094365 0.08510723 -0.099842355
000360 eb e6 30 be 47 31 79 be 9d 73 45 be ff 6f 86 bd
       -0.17275588 -0.24335204 -0.19282384 -0.0656433
000370 5c 21 25 bd ab a6 67 be 47 2f 77 be 5b 32 0e be
       -0.040315017 -0.22622173 -0.24139129 -0.13886397
000380 64 b7 bc 3c e6 ca 91 3e 22 64 51 3e 9f ae 76 3e
       0.023036666 0.28475112 0.20448354 0.2409005
000390 1d d1 7f 3e b8 31 93 3e 10 29 c4 3d ff ea e3 bc
       0.24982114 0.2874887 0.095781446 -0.027822016
0003a0 c2 42 f3 bd 8b 1b 1d be b8 91 87 bd 49 5a 60 3e
       -0.118779674 -0.15342538 -0.066195905 0.21909441
0003b0 8f 85 86 3e 21 b4 8e 3e 45 dd e1 3d 38 b8 ab 3d
       0.26273772 0.27871802 0.11028532 0.08384746
0003c0 20 9c 59 bd 24 5e 05 bb 7f 48 a9 bd 7b 32 ba bd
       -0.053127408 -0.0020350302 -0.08265781 -0.0909166
0003d0 b5 c2 c8 bd e4 25 9d be b3 80 93 be 34 9b eb be
       -0.098027624 -0.3069297 -0.28809127 -0.46016848
0003e0 0b 00 e2 be ba 9f 45 be d5 13 91 3c dc 88 b4 3d
       -0.44140658 -0.19299212 0.017709652 0.08815166
0003f0 56 d8 ec 3d 23 94 19 3e 00 8c 82 3d 2f 06 5f bd
       0.115647 0.14997916 0.06374359 -0.054449257

features.conv2.bias f4 [16]
000000 73 51 ae 3f 3d 2e 74 bf 03 e3 bc bd 26 48 c6 3e
       1.3618606 -0.95383054 -0.092229865 0.3872692
000010 00 7c 67 bf ce aa 4b bf 46 71 fd 3e 49 37 ab 3d
       -0.90423584 -0.795575 0.49500483 0.08360154
000020 fb 3b e5 be 84 7b 72 3f ee c4 64 3e 68 5e 9f be
       -0.44772324 0.9471972 0.22340748 -0.31126714
000030 fe be 5c 3e ad 4b 43 be 7b 07 de 3e 65 d4 c0 bf
       0.21557233 -0.19071837 0.43365082 -1.5064818

features.fc1.weight f4 [120, 400]
000000 35 a6 73 3e 63 60 f1 3d e3 fb cb bc d2 79 c0 bd
       0.23793872 0.117859624 -0.024900382 -0.093982354
000010 63 3c 09 be 62 81 b7 3d ec 90 91 3d 66 fd 33 bd
       -0.13401942 0.08960225 0.0710772 -0.04394283
000020 52 4e a6 bd 49 93 13 be 25 a2 1d 3e ba e1 07 3d
       -0.08120407 -0.14411654 0.15393884 0.033174254
000030 c0 30 20 bd 24 a9 90 bd fd 00 c7 bd 86 c5 da 3d
       -0.03910899 -0.07063511 -0.097169854 0.10682206
000040 53 ad 82 bd 9a 84 ae bc 61 a7 5a bc aa 25 cd bd
       -0.06380715 -0.021303464 -0.01334557 -0.100169495
000050 5e f3 d0 3a 96 f1 d3 bd 47 16 e9 bd f0 33 b1 bd
       0.001594167 -0.10348813 -0.11381202 -0.086524844
000060 03 dd 43 be ce 5e 05 3e bb 1d e7 3c 0d 0c 4a bd
       -0.19127278 0.13024446 0.028212419 -0.0493279
000070 dc 69 c4 bd 38 34 63 bd a7 63 98 3d 8a 75 48 bd
       -0.095905036 -0.05546972 0.07440882 -0.04894022
000080 26 12 ee bd 36 17 02 be 60 66 9e bd d5 b1 f6 3d
       -0.11624555 -0.12704167 -0.0773437 0.120456375
000090 be ef 45 bc 7f 79 e8 bd f4 1d dd bd b1 52 c0 bd
       -0.012081085 -0.113512985 -0.10796729 -0.09390772
0000a0 f7 83 c6 3d 17 6d b7 bc 81 39 be bd 1a 17 af bd
       0.09693139 -0.022390885 -0.09288312 -0.08549328
0000b0 d4 5d 96 bb 20 5a e9 3d c5 af 37 3d 6c 56 2e bd
       -0.004588822 0.11394143 0.04484536 -0.042562887
0000c0 17 1b 86 bd 4b df 97 bd 98 2e c4 3d 4f ce 30 3d
       -0.06548136 -0.07415637 0.095791996 0.0431655
0000d0 6d 03 3a bd ca ec c3 bd 97 44 58 3d 15 2a ec 3d
       -0.045413423 -0.09566648 0.052799787 0.11531464
0000e0 55 6d 0a bd 76 d9 e9 bd 7c d9 f9 bd e5 cc 99 3c
       -0.033795673 -0.114184305 -0.12199685 0.01877446
0000f0 2e 95 d4 3d 6a a6 bb bd 3a 0f 21 be 7d d9 9c bd
       0.10380016 -0.091626 -0.15728465 -0.0765867
000100 68 08 7e 3c df 30 82 3a a2 0a bd bc 54 14 17 be
       0.015504934 0.0009932778 -0.02307636 -0.14753848
000110 7d d2 50 bd c2 b6 1c 3b 28 42 21 3b 92 bf 4c bd
       -0.050981987 0.0023912643 0.0024606083 -0.049987383
000120 b6 0c 22 bd b2 48 b7 bb 4e 07 b3 bc 5f f3 20 bd
       -0.039562903 -0.0055933828 -0.02185407 -0.039294597
000130 8c 59 86 bc 46 4a 80 bd 6d a6 80 bc 11 b7 ad bc
       -0.016400121 -0.062641665 -0.015704358 -0.021205457
000140 a0 72 84 bd 53 8a 13 bd a4 67 ce bc c8 0c c0 bc
       -0.064671755 -0.036020588 -0.025195904 -0.023443595
000150 65 36 04 bd 1a f2 a1 bc 2a c2 43 bd 33 fa 5c 3b
       -0.032278437 -0.019768763 -0.04779259 0.0033718466
000160 96 dd d3 3d 12 85 aa 3d 64 64 da bd 67 ae 69 bc
       0.103449985 0.083261624 -0.10663679 -0.014262772
000170 91 55 7c 3c 94 ee 58 3d b4 db aa bb ec 80 10 be
       0.01540126 0.0529619 -0.005214179 -0.1411168
000180 15 0b bb bd 62 83 04 bd d8 59 e7 bb bd 7e b6 bd
       -0.09132973 -0.03235186 -0.0070602708 -0.08910892
000190 2a b2 f0 bd 0e 43 87 bd 82 9b 5e bb 9b a5 52 ba
       -0.11752732 -0.066045865 -0.0033967202 -0.00080355414
0001a0 c4 16 c9 3d eb 89 51 bd 0d 9d 98 bc bb e0 09 3d
       0.09818795 -0.05115692 -0.018629575 0.033661585
0001b0 ef 9d 9f 3d 07 a7 a0 3d 51 25 aa bc 97 5f 50 bd
       0.07793795 0.07844358 -0.020769747 -0.05087241
0001c0 ba 66 c9 3b ca d3 b2 3d ca 20 0d 3e 5c ec 2f bb
       0.006146279 0.08731802 0.1378204 -0.0026843762
0001d0 ed 92 08 bd 44 dc e3 bc 8f 59 07 bc 41 a3 c0 3d
       -0.033343244 -0.027814992 -0.0082610985 0.09406138
0001e0 ba 56 e3 3d 0e d9 c4 3d e4 4d ff 3c ce 48 6d 3d
       0.11100526 0.096117124 0.03116507 0.05793076
0001f0 aa 7b 4c 3e f3 ef 47 bd c8 f2 7b bd d4 a0 44 bd
       0.19969049 -0.048812818 -0.06151083 -0.04800494
000200 66 52 0b 3c ff 6a 92 bc ad a4 ba 3c 3f cb 76 bd
       0.008503532 -0.017873285 0.022783602 -0.060252424
000210 b4 29 07 3b a8 8b 48 bd 9a 41 55 bd cc 31 f8 3c
       0.0020624222 -0.04896131 -0.052064516 0.030297183
000220 57 6f 4f bd 57 ea a2 3c 6f 1b 18 bd 4d 34 bd bd
       -0.05064329 0.019887133 -0.037135538 -0.09238491
000230 67 15 88 bd 0c 20 9a bd 22 37 e3 3a a4 db c4 bc
       -0.06644707 -0.07525644 0.0017335156 -0.024030514
000240 78 93 3b bd 81 87 00 be 6d 6d b2 bd f7 e2 dc bc
       -0.045794934 -0.1255169 -0.087122776 -0.026963694
000250 e2 07 ef 3c 0d e7 40 bc 66 9a 0f bd c4 82 2b 3c
       0.029178564 -0.011773837 -0.035059355 0.010468189
000260 02 04 e7 3c bd 22 3c 3d 9f bb 50 3d ba b8 c2 bc
       0.028200153 0.045931567 0.05096018 -0.023769725
000270 67 2f d1 bc 43 92 20 bd 98 31 5c bd ff 1b 00 3c
       -0.025535299 -0.039201986 -0.053758234 0.007819175
000280 6e f2 ad bc 93 9f 82 3c a3 7c ce bc a7 f6 86 bd
       -0.021233764 0.015945232 -0.025205916 -0.06590014
000290 28 59 4f 3d c0 1c 60 b8 1a 2c 44 3d ed e0 46 bd
       0.050622135 -5.3432537e-05 0.04789362 -0.04855435
0002a0 27 2a 0b bd 53 f7 06 3c 7f 61 50 bd 81 5c 00 3d
       -0.033975746 0.008237678 -0.05087423 0.03133822
0002b0 a2 8f 34 bd 45 83 61 bd 7b 11 06 bc ee 82 4a bc
       -0.04408229 -0.05505683 -0.008182879 -0.012360318
0002c0 0a 19 09 3d 27 b4 51 bc 56 2b 6c bd df 15 46 bd
       0.033471145 -0.012799299 -0.057658516 -0.0483607
0002d0 9a 72 51 bd bc 29 2f 3d 56 d1 80 bc 00 db 41 bd
       -0.051134683 0.04276441 -0.01572482 -0.047327995
0002e0 a6 3c c3 bb 13 d0 a6 3c e8 61 c2 3c 0d 1d a0 3d
       -0.0059581576 0.02036289 0.023728326 0.07818041
0002f0 3b b8 24 3d cc 98 39 bd 82 9e bc 3d 77 85 bb 3d
       0.04021476 -0.045311734 0.092099205 0.09156316
000300 8d 76 ac 3d d4 5d 9f bc 85 23 92 3a da fb f5 bc
       0.08421049 -0.01945392 0.0011149502 -0.030027319
000310 58 b0 0d b9 3b 4d 3b bd 9a 25 c5 3b de 48 89 bc
       -0.00013512501 -0.04572795 0.0060164453 -0.016758379
000320 6f 9e 82 3c f4 b7 09 bd 17 87 b8 bd 4b f5 98 bd
       0.015944688 -0.033622697 -0.09010141 -0.07468661
000330 4a 41 ca 3b d5 b4 96 3d 25 e7 11 bd c9 e0 e7 3b
       0.006172334 0.0735871 -0.035620827 0.007076357
000340 4b 85 2f bc c8 6a 15 3d 84 ad f9 3d 50 4e ec 3c
       -0.010712932 0.036478788 0.121912986 0.028845936
000350 ad d2 98 3d 4a 22 94 3b 0c aa 6e 3d a5 cd 3e 3d
       0.07462058 0.004520689 0.058267638 0.046582837
000360 30 0c ad 3d b6 e6 13 3d 5f 62 54 3c 7a 66 83 3d
       0.0844959 0.036108695 0.012962907 0.0641603
000370 90 b8 10 3e e2 d1 e2 3d 26 be d1 3d 51 2e 75 3d
       0.14132905 0.11075188 0.10241346 0.059858624
000380 08 24 aa 3d 1d f1 c4 bd e4 21 ff bd 6b 20 4b bd
       0.08307654 -0.09616301 -0.12457636 -0.049591463
000390 ae f8 cf 3d 34 01 0e 3e 25 ce a7 bd 9a 08 49 bd
       0.10154854 0.13867646 -0.08193616 -0.04908047
0003a0 8c 0d 5f bc ff 96 6c 3d f6 7e e9 3d a7 92 bb bd
       -0.01361407 0.05776119 0.11401169 -0.09158831
0003b0 1e bc ac bc e6 5c 1b bd 52 e1 21 bd 68 30 08 3b
       -0.021085795 -0.03793039 -0.039521523 0.0020780805
0003c0 9d 92 cc bd db a6 83 bc 4c dd 71 bd ca 36 5a 3b
       -0.09988902 -0.016070774 -0.059048936 0.0033296817
0003d0 14 48 aa 3a b6 1a 08 be b4 38 93 bd 41 cb b8 bc
       0.0012991452 -0.1329144 -0.0718855 -0.022557857
0003e0 88 fe 99 3c 21 02 27 3d 47 35 36 3e 8b ff 50 3e
       0.018798128 0.040773515 0.17793761 0.20409982
0003f0 b1 7a 0a 3e dc 1a 13 3c 94 f5 0a be e6 4c 63 3d
       0.13523366 0.008978572 -0.13570243 0.055493258

features.fc1.bias f4 [120]
000000 b0 f5 28 be 09 ca d1 bd b4 bc db bd 6b 33 d1 bd
       -0.16499972 -0.10243613 -0.10729352 -0.10214885
000010 78 46 34 3d 0a 8c db 3c 6c 7d 75 bd ee 7d 62 bd
       0.044012517 0.026800174 -0.059934065 -0.055295877
000020 2c b6 3b 3e f0 8b 6d 3b 71 44 77 3d 78 03 c4 3b
       0.18331212 0.003624674 0.060368005 0.005981859
000030 4a 22 dd be 9d 37 06 bd 24 7c 07 be c0 e9 1a be
       -0.43190223 -0.03276788 -0.1323095 -0.15128231
000040 50 d2 1c bd e0 14 25 bd 4c 19 c1 bd f5 49 2d 3e
       -0.038286507 -0.04030311 -0.09428653 0.16922744
000050 a6 3a b4 3d d8 24 77 3c ac fd 86 bd 29 b4 93 3e
       0.08800249 0.015084468 -0.06591353 0.2884839
000060 52 8e f1 3b 5a 77 a3 3e e9 9f 03 3e d8 1d 9c bc
       0.007371702 0.31926996 0.1285397 -0.0190572
000070 13 33 21 3e ac c6 8f 3d 01 05 04 3d f9 6b 11 3e
       0.1574214 0.070203155 0.032231335 0.14201345
000080 af 56 27 3d 82 cb 15 bc dd 34 63 bc 34 66 61 3d
       0.040854152 -0.009142758 -0.013867584 0.05502911
000090 8e 47 1c 3d d5 b5 9f bc 35 72 73 3c 10 18 69 3e
       0.038154177 -0.019495884 0.014858772 0.22763085
0000a0 9f c0 98 3d c8 02 40 3e c4 0e ea 3d 32 04 95 3d
       0.074586146 0.18751061 0.114285976 0.07276191
0000b0 38 58 da bc 90 7f 34 3d a3 b9 1c be 06 7d cd 3d
       -0.026653394 0.044066966 -0.1530519 0.10033612
0000c0 5a 58 2b 3d 10 2d 43 3d 63 ca af bb b8 01 93 bd
       0.041832305 0.047650397 -0.0053647025 -0.07178062
0000d0 21 41 3c 3e 55 f6 aa 3d 62 27 11 be 29 e4 41 3d
       0.1838422 0.08347765 -0.1417518 0.04733673
0000e0 0f f4 37 bd de 97 40 3e fa ad fc bc 55 13 66 3c
       -0.044910487 0.18807933 -0.030844677 0.014042695
0000f0 fb ff d0 bd de 32 55 3e 39 4e 15 3e c1 79 06 be
       -0.102050744 0.20820186 0.14580621 -0.13132383
000100 af 1c 92 3d fa 25 76 3c 15 62 a7 3c 68 d5 38 3e
       0.07134377 0.015023703 0.020432511 0.18050158
000110 71 12 b2 bd eb fd 82 be 36 c8 8b 3b c9 fc 0c 3e
       -0.08694924 -0.2558435 0.0042658104 0.13768305
000120 39 f7 21 bb ea 44 c0 3d b9 59 e4 bd d7 f2 2f 3d
       -0.0024714007 0.09388144 -0.11149926 0.0429562
000130 12 91 c8 bd 6c cc eb 3d 9a 9a 6d be 31 53 d3 bd
       -0.09793295 0.115136 -0.23203507 -0.10318602
000140 d3 74 ee bd d4 03 46 bc 52 9f 8b bd 6a 61 d9 3d
       -0.11643376 -0.012085874 -0.06817497 0.106142834
000150 4e 82 23 be 5c 13 94 3d 3d fe 6b bc 00 25 9d bb
       -0.15967676 0.07230255 -0.014403877 -0.0047956705
000160 ac 82 cf bd 4f 1b 18 3c a6 73 6d 3d 95 11 d0 bc
       -0.101323456 0.009283855 0.05797162 -0.025399009
000170 da ea 7a 3e 6e f7 58 bd 2b 60 2b 3d 4d 94 57 3d
       0.24503651 -0.052970342 0.04183976 0.052631665
000180 de ce cf bd fe 8f 3b be dc d5 ae 3d 83 8e 85 3c
       -0.10146879 -0.18316647 0.08536884 0.016303306
000190 00 a2 3a bd 55 f0 82 3d fe 1c a0 bd bb f1 ec bc
       -0.04556465 0.06393496 -0.0781803 -0.02892386
0001a0 c7 05 39 3e 69 5b 18 3c e1 23 e4 bd 51 19 0a 3e
       0.1806861 0.009299138 -0.11139656 0.1348622
0001b0 48 b2 5a 3d 69 8b de bd fe 88 63 bd 6a 3f 15 3d
       0.05339268 -0.10866434 -0.055550568 0.03643743
0001c0 17 c6 64 3d 4c a5 0b bd 1d b2 35 be 67 86 18 bd
       0.055852976 -0.034093186 -0.17743726 -0.03723755
0001d0 69 e0 d7 3d b8 03 94 3d 29 83 9b bd c1 9c 1a 3e
       0.1054085 0.07227272 -0.07593376 0.1509886

features.fc2.weight f4 [84, 120]
000000 0a b9 82 bd 19 89 78 3d 80 18 63 37 3a 68 fc bc
       -0.0638295 0.06067762 1.3535959e-05 -0.030811418
000010 a2 48 88 bd 97 11 69 bc 95 8f 10 be d3 85 40 bd
       -0.066544786 -0.014225385 -0.14117272 -0.047002625
000020 7d 2e 24 3e e3 e9 1b bd 75 ed 01 3c ed aa 09 3e
       0.16033359 -0.03806485 0.007930149 0.1344411
000030 18 d0 6b 3c 8a b8 85 bd 0f fe c8 ba e4 80 c1 39
       0.014392875 -0.06529339 -0.0015334504 0.0003690786
000040 bc 48 23 3a 94 bf 85 3a f0 7d de bd bf 3c 13 3d
       0.0006228795 0.001020419 -0.108638644 0.035946604
000050 71 5f a3 bd af d7 9e 3d 1b 02 65 bd 22 06 48 3d
       -0.079771884 0.07755982 -0.05591021 0.048833974
000060 96 fe 1b bd b1 65 ab 3d 9d e9 f3 3d 58 d2 9c 3d
       -0.03808459 0.083690055 0.119097926 0.076573074
000070 3a da e4 bd fb 16 46 bd c0 af 3e bd 33 a9 9e 3d
       -0.11174436 -0.04836176 -0.046554327 0.07747116
000080 de 5a d0 bd fd f8 a8 3d c8 c9 2a 3d 31 78 e9 bd
       -0.101735815 0.08250616 0.04169634 -0.11399878
000090 c0 f0 88 bd 17 3b ee bd 18 2b 6f 3d 34 1c 5a 3d
       -0.066865444 -0.11632364 0.058390707 0.053249553
0000a0 ca 27 8b 3c 60 56 c5 3d 3b 0f aa bc 0a f7 ae bd
       0.016986746 0.09635615 -0.020759216 -0.08543213
0000b0 ce d7 f5 bd 2c 40 28 3d f5 5b 17 3d 2a 6a ff bd
       -0.12004052 0.041076824 0.03695293 -0.12471421
0000c0 30 a0 cf 3d 32 cd 98 3d eb 1c 9e bd 5f 7f bf bd
       0.10137975 0.07461013 -0.077203594 -0.09350466
0000d0 e0 1e e1 3b 6f f7 61 bc 5f 17 78 bc 6a 3a dc 3c
       0.0068701357 -0.013791903 -0.015142291 0.026883323
0000e0 c7 24 80 3d 7f b1 6f bd f0 5f eb bb f9 6b 0d bd
       0.06257015 -0.058518883 -0.0071830675 -0.0345268
0000f0 16 d1 49 bd fe e0 84 bd a2 ea 54 be b1 e1 32 bc
       -0.049271666 -0.06488226 -0.2079263 -0.010918067
000100 53 cd af 3c 02 3c bd bd 75 25 db 3c 0a 12 0d bd
       0.02146021 -0.09239961 0.02675126 -0.03444103
000110 21 0f 7d bd ae 7b b0 bc 39 63 28 3b 81 43 6b 3d
       -0.061782006 -0.02154335 0.0025693907 0.057437424
000120 ce 22 66 3d 25 ca e6 3d ba d2 5e 3d 25 44 0e be
       0.056185536 0.11269025 0.054400183 -0.13893183
000130 14 f5 ea 3c 50 5f 62 b9 9d f5 a0 3c db a3 75 bc
       0.028681315 -0.00021588546 0.019648368 -0.0149926795
000140 6e 93 3a bd bb 80 90 3d b4 cd 2b bd 7e 9a 5b bc
       -0.045550756 0.070558034 -0.04194422 -0.013403533
000150 0c 85 75 3d e6 ee 8a 3d 04 fa a9 3c 50 ff 81 bd
       0.059941337 0.067838475 0.0207491 -0.06347525
000160 9a 0b 85 3c 1e 1e ef 3c 5a 2c ee bd be 06 d2 bd
       0.016240884 0.029189166 -0.11629553 -0.10255192
000170 78 d9 4c 3b dc 69 fb 3c 05 fb a1 bd b8 e3 a8 bd
       0.003125755 0.030690126 -0.07909206 -0.08246559
000180 cc 38 69 bd 68 fa 84 3d 5e e6 a3 bd 35 62 1c bc
       -0.05693893 0.06493074 -0.080029234 -0.009544899
000190 1e 8c cd bd 31 bb 19 3d 84 3d 51 bc 71 08 17 3d
       -0.10036491 0.037532035 -0.012771014 0.036873285
0001a0 47 d5 32 bb b6 38 a2 bd 12 0f a8 bd ae 23 17 3e
       -0.0027287768 -0.07920973 -0.082059994 0.14759704
0001b0 3f 36 60 3d 92 c0 7e 3c 82 5d 0e 3d de 7e 3f 3c
       0.054739233 0.015548842 0.034757145 0.011687962
0001c0 1b be 66 bd 9c 0c bf bd 62 3c b5 3d 6a 47 06 bc
       -0.056333642 -0.09328577 0.08849408 -0.008195737
0001d0 92 cd 7a 3d 52 f1 09 bd fd cc f2 bd de 1c a2 bd
       0.061231203 -0.033677407 -0.11855505 -0.07915662
0001e0 f8 73 cb bd 68 29 40 bd 4e 71 3d bd 74 20 07 3e
       -0.09934229 -0.046914488 -0.046250634 0.13195974
0001f0 5f d5 c0 3c 9a 9e f9 3c 68 6c 04 be 60 bb 8f 39
       0.023539243 0.030471135 -0.12931979 0.0002741469
000200 5f f8 c1 3d 01 59 66 bd 2b 13 2e be 2e 44 30 3d
       0.09471201 -0.056237224 -0.169995 0.04303377
000210 6f ae a5 bd b5 c1 c8 3c 94 e4 6d 3d 0e b7 80 bc
       -0.08089911 0.02450643 0.058079317 -0.015712287
000220 9a 6f 90 bd ee a7 b0 bd 06 db be 3c 68 03 2f bd
       -0.07052536 -0.0862578 0.023297798 -0.042727858
000230 d0 73 db bc c0 df 8c 3d 38 f7 b0 bc 6d 9a b5 bd
       -0.026788622 0.068786144 -0.021602258 -0.08867345
000240 f3 f0 e5 bc 85 7a cb 3c b2 91 e0 bc be 15 62 3b
       -0.028068995 0.024838695 -0.027413223 0.0034497823
000250 c0 eb 4e bd fb ac 2b 3d ab 7a 62 3d 8a 3c c3 bd
       -0.050517797 0.041913014 0.055292767 -0.09533031
000260 52 6f 0c bd 43 86 5d bb ae 1c 8e 3d ac 5e 17 3e
       -0.03428585 -0.003380195 0.06939064 0.14782208
000270 80 61 11 bd 12 a8 09 be f4 8f aa bd 6b 27 76 3c
       -0.035493374 -0.1344302 -0.08328238 0.015024046
000280 a0 24 11 3d d5 74 31 bc 5c da f5 3d c2 ed af bd
       0.03543532 -0.010831078 0.12004539 -0.085902706
000290 26 30 03 be 6b 4a 92 3d cc d7 f1 3d 54 07 00 3e
       -0.12811336 0.071431 0.11808738 0.12502795
0002a0 06 3a 25 bc 5b 18 4b 3d 38 de 80 bc 6e 31 0f bc
       -0.010084635 0.049583774 -0.015730962 -0.008739812
0002b0 9e a0 67 bd c6 e4 4d 3d 30 fc 7f bc cd 0c ea 3c
       -0.05654966 0.050267003 -0.015624091 0.028570557
0002c0 ab b4 98 3d 6d 1f 83 3c 78 0b d3 bd b0 46 bd bd
       0.07456335 0.016006196 -0.10304922 -0.09241998
0002d0 50 e3 04 be c6 86 87 3d 24 84 05 3d 0e 90 2a bd
       -0.12977338 0.06617503 0.032596722 -0.041641288
0002e0 c1 92 9a 3b ce e0 0a bc a4 fc 93 3d 26 d2 21 bc
       0.0047172015 -0.008476449 0.07225922 -0.009876763
0002f0 4b 3e 06 be 12 56 dd 3d ea 2e 3e 3c 13 63 07 be
       -0.131097 0.10807432 0.011607865 -0.13221388
000300 74 46 ed bc be fb 03 be fa 3e 7f 3b e9 c3 03 bd
       -0.028964259 -0.12889001 0.003894745 -0.032169256
000310 f7 fd 2c 3d b5 da 3b 3b 4a 57 bd 3d 33 ae 19 bd
       0.042234387 0.0028664295 0.09245165 -0.037519645
000320 ca 68 29 3d e4 b2 d2 3d b2 3b b1 3d e0 69 11 be
       0.0413597 0.10288027 0.08653964 -0.14200544
000330 1a 7c eb 3c a2 2e 1b bd 4e 20 d1 3c 89 9d 03 bd
       0.0287457 -0.03788627 0.0255281 -0.03213266
000340 52 2f 16 3d 09 0c 52 be 1c a3 b1 bd 52 4a f5 bc
       0.036666222 -0.20512404 -0.08673689 -0.029942665
000350 00 18 ed bc 85 91 08 bc 87 1d b6 bd c9 c4 7b bd
       -0.028942108 -0.008335476 -0.08892351 -0.061466966
000360 7e 6e d0 bb ad b8 a3 3d f7 7a 29 3d 01 5c 55 3d
       -0.006360828 0.079942085 0.041377034 0.052089695
000370 af ab 51 bd f4 f8 92 bc 7a a9 8f bd de 7b c0 3d
       -0.05118912 -0.017940976 -0.07014747 0.09398626
000380 3d 3c a5 bd ad 10 8b 3d a4 eb 0a be 8c 25 d2 bd
       -0.0806813 0.0679029 -0.13566452 -0.10261068
000390 62 f8 1e be f4 6d 36 bd 02 85 89 bd 8d 2b 0c be
       -0.15524438 -0.044538453 -0.06714822 -0.13688488
0003a0 f2 f5 be bd ad b5 43 3d 26 09 73 3d a8 ae 88 3c
       -0.09324254 0.04778068 0.059334897 0.016684845
0003b0 e3 ee 4e bc ab ad a8 bb ec 66 7d 3d a2 e2 7c 3d
       -0.012630197 -0.005147656 0.061865732 0.06173957
0003c0 8a ec e1 3d c8 40 a5 3d 27 5d da ba 6a 94 00 bd
       0.11031444 0.08068997 -0.0016659842 -0.03139154
0003d0 fc 8b 04 be 1b 5c ae 3d 3c 4a 9a bd 19 88 8a bd
       -0.12944025 0.085136615 -0.0753369 -0.0676424
0003e0 b1 56 b5 bd fc 8c 09 be 22 eb 81 3d b8 31 92 bc
       -0.08854426 -0.13432688 0.06343676 -0.017845973
0003f0 5a de 08 3d 75 bb e9 bd cd bb 11 be 57 58 b4 bd
       0.033415176 -0.11412708 -0.14231797 -0.08805912

features.fc2.bias f4 [84]
000000 b4 9c fa 3e 97 3e f6 3c 2c 50 8a 3e 0d 4d 83 3e
       0.4894768 0.030059142 0.2701429 0.25644723
000010 f8 e2 a7 3e 26 f0 33 bd dc 81 78 3d db b5 11 3d
       0.3279035 -0.043930195 0.06067072 0.03557382
000020 0a fd 32 be 5c d3 93 3c 7b ee 91 3e 45 04 0c be
       -0.17479339 0.01804512 0.2850226 -0.13673504
000030 58 bf 1e 3c 33 5e a6 3e 28 55 cc bc da eb f8 be
       0.009689175 0.32493743 -0.02494295 -0.4861744
000040 f5 e6 18 be 6e 83 3e be 83 95 34 3f b8 2e e3 3e
       -0.14931853 -0.18604824 0.70540637 0.4437158
000050 4f 63 67 bd c4 d7 c4 3e 2c c9 4a be 2c 83 cd 3b
       -0.056491192 0.38445866 -0.19803303 0.0062717404
000060 1b e9 11 3e b4 cf 31 be 27 3f 84 3e df d8 66 3e
       0.14249079 -0.17364389 0.2582943 0.22543667
000070 3c 19 89 3e fd d6 b4 3e 32 4e cf 3d a7 ba 11 bd
       0.26777065 0.35320273 0.101223364 -0.035578396
000080 50 c0 34 3e 8d e4 22 be e8 63 bc bd da b1 c2 bd
       0.17651486 -0.15907498 -0.09198743 -0.09506579
000090 6c 56 a0 be 49 9e 8e 3d 70 7c 64 3c 58 c4 9d 3e
       -0.31315935 0.06963784 0.013945684 0.3081386
0000a0 a6 b3 e4 be 8d b4 ae be b2 68 9a bd 81 15 00 3f
       -0.4466831 -0.34122124 -0.075395 0.5003281
0000b0 bd 8e 96 3b b5 77 27 3e 5f 4e 75 3e c4 fe 2a 3e
       0.0045946524 0.16354258 0.23955677 0.16698748
0000c0 c6 5b a2 bd 7e a7 30 3d b6 f0 3a be 35 52 9e bc
       -0.07927661 0.043128483 -0.18255886 -0.019326309
0000d0 f5 f0 a0 be 6f ce b5 3c be 11 36 3e 6a 4c 42 3e
       -0.31433836 0.022193162 0.17780206 0.18974462
0000e0 2d af 17 3f f3 4b 91 3e 2a f7 d9 3d 60 06 c8 bc
       0.5925167 0.28378257 0.10642846 -0.024417102
0000f0 5a a2 e4 3e 80 5a 95 3e 2e 9c cc 3e 84 f7 10 be
       0.44655114 0.2917061 0.39962906 -0.1415692
000100 8c 29 d0 bc ff b3 89 3e 60 0c f2 3e da 28 84 3e
       -0.025410436 0.2689514 0.47275066 0.25812417
000110 2d 73 7e be 36 ca 13 be 08 dc 13 be ae f6 ff 3e
       -0.24848624 -0.14432606 -0.14439404 0.4999289
000120 3c a3 a9 3e f6 58 9a 3b 56 23 15 3e be fc e7 bd
       0.3313235 0.004710312 0.14564261 -0.113275036
000130 50 b3 ed 3d 5a e9 5b 3d 15 ca 2a 3d 38 21 87 3e
       0.11606467 0.05368934 0.041696627 0.2639253
000140 4d ac cb bc dc 11 f7 bd 3a f5 89 be e4 6e b7 be
       -0.024862433 -0.12063953 -0.26944906 -0.3582679

l1.weight f4 [84, 84]
000000 6a 83 90 bd c2 d8 8c bd 34 66 05 be 98 b2 d4 3d
       -0.07056315 -0.06877281 -0.13027269 0.103856266
000010 95 05 ff 3d 75 d6 24 bc fe bc dd bd 83 fd 14 bd
       0.124522366 -0.010060896 -0.10827063 -0.03637458
000020 d6 5b ee bd c2 fe ac bd be 3a 63 bb 52 cd 1d be
       -0.1163861 -0.08447029 -0.0034672464 -0.15410355
000030 e6 94 5f 3d ba a3 ef 3b 2d a0 67 bc 46 b3 02 be
       0.05458536 0.007313219 -0.01413731 -0.127637
000040 72 59 88 3d 38 0d 26 bc 26 dd 8c 3d 04 1f a7 bc
       0.06657685 -0.0101349875 0.06878118 -0.020400532
000050 e0 24 2d 3c c5 e0 98 3d d8 dd b9 bd 4f 25 8d 3d
       0.010567874 0.074647464 -0.090755165 0.06891882
000060 29 48 42 3c b4 21 d2 3d 72 3b d3 bc 5d c6 15 bd
       0.011858025 0.102603346 -0.025785182 -0.036566127
000070 2f 76 d5 bd be 19 25 bd 5c e0 de bc 72 9f cf 3d
       -0.10422932 -0.040307753 -0.027206592 0.10137834
000080 61 40 b2 3c e4 5f b6 b9 fe 49 39 3d 61 f2 be bd
       0.021759214 -0.0003478519 0.04523658 -0.09323574
000090 ca 9b a3 bd 1d ee 22 be 50 ea c6 bd 64 71 bb 3c
       -0.07988699 -0.15911146 -0.0971266 0.022881217
0000a0 a5 37 09 3d a0 8a 92 bd d7 57 ae bd 1e 28 0a 3e
       0.033500332 -0.07155347 -0.08512848 0.13491866
0000b0 12 bd 8f 3d db ec 49 bc b9 c1 5f 3d fb f1 b5 bc
       0.07018484 -0.012324537 0.054628108 -0.022210112
0000c0 82 b2 f0 3b 7c a3 2a 3d 61 be 18 be dc c3 a7 3c
       0.0073454985 0.041659817 -0.14916374 0.020479135
0000d0 d4 97 00 3e 62 64 a5 3d ed 6f f1 bd f7 6f 24 be
       0.12557918 0.08075787 -0.11788926 -0.16058336
0000e0 a7 bb e7 bd ae 3e 15 be 00 23 c0 bd 96 ec 97 3c
       -0.11315089 -0.14574692 -0.09381676 0.01854543
0000f0 26 97 19 bd 18 19 75 3d 06 5d 74 3d 09 e5 ad bd
       -0.037497662 0.059838384 0.059659027 -0.084909506
000100 c7 35 2d 3d 86 56 a4 bd 7b 31 3e be d5 21 df 3d
       0.042287614 -0.080243155 -0.18573563 0.10895125
000110 56 09 fb 3d 9e 18 e0 bd 6d 74 a6 3d 8f 29 c7 3d
       0.1225764 -0.10942195 0.08127675 0.097247235
000120 ad 09 06 3d e2 f2 b6 bd b0 1c eb 3c b5 0b 9f 3d
       0.03272407 -0.08933045 0.028700203 0.07765905
000130 d2 d7 40 3d 71 ed 84 bb 62 89 ec 3d ac 03 48 3b
       0.047080822 -0.0040566255 0.11549641 0.0030519767
000140 66 be f9 bd 88 78 96 3d 86 b3 87 bb 45 55 c4 bd
       -0.12194519 0.07347208 -0.004141274 -0.09586576
000150 2d f7 fd ba c2 83 97 3d db b4 75 3b e7 64 88 bd
       -0.0019376032 0.07398178 0.0037491831 -0.066598706
000160 e1 23 63 3d 2b b5 08 3b 67 20 1f bd 35 71 9c 3d
       0.05545414 0.0020859938 -0.03884926 0.0763878
000170 59 c9 bc bc 9d d7 a4 bd 83 22 05 3d 61 9a 90 3d
       -0.023045229 -0.080489375 0.032503616 0.070606954
000180 02 40 bb bd 92 e2 bd bd 4c 1d 65 3b 2c a3 c9 bc
       -0.09143068 -0.092717305 0.003496009 -0.02461394
000190 4f 03 ba bd cf c2 d7 bd e6 71 2e bd d4 7d d6 3c
       -0.09082662 -0.10535204 -0.04258909 0.026183046
0001a0 0b 40 cf bc 19 13 af bc d8 a8 85 bd a0 2a cc bc
       -0.025299093 -0.021371411 -0.06526345 -0.024922669
0001b0 c5 01 9f 3c e6 7f 3e bb 22 d0 ea bd 56 49 03 be
       0.019410023 -0.0029067933 -0.114654794 -0.12820944
0001c0 ab 1b 6b 3d 39 80 a3 3d b9 a8 e8 bb 28 ac b0 3d
       0.057399433 0.07983441 -0.0071001914 0.08626586
0001d0 fa bb f8 bd 9b af 5c bd 0a 8c 83 bd 44 08 00 be
       -0.12145229 -0.053878408 -0.06423195 -0.12503153
0001e0 a0 69 59 bd 51 f5 05 be 3f d1 2a 3d c7 1a d2 3d
       -0.053079247 -0.13081862 0.04170346 0.102590136
0001f0 a2 c9 5b bc 8f 4e 63 bd ee 7d 6b 3d 5e c5 c7 3d
       -0.013414772 -0.05549484 0.057493143 0.09754442
000200 52 f8 8b 3d a9 01 5d bc c9 d2 31 bd a2 95 3b bd
       0.06834473 -0.013489165 -0.04341391 -0.045796998
000210 a3 44 9a 3d fa 38 d5 bd b0 71 e9 bc 2c 28 73 3d
       0.07532623 -0.10411258 -0.028496593 0.059364483
000220 f8 0c 37 b9 a4 25 8c 3d 43 ee 0c 3c 10 b3 4e 3d
       -0.00017457071 0.06843117 0.008601728 0.050463736
000230 00 7e 02 be 20 ee 06 be 11 00 7c 3d dd 78 c7 bc
       -0.12743378 -0.13176775 0.0615235 -0.024349624
000240 8c 47 82 3d 8f 25 0a 3e 46 eb 8c bd 1c 54 83 bd
       0.06361303 0.1349089 -0.06880812 -0.06412527
000250 ee 63 50 3c 0a 23 d9 bd 3d e8 97 bd bd e0 05 3d
       0.012719138 -0.10602386 -0.07417343 0.03268503
000260 bd a5 f4 bc 0e 28 8d bd 10 9b e9 3c 8a 1b b5 bd
       -0.029864186 -0.068924055 0.028516322 -0.08843143
000270 4b 81 49 3d ee d4 9f bd 33 3d 9d bc 0e da 8f 3c
       0.04919557 -0.07804285 -0.019194221 0.017560031
000280 4c 50 be bd 0b 00 52 bd ec 61 2b bc 5d af d2 bd
       -0.09292659 -0.051269572 -0.010460358 -0.10287354
000290 5d 25 91 bd dc 63 44 bd 16 16 d3 bd a8 65 fb bc
       -0.070872046 -0.047946796 -0.10306947 -0.030688122
0002a0 1d 7c 06 3e ef 23 8f bc 94 1b da bd 6d f1 8b bc
       0.13133283 -0.01747319 -0.10649791 -0.017082894
0002b0 b3 ef c6 3c 7c 05 80 3d df d2 18 bd de 89 c5 bd
       0.02428422 0.06251046 -0.037310477 -0.09645437
0002c0 ed b5 08 be ce 26 66 bc 1f 14 eb bb e1 09 d4 bc
       -0.13350649 -0.014047338 -0.0071740295 -0.025883617
0002d0 c4 47 4d bd 35 7f b6 3d 9c 1e 85 bb 00 78 a5 bc
       -0.05011727 0.089109816 -0.004062487 -0.020198822
0002e0 fa 2d cd bc c5 1c 55 3d 0f 86 a8 bd 6d db d1 3d
       -0.025046337 0.05202939 -0.08228695 0.1024693
0002f0 4f c0 3d bd 52 4e 23 3d dd ab 15 bd bc 98 e2 bd
       -0.046325978 0.039869614 -0.036540855 -0.11064288
000300 65 b5 d7 bd f3 d0 e8 bc 66 1e 90 bc 98 b8 cb bd
       -0.10532645 -0.028419947 -0.01759262 -0.09947318
000310 c2 1f e1 bd 0b 51 8f bc 88 59 96 bd 7e 7e bb 3d
       -0.109923854 -0.017494699 -0.073412955 0.09154986
000320 ac e6 8d 3c b8 fc 40 bd 4d 72 c4 bd 05 d2 79 bd
       0.017321907 -0.04711601 -0.09592114 -0.060991306
000330 d9 30 54 3b c1 d9 74 3c e4 f2 b5 bd b1 4d 29 be
       0.0032377748 0.014944495 -0.08884218 -0.16533543
000340 66 c0 1c bd e0 be c4 bb 7d e0 53 bd 43 f2 57 3d
       -0.038269423 -0.0060041994 -0.05172776 0.052721273
000350 77 fc 82 3d 6a 01 41 3e 00 6d a5 3d a4 b4 d7 bd
       0.0639581 0.18848196 0.08077431 -0.10532501
000360 02 45 49 3c b6 82 d3 bd 60 7f 4a be ab 9a 9d bd
       0.012284519 -0.103276655 -0.19775152 -0.07695516
000370 f8 8b 52 3d e7 a8 fb bc 34 e7 43 3d 18 93 d6 3b
       0.051403016 -0.030720187 0.047827914 0.0065482967
000380 82 f2 03 3e 5d c0 b4 bd 26 7d ce bd 92 3b 10 bd
       0.12885478 -0.08825753 -0.10082464 -0.03521306
000390 3a bf 3b bd 64 cc 94 3d 25 b4 d2 3c 2c f3 d4 bc
       -0.045836665 0.07265547 0.025720665 -0.02599486
0003a0 b4 07 f2 3d 96 b9 61 bd 0f 42 23 3d 7d 9a ae 3d
       0.118178755 -0.05510863 0.03985792 0.0852556
0003b0 65 f6 8a bd 7b 35 b3 3c 61 89 c2 bc e2 bb 14 3c
       -0.06785277 0.021876087 -0.023747148 0.009077998
0003c0 7e 8b 80 3c ea 0f 58 bc b8 88 16 bd 54 84 7f bd
       0.015691515 -0.013187388 -0.03675148 -0.062382057
0003d0 d2 f0 76 bd b0 c5 40 3d f0 e2 b8 3d 05 82 5c 3d
       -0.060288258 0.04706353 0.0902766 0.053834934
0003e0 e4 23 fa 3c de 52 83 3d 0b 01 45 bc 75 79 92 bb
       0.030534692 0.0641229 -0.012024174 -0.004470045
0003f0 b5 51 18 3e 08 52 29 3d d7 4c 71 bc 29 4f 76 3d
       0.14874919 0.041337997 -0.014727793 0.060134087

l1.bias f4 [84]
000000 c3 a0 81 3d a2 ff 24 3a eb bb 44 3f ba 97 30 bb
       0.06329491 0.0006294196 0.7684924 -0.0026945905
000010 82 0c 14 3e a9 bf 4d 3e cb 00 d1 3e 32 37 17 3e
       0.14457896 0.20092644 0.40820917 0.14767149
000020 bf c5 b1 3f 47 79 72 3e d2 84 7b 3e 87 c2 27 3f
       1.3888472 0.23679076 0.24562386 0.655312
000030 92 4d ac 3e 3e 41 08 3b 65 30 1c 3f fb c5 cf 3d
       0.3365293 0.002079084 0.61011344 0.10145184
000040 2a e0 0b 3f 2b 38 56 bc 3b bb 34 3f 1f 77 02 3e
       0.5463892 -0.013074915 0.7059819 0.12740754
000050 4e b2 8b 3e 08 fa 46 3d e9 54 8a 3e e2 c6 c2 3e
       0.27284473 0.048578292 0.27017906 0.3804236
000060 ae 54 c1 3d b0 53 18 3f fb 8b 37 3f be da c9 bd
       0.094399795 0.59502697 0.7169797 -0.09856175
000070 a8 9b 2b 3f e6 93 dc bb 46 f9 cb 3d a4 28 6e 3e
       0.6703439 -0.006731498 0.099596545 0.2325769
000080 d8 f7 1d 3f 0b 78 5e 3f f6 7f cc 3e 5e e5 83 3f
       0.61706305 0.8690192 0.39941376 1.0304372
000090 63 09 2d 3e 0a 7c 43 3d dc c9 08 3e b7 a6 86 3e
       0.16898112 0.047725715 0.13358253 0.26299068
0000a0 bc d2 5a 3e 7a 63 30 bd 69 4e 60 3e 54 e6 32 bd
       0.21369451 -0.04306362 0.21904911 -0.04367669
0000b0 65 81 a4 3b 19 49 1a 3f a5 a8 2f 3d 36 ae c3 bc
       0.005020308 0.6026779 0.04288544 -0.023886781
0000c0 59 01 59 3f c6 f2 e1 3e d6 05 8e 3e a5 f0 9d 3e
       0.8476768 0.44130534 0.27738827 0.3084766
0000d0 4d 68 95 3e 42 46 98 bd 9a 95 34 3f e1 68 c6 3d
       0.29181138 -0.074352756 0.70540774 0.09687973
0000e0 d4 06 27 3f 93 c2 4b 3e 8a 7e 25 3f 57 2f c2 bc
       0.65244794 0.19898443 0.6464621 -0.023704214
0000f0 c3 fc ff 3d 93 01 f9 3e 2d 9a bf 3e 75 c5 b8 bd
       0.12499382 0.48634014 0.37422314 -0.09022037
000100 72 d0 9d 3d 4c 94 1d bd d9 88 04 bd 9e 3d 2c 3e
       0.077057734 -0.038471505 -0.03235707 0.1682038
000110 5d 84 3c 3f 47 f1 06 3e eb a0 49 3f 14 c0 4b 3f
       0.7363947 0.13177978 0.78761166 0.7958996
000120 4a 2d 50 3c 84 ef ba 3d 49 d1 2e 3e a6 2c 5e 3e
       0.01270611 0.09127715 0.17072023 0.2169672
000130 47 64 e5 3e ac 44 28 3f b8 ee 99 3f b9 92 df 3d
       0.44803068 0.65729785 1.2025976 0.10916657
000140 f7 c4 dd 3e e8 d9 a4 3e 2b ac a1 bd 24 64 b7 3e
       0.43314335 0.321975 -0.078941666 0.3581859
