models/fedavg/globalmodelexperiment_log-2023-07-07-1918-00.pth (torch, 375691 bytes, 14 tensors)

features.conv1.weight f4 [6, 3, 5, 5]
0	0x3f918b84	1.1370702
1	0x3f8aea24	1.0852704
2	0x3f28f56e	0.65999496
3	0x3edd13b0	0.43179083
4	0x3e27bd74	0.16380864
5	0x3fa528e4	1.2903104
6	0x3f8b9394	1.0904412
7	0x3ee14032	0.4399429
8	0x3d8e9f42	0.0696397
9	0x3f005618	0.5013137
10	0x3f98065e	1.1876943
11	0x3f54e77e	0.8316573
12	0x3eb4996a	0.35273296
13	0x3df9205b	0.121643744
14	0x3ee0d74c	0.43914258
15	0x3f4db064	0.80347276
16	0x3f0c2241	0.5473977
17	0x3f0fb94e	0.5614213
18	0x3e3f2042	0.18664649
19	0xbc49280c	-0.012277614
20	0x3f001b18	0.5004134
21	0x3f0dced6	0.5539373
22	0x3f0fbe72	0.5614997
23	0x3cab8c35	0.02094088
24	0xbea9554c	-0.3307289
25	0x3fb3077c	1.3986659
26	0x3f98d2ee	1.1939371
27	0x3f7fdfea	0.9995104
28	0x3f36c74a	0.7139784
29	0x3ecbce0a	0.39805633
30	0x3fe508ac	1.7893271
31	0x3fe59be6	1.7938201
32	0x3f872bc8	1.0560236
33	0x3f214ab3	0.63004607
34	0x3f70f52d	0.9412411
35	0x3fe668fe	1.8000791
36	0x3fc0c83b	1.5061105
37	0x3f6851ea	0.9074999
38	0x3f679a36	0.9046968
39	0x3f8a31c0	1.0796432
40	0x3fccefac	1.6010642
41	0x3fa70942	1.30497
42	0x3f978026	1.1835983
43	0x3f603df6	0.87594545
44	0x3f2d2ff2	0.67651284
45	0x3fc27759	1.5192672
46	0x3fa01afb	1.2508234
47	0x3fa5988a	1.2937176
48	0x3f503ea8	0.81345606
49	0x3f04403f	0.5166053
50	0x3ebfe4a9	0.3747914
51	0x3e3d3e3d	0.18480773
52	0x3d83755b	0.06418868
53	0xbe2bd716	-0.16781268
54	0xbf0b83af	-0.5449781
55	0x3f8727f0	1.0559063
56	0x3f79956c	0.97493625
57	0x3dfa4550	0.122202516
58	0xbdc0fb04	-0.094228774
59	0x3e4a4098	0.19751203
60	0x3f91b184	1.1382298
61	0x3f5d7f3f	0.8652229
62	0x3eca6bfa	0.39535505
63	0x3e823bd7	0.2543628
64	0x3ef26451	0.4734216
65	0x3f9020f4	1.1260056
66	0x3f34b090	0.70581913
67	0x3f4fbffb	0.81152314
68	0x3ef1bddc	0.47215164
69	0x3e9f8126	0.3115322
70	0x3f6482da	0.89262164
71	0x3f49c048	0.7880902
72	0x3f72b340	0.94804764
73	0x3edbe064	0.42944634
74	0x3ded393b	0.115831815
75	0x3ea73948	0.3266089
76	0x3eab658c	0.33475912
77	0x3ea6d760	0.32586193
78	0x3ebdc427	0.37063715
79	0x3e150363	0.14552073
80	0x3e55da64	0.2088409
81	0x3f188f13	0.59593314
82	0x3f27db51	0.65569025
83	0x3ea8e79f	0.32989213
84	0x3e757c49	0.23973192
85	0x3e0304ac	0.12794751
86	0x3f3d1bd4	0.7387059
87	0x3f59d544	0.8509104
88	0x3ea40d0f	0.32041213
89	0x3e95a9ae	0.29231018
90	0x3f1d5d44	0.6147044
91	0x3f0d4424	0.551821
92	0x3eb7999f	0.3585939
93	0x3f0050de	0.50123394
94	0x3ea51c2a	0.3224805
95	0x3f24b530	0.6433897
96	0x3e4764da	0.19472066
97	0xbb6d4278	-0.0036202949
98	0xbda92e20	-0.08260751
99	0xbea70de6	-0.3262779
100	0x3e011031	0.12603833
101	0x3da981bf	0.082767
102	0x3e967572	0.2938648
103	0x3e61ed93	0.22063284
104	0x3e5afb75	0.21384986
105	0x3e0e2faf	0.13885377
106	0x3f06279e	0.524042
107	0x3f150531	0.58211046
108	0x3e6a7811	0.22897364
109	0x3e2c5035	0.16827472
110	0xbc0a7197	-0.0084499335
111	0x3f303b50	0.68840504
112	0x3f1f3778	0.62194014
113	0x3e801ce7	0.2502205
114	0x3e64675a	0.2230505
115	0x3ea92cba	0.33041936
116	0x3ed902b2	0.4238487
117	0x3eb8e5b1	0.3611274
118	0x3e93c25c	0.28859222
119	0x3ea9b76b	0.3314775
120	0x3ee62be3	0.44955358
121	0x3e4fdcc9	0.20299067
122	0xbe185e4f	-0.14879726
123	0xbe194ddb	-0.14971106
124	0xbe84f590	-0.259686
125	0xbf3814e1	-0.7190686
126	0xbf499038	-0.78735685
127	0xbf24cc5f	-0.64374346
128	0xbf4685a2	-0.7754766
129	0xbf43a9c1	-0.764309
130	0xbf45850b	-0.7715613
131	0xbed28021	-0.4111338
132	0xbe46bea8	-0.19408667
133	0xbf1ba7a3	-0.6080267
134	0xbf1e183f	-0.61755747
135	0xbf469724	-0.7757437
136	0xbe3ea3ec	-0.18617219
137	0xbd7c2dc8	-0.061567098
138	0xbf01bbbb	-0.5067708
139	0xbf09e3f5	-0.5386346
140	0xbefe33c5	-0.49648872
141	0xbebfd6ff	-0.37468717
142	0xbef9486d	-0.4868807
143	0xbeaf6973	-0.3426014
144	0xbebb842d	-0.3662428
145	0xbeb754bb	-0.35806832
146	0xbf36d6fc	-0.7142179
147	0xbf53b46d	-0.8269718
148	0xbf2fbf94	-0.686517
149	0xbf5cd70c	-0.86265635
150	0x3f24f8db	0.64442223
151	0x3f20f18c	0.6286857
152	0x3f4453d1	0.76690394
153	0x3f35b49f	0.7097873
154	0x3f639f63	0.8891508
155	0x3ea88271	0.3291202
156	0x3e724830	0.2366035
157	0x3f0d511a	0.55201876
158	0x3ec2e517	0.38065407
159	0x3ee3079c	0.44341743
160	0x3d95f738	0.07322544
161	0xbc608302	-0.01370311
162	0x3e90e1dc	0.28297317
163	0x3e8ad2ff	0.27114102
164	0x3eb3c68e	0.35112423
165	0xbd096093	-0.033539366
166	0x3db36a12	0.08760466
167	0x3e97ff9d	0.29687205
168	0x3e14bb2e	0.14524528
169	0x3e8b59be	0.27216905
170	0xbd01e7e8	-0.031715304
171	0x3e02dbb1	0.12779118
172	0x3ed9af5e	0.42516607
173	0x3ebb744e	0.3661217
174	0x3ee657b9	0.44988802
175	0x3e897d15	0.26853243
176	0x3eb7ed43	0.35923204
177	0x3efd2586	0.4944269
178	0x3ef40852	0.47662598
179	0x3f0ef65f	0.5584468
180	0x3eaa9010	0.33313036
181	0x3df43e8e	0.11925994
182	0x3ef2a8b5	0.47394338
183	0x3e4b6809	0.19863905
184	0x3e533788	0.20626652
185	0x3ea2cfa2	0.31799036
186	0x3dd47168	0.10373193
187	0x3e5b30ab	0.21405284
188	0x3e49de91	0.19713809
189	0x3eb1fb8e	0.34762233
190	0x3eb64b28	0.35604215
191	0x3e96ad36	0.29429024
192	0x3f04163e	0.5159644
193	0x3f1b12c0	0.60575485
194	0x3f195c4a	0.59906447
195	0x3f2c2b0a	0.6725317
196	0x3f26d61a	0.65170443
197	0x3f6ca007	0.9243168
198	0x3f3f5186	0.7473377
199	0x3f651f9e	0.8950137
200	0x3d22f9de	0.039789073
201	0xbd98c7fc	-0.07460019
202	0x3e841c35	0.2580277
203	0x3e191ea8	0.149531
204	0x3e4aa91d	0.19791074
205	0x3cb3fa11	0.021969827
206	0xbe5ab981	-0.21359827
207	0x39683550	0.00022145105
208	0xbe111e51	-0.14171721
209	0xbea3bb18	-0.3197868
210	0x3d8964f8	0.067087114
211	0xbd14036a	-0.03613607
212	0x3da475b5	0.08030263
213	0x3c8a805d	0.016906912
214	0xbd833bdf	-0.06407904
215	0x3eb834e3	0.3597785
216	0x3e6472dc	0.2230944
217	0x3f0a3b8b	0.53997105
218	0x3ec1d62e	0.3785872
219	0x3f0899ae	0.53359497
220	0x3f389c7e	0.7211379
221	0x3f2307e7	0.63683933
222	0x3f7deb38	0.9918704
223	0x3f641da2	0.89107716
224	0x3f6e1f8b	0.9301688
225	0x3e30f7db	0.1728205
226	0x3eb75af2	0.35811573
227	0x3e8dc2b0	0.27687597
228	0x3ef83f1a	0.48485643
229	0x3f3a29b0	0.7271986
230	0xbe19c140	-0.15015125
231	0x3c337e4e	0.010955406
232	0x3e62bab0	0.22141528
233	0x3ee6a4ff	0.45047757
234	0x3f17122a	0.5901209
235	0xbf0fac46	-0.56122243
236	0xbeefb8a8	-0.4682057
237	0x3e039905	0.12851341
238	0x3e37339a	0.17890778
239	0x3db4ca77	0.088276796
240	0xbf519dbe	-0.8188132
241	0xbed1562c	-0.40886056
242	0x3e412cb4	0.18864709
243	0x3d98d178	0.07461828
244	0x3d52ff96	0.051513277
245	0xbf5d3d9c	-0.86422133
246	0xbed4e1b4	-0.41578448
247	0xbd790fa8	-0.060805947
248	0xbc80d379	-0.015725838
249	0x3e4e2422	0.20130971
250	0x3e10aff2	0.14129618
251	0x3ec03b92	0.3754545
252	0x3e597ae6	0.21238288
253	0x3ef7880f	0.48345992
254	0x3f3b13ea	0.7307726
255	0x3da0b4f4	0.07847014

features.conv1.bias f4 [6]
0	0x3f6f0078	0.9336009
1	0xbe5f2854	-0.21792728
2	0xc0886ed8	-4.2635307
3	0x3f4e1be0	0.80511284
4	0xc05c7f6c	-3.4452772
5	0xc096c91e	-4.7120504

features.conv2.weight f4 [16, 6, 5, 5]
0	0xbdef6b59	-0.11690397
1	0xbe1c196a	-0.1524407
2	0xbe1169ef	-0.14200567
3	0xbd9096da	-0.07060023
4	0xbddbec8b	-0.10738476
5	0xbdeb863f	-0.11500215
6	0xbe2fa260	-0.17151785
7	0xbe330a67	-0.17484437
8	0xbdf941ff	-0.12170791
9	0xbe361dac	-0.17784756
10	0xbdb6c860	-0.08924937
11	0xbd9512a4	-0.07278946
12	0xbd8e181b	-0.069381915
13	0xbe12844b	-0.14308278
14	0xbe41a692	-0.18911198
15	0xbd916149	-0.07098634
16	0xbd9c9563	-0.07645681
17	0xbdebba31	-0.115101226
18	0xbe212151	-0.15735365
19	0xbe12f6ca	-0.14351955
20	0xbe442381	-0.19154169
21	0xbe19326b	-0.14960639
22	0xbdfe3724	-0.12412861
23	0xbe15e694	-0.1463874
24	0xbe312cf7	-0.17302309
25	0xbd488c04	-0.048961654
26	0xbd8c7348	-0.06857926
27	0x3cf0d097	0.029396338
28	0x3b04f0d1	0.002028514
29	0xbdab36c8	-0.08360058
30	0xbd7107f9	-0.058845494
31	0xbd762abe	-0.060099356
32	0xbd36cef9	-0.04463098
33	0xbcc4820f	-0.023987798
34	0xbc877d75	-0.016539315
35	0xbdc5aec0	-0.096524715
36	0xbdf9f7cf	-0.12205469
37	0xbe00b508	-0.12569058
38	0xbdefa3a7	-0.11701136
39	0xbd4dd675	-0.05025335
40	0xbd115a0a	-0.03548626
41	0x3b90bfe2	0.0044174055
42	0xb916639e	-0.00014342225
43	0xbc713dd6	-0.0147242155
44	0x3c822ddb	0.015891006
45	0xbd53529c	-0.051592454
46	0xbcf2b37d	-0.029626602
47	0xbc371564	-0.0111745335
48	0xbddb7dc0	-0.10717344
49	0xbc7f3972	-0.015577661
50	0xbb8b1c2f	-0.004245303
51	0xbdbb99d1	-0.091601975
52	0x3cec9dfb	0.028883925
53	0xbd686d82	-0.05674506
54	0x3d14e5a7	0.036351826
55	0x3cacb4b5	0.021082262
56	0xbb80c53e	-0.003929763
57	0x3c719c26	0.014746701
58	0xbc1c2cab	-0.009532134
59	0x3d89b17f	0.06723308
60	0x3e07f035	0.13275225
61	0x3db0e29a	0.08636971
62	0x3dffd220	0.1249125
63	0x3dc9a1e1	0.09845329
64	0xbcad835f	-0.021180807
65	0x3c391ef3	0.011298883
66	0xbbb27caf	-0.0054469923
67	0x3d523d84	0.051328197
68	0x3caad567	0.020853711
69	0xbdd15828	-0.102218926
70	0xbd04fa31	-0.032465164
71	0xbc995e50	-0.01872173
72	0xbdb5cc4c	-0.08876857
73	0xbdcddde1	-0.10052086
74	0xbe492605	-0.1964341
75	0xbdb88486	-0.09009652
76	0xbdecfa4d	-0.115711786
77	0xbe0804f5	-0.13283141
78	0x3b4a9561	0.003091179
79	0xbdd8ab18	-0.105795085
80	0xbe398559	-0.18117274
81	0xbe64464a	-0.22292438
82	0xbe376c24	-0.17912346
83	0xbe3fd133	-0.18732147
84	0xbe267689	-0.16256155
85	0xbd3f0fa4	-0.046645775
86	0xbe41e712	-0.18935803
87	0xbdf40c73	-0.11916437
88	0xbe383a09	-0.17990889
89	0xbe210f84	-0.15728575
90	0xbd8004f7	-0.06250947
91	0xbe32fc47	-0.17479049
92	0xbde78067	-0.11303788
93	0xbdc3c103	-0.095582984
94	0xbe0c87f3	-0.13723736
95	0xbdf12eb3	-0.11776485
96	0xbe169c1c	-0.14707989
97	0xbe362b3b	-0.17789929
98	0xbded2242	-0.115788
99	0xbdcc800f	-0.09985363
100	0x3b13611b	0.00224883
101	0x3d1438d3	0.036187004
102	0xbd6b83c8	-0.057498723
103	0xbc561d73	-0.013068545
104	0xbd44e7ec	-0.04807274
105	0xbd84ea85	-0.064900436
106	0xbe239600	-0.15975189
107	0xbd958376	-0.07300465
108	0xbe139280	-0.14411354
109	0xbde70b28	-0.11281425
110	0xbdd7d1a8	-0.10538036
111	0xbdf5ab51	-0.11995567
112	0xbe12ddf6	-0.14342484
113	0xbe0a310a	-0.1349527
114	0xbdd7eafe	-0.10542868
115	0xbd282e70	-0.04105991
116	0xbdb74f45	-0.08950666
117	0xbc28a4cd	-0.010293198
118	0xbcc7b29a	-0.024377156
119	0x3cf22aab	0.029561361
120	0x3ceffce4	0.029295392
121	0x3d3ef2a0	0.046618104
122	0xbd6793e4	-0.056537524
123	0x3d33911b	0.043839555
124	0xbddf86a0	-0.109143496
125	0xbdc99715	-0.0984327
126	0xbd769823	-0.060203683
127	0xbd034cb8	-0.032055587
128	0xbc66bba8	-0.014082827
129	0x3c726c33	0.0147963045
130	0xbbaa262d	-0.005192539
131	0xbdb82d8e	-0.08993064
132	0xbd8dbb7d	-0.06920526
133	0xbe0b1767	-0.13583146
134	0xbd67a0ec	-0.05654995
135	0xbe4c2634	-0.19936448
136	0xbe0dde32	-0.13854292
137	0xbe3e3a8b	-0.1857702
138	0xbdfac675	-0.12244884
139	0xbda60871	-0.08107079
140	0xbe3f47ca	-0.18679729
141	0xbe13b912	-0.14426067
142	0xbd101c7e	-0.035183422
143	0xbd8b3f61	-0.06799198
144	0x3d568403	0.05237199
145	0xbcb66e12	-0.022269282
146	0xbe0f3249	-0.13984026
147	0xbe09df12	-0.13464001
148	0xbe7d47e0	-0.2473445
149	0xbe80d3e9	-0.25161675
150	0x3d75d25e	0.060015075
151	0xbe23b5c6	-0.1598731
152	0xbe4d8578	-0.20070446
153	0xbe0f97dc	-0.14022774
154	0xbe227334	-0.15864259
155	0x3d1c3f58	0.038146347
156	0xbe60bb06	-0.21946344
157	0xbe5ecdea	-0.21758237
158	0xbe5a8d79	-0.2134303
159	0xba299622	-0.000646921
160	0xbd8ba63c	-0.06818816
161	0xbe03f6cd	-0.12887116
162	0xbeac9911	-0.3371053
163	0xbe5d8d49	-0.21635927
164	0xbe420063	-0.1894546
165	0xbda701d6	-0.08154647
166	0xbd8029d5	-0.06257979
167	0xbe16d4a1	-0.14729549
168	0xbe5b06d8	-0.2138933
169	0xbe37ffe5	-0.1796871
170	0xbd884cfb	-0.06655308
171	0x3c6e1d78	0.014533393
172	0xbe828e16	-0.25499028
173	0xbc671676	-0.014104476
174	0xbe1dab20	-0.1539731
175	0xbe09da21	-0.13462116
176	0xbd7230a7	-0.05912843
177	0xbdca72b0	-0.09885156
178	0xbe7187ec	-0.23587006
179	0x3de84a23	0.113422655
180	0xbcb4c4a8	-0.02206643
181	0x3d07eae5	0.033182997
182	0xbb63e716	-0.003477519
183	0xbe3085f4	-0.17238599
184	0xbde5e66b	-0.11225589
185	0x3d80bc20	0.06285882
186	0xbd2c424d	-0.042055417
187	0x3c44bac6	0.012007421
188	0xbe456c7c	-0.19279665
189	0xbe0745c7	-0.13210212
190	0x3b4362e3	0.002981358
191	0xbe02af9e	-0.12762305
192	0x3d824da7	0.06362467
193	0xbe2016a0	-0.15633631
194	0xbe7867e9	-0.24258389
195	0x3d8672fe	0.06564902
196	0xbe4f05c4	-0.20217043
197	0xbc57345b	-0.013135041
198	0xbd8107f7	-0.06300347
199	0xbe8fc073	-0.28076515
200	0xbe8d0c52	-0.27548462
201	0xbe9c6b50	-0.30550623
202	0xbe921184	-0.28528988
203	0xbe286147	-0.16443358
204	0xbe57d0cd	-0.21075745
205	0xbea4890a	-0.32135803
206	0xbec36719	-0.38164595
207	0xbec456a7	-0.3834736
208	0xbea662ea	-0.3249734
209	0xbe9f6149	-0.3112891
210	0xbea69dc8	-0.32542253
211	0xbe87ae85	-0.26500335
212	0xbe1d70eb	-0.15375106
213	0xbe811447	-0.25210783
214	0xbe7fc8b2	-0.24978903
215	0xbeb5e72e	-0.3552794
216	0xbea463b8	-0.3210733
217	0xbe4bfb1c	-0.1992001
218	0xbe5cb17b	-0.21552078
219	0xbe5f4896	-0.21805033
220	0xbe9fa39f	-0.3117952
221	0xbe617b95	-0.22019799
222	0xbe175f18	-0.14782369
223	0xbe65ff30	-0.22460628
224	0xbdc4ca4d	-0.09608898
225	0xbe2671cb	-0.16254346
226	0xbdecd4cd	-0.11564026
227	0xbe8a5635	-0.27018896
228	0xbebac3d4	-0.3647753
229	0xbcff2e94	-0.03115014
230	0x3ddad025	0.10684232
231	0xbe034877	-0.12820612
232	0xbe429811	-0.19003321
233	0xbe72d7ec	-0.2371518
234	0xbe91c81b	-0.2847298
235	0xbd4ac7a0	-0.049506783
236	0xbee19581	-0.44059375
237	0xbe786a4f	-0.24259304
238	0xbe8491ce	-0.2589249
239	0xbe9b7503	-0.3036271
240	0xbe2f5352	-0.17121628
241	0xbeb15c14	-0.34640563
242	0xbd8ae9ed	-0.06782899
243	0xbe688e2b	-0.22710483
244	0xbecc5a8b	-0.3991283
245	0xbe722d2e	-0.23650047
246	0xbde1a089	-0.11016948
247	0x3da816da	0.082074836
248	0xbe554981	-0.20828821
249	0xbe43fa2e	-0.19138405
250	0xbe86a6e8	-0.26299214
251	0xbe91b5c2	-0.28458983
252	0xbea5f4cd	-0.3241333
253	0xbea9d55b	-0.3317059
254	0xbec7ce95	-0.39024797
255	0xbe9ee2dd	-0.31032458

features.conv2.bias f4 [16]
0	0xbe13ef62	-0.14446786
1	0xbaf9c1bc	-0.001905493
2	0xbd848091	-0.064698346
3	0x3f45a114	0.7719891
4	0xbc3c9d19	-0.011512064
5	0xbdcb77e1	-0.099349745
6	0x3dfb8fc6	0.12283282
7	0xbd371422	-0.044696935
8	0xbeabf65b	-0.33586392
9	0xbdc41e6e	-0.095761165
10	0xbbf7806c	-0.007553151
11	0xbe182a16	-0.14859805
12	0xbe035370	-0.12824798
13	0xbf64a23e	-0.8931006
14	0x3f71d0fe	0.9445952
15	0xbd3fe41b	-0.046848398

features.fc1.weight f4 [120, 400]
0	0xbd4bf22f	-0.04979151
1	0x3ba8a111	0.0051461537
2	0xbc0a5534	-0.008443166
3	0x3c561e34	0.013068724
4	0xbc368fba	-0.0111426655
5	0x3b295fda	0.0025844485
6	0xbc0b1544	-0.008488957
7	0xbd1c2635	-0.038122375
8	0xbc42694b	-0.011865924
9	0x3ca11444	0.019662984
10	0xbd0be55f	-0.034154292
11	0xbd10e22b	-0.03537194
12	0xbd604db4	-0.054761603
13	0xbd638a6a	-0.055551924
14	0xbcf12ddb	-0.02944081
15	0x3cae354b	0.021265646
16	0xbcfebe57	-0.03109662
17	0xbd3e4050	-0.046448052
18	0xbd032ecb	-0.032027047
19	0xbc9b6962	-0.018971149
20	0x39864052	0.00025606394
21	0x3cdbc353	0.026826536
22	0x3c9b0767	0.018924428
23	0xbd39841c	-0.045292005
24	0xbcadfdb8	-0.021239147
25	0x3cdc0656	0.02685849
26	0xbc2ee71e	-0.01067522
27	0xb9e659ef	-0.00043936024
28	0xbcfd029f	-0.030885039
29	0xbcb8cd49	-0.022558825
30	0x3ce9755c	0.028498344
31	0xbd12350a	-0.035695113
32	0xbd66cd9c	-0.056348428
33	0xbcafb29b	-0.02144747
34	0x3cc743f2	0.024324391
35	0xbd42dc4f	-0.047573384
36	0x3d36c99e	0.04462587
37	0xbd1e2826	-0.038612507
38	0xbd3e3421	-0.046436433
39	0x3ada4bbf	0.0016654654
40	0xbbfe28d8	-0.007756334
41	0xbd0adc6a	-0.03390161
42	0xbcb17708	-0.021663204
43	0xbc94aa18	-0.018147513
44	0xbd945e88	-0.07244593
45	0xbc0e27a0	-0.0086764395
46	0x3a0dc777	0.0005408446
47	0xbc6678a6	-0.014066851
48	0xbd6571f8	-0.056016892
49	0xbca5165f	-0.020152269
50	0xbcd9ed34	-0.026602365
51	0x3b9405e2	0.004517303
52	0xbcb76d64	-0.022391029
53	0x3cc495ca	0.023997206
54	0x3ca01bb9	0.01954447
55	0xbc803d59	-0.015654253
56	0xbca38d24	-0.019964762
57	0xbd5a1a86	-0.05324795
58	0xbc8acad1	-0.016942414
59	0xbd429a61	-0.04751051
60	0xbbf4bcae	-0.0074687814
61	0x3c8e0e65	0.017340848
62	0x3bbe2540	0.0058027804
63	0xbd430db0	-0.047620475
64	0xbcdf54a4	-0.02726204
65	0xbd28ce1a	-0.04121218
66	0xbada5149	-0.0016656305
67	0xbc28c89c	-0.010301735
68	0x3d206211	0.039156023
69	0x3d1e1700	0.038596153
70	0x3d139220	0.036028028
71	0xbc07ea0f	-0.00829555
72	0xbbe1e22a	-0.006893416
73	0x3c7c09a7	0.015383161
74	0xbce75138	-0.02823697
75	0xbd1e5b03	-0.038661014
76	0xbcef2bee	-0.029195752
77	0x3b43c1a6	0.0029870062
78	0xbcb80d5a	-0.022467304
79	0x3c612680	0.013742089
80	0xbd43bd9a	-0.04778824
81	0x3b31a512	0.0027106446
82	0xbd24c782	-0.040229328
83	0x3c05c372	0.008164274
84	0xbcc694fe	-0.024240967
85	0x3b6011ca	0.003419029
86	0xbbd56600	-0.0065124035
87	0xbc31de4e	-0.010856224
88	0xbcde3849	-0.027126448
89	0xbc054f8f	-0.008136644
90	0x3d0b9f9c	0.034087762
91	0x3c39cdd6	0.011340579
92	0x3cf00a43	0.029301768
93	0x3ca38b77	0.019963963
94	0xbc0a9e47	-0.008460588
95	0x3c900e8b	0.01758506
96	0x3cd9a63e	0.026568528
97	0xbd4adc30	-0.049526393
98	0x3c238506	0.009980446
99	0x3c290737	0.010316662
100	0x3d2cd768	0.042197615
101	0xbd02ff9a	-0.031982042
102	0xbd1902a1	-0.037356023
103	0xbc9ff6fd	-0.019526953
104	0xbce22aea	-0.027608354
105	0x3c863b28	0.01638563
106	0xbd2d5d0b	-0.04232506
107	0xbce3a2d3	-0.027787602
108	0xbc962528	-0.018328264
109	0xbc8c09bc	-0.017094485
110	0xba52c361	-0.0008039978
111	0x3a695888	0.0008901437
112	0xbc495d43	-0.012290302
113	0xbcb41e16	-0.021987002
114	0xbc42ee25	-0.011897598
115	0x3c361fed	0.01111601
116	0xbd0b5cb6	-0.034023963
117	0x3bb8bae0	0.0056375116
118	0x387a8ea9	5.9737507e-05
119	0x3cd6609f	0.02616912
120	0xbd42ad13	-0.047528338
121	0x3cb3e373	0.021959042
122	0x3c0a2050	0.008430555
123	0xbd243607	-0.040090587
124	0xbd07ff4f	-0.033202466
125	0xbd055fe8	-0.032562166
126	0x3bb28607	0.005448106
127	0x3cdbc4ee	0.026827302
128	0xbd21aa09	-0.0394688
129	0xbd54ac65	-0.05192222
130	0x3cfef3a7	0.031122042
131	0xbcf9421d	-0.030427033
132	0xbc17cb4c	-0.009264778
133	0xbd4946ac	-0.049139664
134	0xbd1f440f	-0.038883265
135	0xbd112fb8	-0.0354459
136	0xbbb45604	-0.005503418
137	0x3ce56ed1	0.028006943
138	0x3d0b87b4	0.034064963
139	0x3cf1a58f	0.02949789
140	0xbb669b26	-0.003518769
141	0x3c3dd9ad	0.0115875425
142	0x3c2fcbec	0.010729771
143	0x3caedb7c	0.021344893
144	0xbcd2f55b	-0.02575176
145	0xbca6e416	-0.020372432
146	0x3b0bd672	0.0021337536
147	0xbc1a46e3	-0.009416315
148	0xbd0bda38	-0.034143656
149	0xbca2efe5	-0.019889781
150	0xbc3569d9	-0.011072599
151	0x3be0deef	0.0068625133
152	0x3d46dba3	0.048549306
153	0x3ccb8add	0.024846489
154	0xbd5e82a9	-0.054323826
155	0x3c892c1e	0.01674467
156	0xbb9ca8d4	-0.004780868
157	0xbc2e1ff2	-0.010627734
158	0x3c5533e4	0.01301286
159	0xbd7621f3	-0.06009097
160	0xbd2f08db	-0.042733055
161	0x3c3139c1	0.010816992
162	0xbba24a7d	-0.0049527274
163	0x3c976c3f	0.018484233
164	0x3c5508a7	0.013002551
165	0x3c38dec4	0.01128358
166	0x3d020f95	0.03175314
167	0x3d094cb0	0.0335204
168	0x3c12e669	0.008966067
169	0xbc7a97d3	-0.015294987
170	0xbbb51c76	-0.0055270744
171	0xbcca7e61	-0.024718465
172	0x3b9a957e	0.004717528
173	0x3d1ce7d3	0.038307022
174	0x3bb9ca53	0.005669871
175	0xbd30a564	-0.04312648
176	0x3c8fc699	0.017550753
177	0x3b93c281	0.0045092707
178	0x3bccf007	0.0062541994
179	0xbb2ae597	-0.0026076788
180	0x3d14cfc8	0.03633097
181	0x3d53d85d	0.051720012
182	0x3d1adc76	0.037807904
183	0x3d79d1f2	0.060991235
184	0x3d642a47	0.05570438
185	0x3cdade3e	0.026717301
186	0xbcb86a51	-0.022511633
187	0x3d00df67	0.031463053
188	0x3d041c5e	0.032253616
189	0x3d05ac49	0.032635007
190	0xbc571224	-0.013126884
191	0x3d34d087	0.04414418
192	0x3aa6611c	0.0012693736
193	0x3d44be63	0.04803313
194	0x3cb00d42	0.021490697
195	0x3caeeeb0	0.02135405
196	0xbccf7a82	-0.025326971
197	0xbd049291	-0.03236634
198	0x3ca2d1b3	0.019875383
199	0x3b9be5cb	0.004757618
200	0x3c0b9dd9	0.0085215205
201	0x3c095659	0.008382403
202	0x3d19d24a	0.037554063
203	0xbcdc4417	-0.026887937
204	0x3d6ac9d7	0.057321396
205	0xbcd6779f	-0.026180087
206	0xbc94055a	-0.018068958
207	0xbd80a963	-0.06282308
208	0xbad52fce	-0.0016264857
209	0xbd74d3f8	-0.05977246
210	0xbb2cfa3a	-0.0026394264
211	0xbd51ba11	-0.051202837
212	0x3cfe418a	0.03103711
213	0x3cdebea5	0.027190516
214	0x3c82be8a	0.015959997
215	0xbd2e2343	-0.042514097
216	0x3c08220c	0.008308899
217	0xbd309764	-0.043113127
218	0x3c90d4c2	0.017679576
219	0xbd012dbe	-0.031537764
220	0x3bff1a77	0.0077851373
221	0xbcc61e56	-0.024184387
222	0xbd452558	-0.048131317
223	0x3c9890a3	0.018623656
224	0xbcb19dc2	-0.02168167
225	0xbcf20971	-0.029545518
226	0xba299c22	-0.0006470104
227	0xbc9611e4	-0.018319078
228	0xbd5eb959	-0.05437598
229	0xbd2e7d58	-0.042600006
230	0xbc971981	-0.018444778
231	0x3bf50dd3	0.0074784546
232	0xbd4f6b8a	-0.050639667
233	0xbd47ee7b	-0.048811417
234	0x3cd272e5	0.025689552
235	0x3c8063fc	0.015672676
236	0xbae545ac	-0.0017492077
237	0xbcb8bc36	-0.022550683
238	0xbd356098	-0.044281572
239	0xbd15948c	-0.03651862
240	0xbd4d56da	-0.050131656
241	0xbbaa72a0	-0.0052016526
242	0xbc58278d	-0.013193023
243	0xbd5037fa	-0.050834633
244	0xbca23734	-0.019801714
245	0xbcaab9b9	-0.020840513
246	0xbd5578ca	-0.052117147
247	0x3c35cdf0	0.011096463
248	0xbd4710f0	-0.048600137
249	0xbc9ac3e1	-0.01889223
250	0x3a1318f3	0.00056113227
251	0xbd0fed61	-0.03513849
252	0x3c18b45d	0.009320346
253	0xbd06c6b4	-0.03290434
254	0xbcd4382f	-0.025905697
255	0x3c14dbb6	0.009085586

features.fc1.bias f4 [120]
0	0xbd30b22f	-0.04313868
1	0xbe4d0cc3	-0.200244
2	0xbcffc028	-0.031219557
3	0xbd1760bc	-0.036957487
4	0xbed5121b	-0.41615376
5	0xbdbb3d83	-0.09142592
6	0xbdee1478	-0.11624998
7	0xbe773404	-0.24140936
8	0x3ba3e930	0.0050021634
9	0x3ec46b0f	0.3836293
10	0xbd226614	-0.03964813
11	0xbd998aca	-0.07497175
12	0xbd81fdef	-0.06347262
13	0x3e1d82d2	0.15381935
14	0x3e018c40	0.12651157
15	0xbf4a62f8	-0.79057264
16	0xbcbfdf24	-0.023421831
17	0x3dbbe7af	0.091750495
18	0xbdc3e6a4	-0.095654756
19	0xbe1faba5	-0.15592821
20	0xbce67f8e	-0.028136995
21	0xbd1c218a	-0.038117923
22	0xbcd0b514	-0.02547697
23	0x3bdc79bf	0.0067283805
24	0xbe1a13be	-0.15046594
25	0x3dca5df4	0.098812014
26	0xbda1b9b4	-0.07896748
27	0xbe81319a	-0.25233155
28	0xbef9bb5d	-0.4877576
29	0x3d60096e	0.054696493
30	0xbd200ec8	-0.039076596
31	0xbd3b70ec	-0.045761988
32	0xbd0973a6	-0.033557557
33	0x3e668540	0.22511768
34	0x3d15d6f5	0.036581952
35	0xbe46a3ab	-0.19398372
36	0xbcd3cd78	-0.025854811
37	0xbd824eea	-0.06362708
38	0x3e22f78d	0.15914746
39	0xbf154d78	-0.5832133
40	0xbddd4fa6	-0.10806207
41	0x3dafbffa	0.085815385
42	0xbe13c912	-0.14432171
43	0xbcfa4bb5	-0.030553678
44	0xbdbea788	-0.09309298
45	0xbcd625a2	-0.026140992
46	0xbd74796c	-0.05968611
47	0x3e0be466	0.13661346
48	0xbdb72753	-0.089430474
49	0x3d678c1c	0.056530103
50	0xbe78ffd6	-0.24316344
51	0xbe3242c3	-0.1740828
52	0xbcfdb6d2	-0.030970965
53	0xbe17c1f6	-0.14820084
54	0xbf50e069	-0.8159242
55	0xbde88c82	-0.11354925
56	0x3da31094	0.079621464
57	0xbdb03b3c	-0.08605048
58	0xbe48a2b5	-0.19593318
59	0xbd6c3414	-0.057666853
60	0x3e09b982	0.13449672
61	0xbda4c6c2	-0.080457225
62	0x3e57b656	0.2106565
63	0xbd2322a4	-0.039827958
64	0xbc59466a	-0.013261417
65	0xbd905b30	-0.07048643
66	0xbdd6c05d	-0.10485909
67	0xbddc58d7	-0.10759132
68	0xbdafa1cd	-0.08575783
69	0xbc629afc	-0.0138308965
70	0xbdd65834	-0.10466042
71	0x3d8e88aa	0.0695966
72	0xbea5a847	-0.32354948
73	0xbd064fb5	-0.03279086
74	0xbd942ecd	-0.07235489
75	0xbc7be734	-0.015374947
76	0xbcdf3526	-0.027247023
77	0x3e3dc3ea	0.18531767
78	0x3dc8dea2	0.09808089
79	0xbdb8831a	-0.09009381
80	0x3dbae120	0.091249704
81	0x3e5e917e	0.21735188
82	0xbe195678	-0.14974391
83	0xbe2287f2	-0.15872172
84	0x3d0dc85e	0.034614913
85	0xbd84e37e	-0.06488703
86	0xbe25dce7	-0.16197549
87	0xbbdfe72c	-0.0068329778
88	0xbd304100	-0.04303074
89	0xbd53df0d	-0.05172639
90	0xbdc66bfb	-0.096885644
91	0xbcd8906f	-0.026436059
92	0xbd7b1e2b	-0.061308067
93	0xbd1eaa25	-0.03873648
94	0x3d195626	0.037435673
95	0xbd36e6ae	-0.044653587
96	0xbd974f6d	-0.07388196
97	0xbcbb9896	-0.022899907
98	0xbc6c8f16	-0.014438411
99	0xbe595732	-0.21224669
100	0xbd8acaa5	-0.067769326
101	0xbd587563	-0.052846324
102	0xbd80af94	-0.06283489
103	0xbfbceb8b	-1.4759382
104	0xbd6c6360	-0.05771196
105	0xbcdfc550	-0.027315766
106	0xbe3e3c9e	-0.18577811
107	0xbc876994	-0.016529836
108	0xbdef7a39	-0.11693234
109	0xbcda299e	-0.026631173
110	0xbdc7089f	-0.09718441
111	0xbec6d25f	-0.38832375
112	0xbe85545e	-0.2604093
113	0xbe001d6c	-0.12511224
114	0xbdbbd5d4	-0.09171644
115	0xbd10be45	-0.035337705
116	0xbe5bb261	-0.21454765
117	0xbe72fc21	-0.23728992
118	0xbe70e987	-0.23526584
119	0xbb0d8f4e	-0.0021600309

features.fc2.weight f4 [84, 120]
0	0x3c130789	0.0089739645
1	0xbc46d038	-0.012134604
2	0xbd64a4e7	-0.055821326
3	0x3c19959a	0.009374047
4	0x3c81b303	0.01583243
5	0x3d0acbcf	0.033885773
6	0xbd36b1ef	-0.044603284
7	0xbd82ec71	-0.06392754
8	0xbe0d7986	-0.13815889
9	0xbce97f9b	-0.02850323
10	0xbd2131fd	-0.039354313
11	0xbd392d4e	-0.04520922
12	0xbd88ef42	-0.0668626
13	0x3daead79	0.08529181
14	0xbd6a2815	-0.05716713
15	0xbd76bee5	-0.060240645
16	0xbd800632	-0.06251182
17	0xbd5c360e	-0.053762488
18	0xbd5c9d19	-0.053860757
19	0xbd504817	-0.05085
20	0x3dadc837	0.084854536
21	0x3d104393	0.035220694
22	0xbd2785eb	-0.0408992
23	0x3c93afff	0.018028257
24	0xbcc75704	-0.024333484
25	0xbdd288a1	-0.10279966
26	0xbd69a722	-0.057044156
27	0xbc542ab9	-0.012949639
28	0x3c1c7dc9	0.009551474
29	0xbd597042	-0.053085573
30	0xbc5c4856	-0.013444981
31	0xbd8e401e	-0.06945823
32	0xbdb7b5e6	-0.08970241
33	0xbcae0724	-0.02124364
34	0x3c65ff68	0.014037944
35	0x3c10e2cf	0.008843138
36	0xbdad0f41	-0.08450175
37	0xbc4b094a	-0.012392351
38	0xbc93ef63	-0.018058484
39	0xbd6550d5	-0.05598529
40	0xbb37e513	-0.0028060123
41	0x3d4decca	0.050274648
42	0x3cad6ba1	0.021169486
43	0x3d4ed64a	0.05049733
44	0xbd8b8b74	-0.06813708
45	0xbd8cf9f3	-0.068836115
46	0xbbb31a5e	-0.0054657897
47	0xbcade488	-0.021227136
48	0xbd284499	-0.041081045
49	0xbcf105c4	-0.029421695
50	0xbe06ec76	-0.1317614
51	0x3e86e739	0.26348284
52	0xbd358a29	-0.044321213
53	0x3dad19c2	0.084521785
54	0xbde828b7	-0.11335891
55	0xbd882ff5	-0.06649772
56	0xbd318331	-0.043338004
57	0xbd2345a4	-0.039861336
58	0x3e3f9a3e	0.18711182
59	0x3c25184f	0.010076596
60	0xbcac875d	-0.02106064
61	0xbceacce9	-0.028662162
62	0xbdeff87d	-0.11717317
63	0xbd53f5d2	-0.051748104
64	0xbdac0fca	-0.08401449
65	0xbcacf9c4	-0.021115191
66	0xbd02d42b	-0.03194062
67	0xbd8c691b	-0.06855985
68	0xbd72d234	-0.059282497
69	0x3d73f6fc	0.059561715
70	0xbd9aefc7	-0.07565265
71	0xbcfecb33	-0.031102752
72	0xbd72c013	-0.059265207
73	0xbc3c36ea	-0.011487702
74	0xbdc9617c	-0.09833047
75	0xbd20f0bf	-0.039292093
76	0xbc275b27	-0.0102146035
77	0xbde62a74	-0.11238566
78	0xbdb86e28	-0.09005386
79	0xbd42e5d4	-0.047582462
80	0xbd8997ff	-0.06718444
81	0xbbb85531	-0.00562539
82	0x3da3ca19	0.079975314
83	0x3d17034e	0.036868386
84	0xbcb72c65	-0.022360036
85	0x3daa8e9e	0.08327983
86	0xbd71e85e	-0.059059493
87	0xbbd3c761	-0.006462977
88	0xbd91fc37	-0.07128184
89	0xbd30627f	-0.043062683
90	0xbe1b9808	-0.15194714
91	0xbd329594	-0.04359968
92	0xbd5b6ee6	-0.053572558
93	0xbe02c029	-0.12768616
94	0xbd0d6c9e	-0.034527414
95	0x3bc126f4	0.005894536
96	0xbe09aec4	-0.13445574
97	0xbd86b288	-0.06577021
98	0xbd9123ac	-0.07086882
99	0xbda80e7d	-0.082058884
100	0xbca9e636	-0.020739656
101	0xbc89cf5f	-0.016822515
102	0xbcfcf565	-0.030878732
103	0xbcc7b316	-0.024377387
104	0xbe0cd91f	-0.137547
105	0xbd1fe724	-0.039038792
106	0x3e16ef22	0.1473966
107	0x3d6d0757	0.057868328
108	0x3e40363f	0.18770693
109	0xbdabb259	-0.083836265
110	0xbd2f350c	-0.0427752
111	0x3ced2821	0.028949799
112	0xbbe6b182	-0.0070402035
113	0xbd8d1e9f	-0.06890606
114	0xbdb89e78	-0.090146005
115	0xbd97ed84	-0.074183494
116	0x3e2ba554	0.16762286
117	0xbb3dce83	-0.0028962202
118	0xbd96a17e	-0.07355021
119	0x3d99f534	0.07517472
120	0x3d32ae1f	0.043623086
121	0x3d62ede8	0.055402666
122	0xbd37ffe0	-0.044921756
123	0x3d562ace	0.052286915
124	0xbe0310c8	-0.1279937
125	0x3d158a6e	0.03650897
126	0xbe07e041	-0.1326914
127	0xbdb08c09	-0.086204596
128	0xbe128173	-0.14307193
129	0xbe46ebc1	-0.1942587
130	0xbe1527c0	-0.14565945
131	0xbd7d19b5	-0.061792094
132	0xbcc58889	-0.024112957
133	0xbda44693	-0.080212735
134	0xbdef0cdd	-0.11672375
135	0x39ea6b87	0.00044712072
136	0xbdb5ecb2	-0.08883037
137	0x3c82c5a3	0.015963381
138	0xbd8efeb7	-0.06982177
139	0xba511e0e	-0.0007977196
140	0x3d53ac09	0.051677737
141	0xbdaecded	-0.08535371
142	0xbd898f54	-0.06716791
143	0xbd82c375	-0.06384937
144	0xbc14ab27	-0.009074009
145	0x3d9091b4	0.07059041
146	0xbddf206f	-0.10894858
147	0xbd979d14	-0.07403007
148	0xbd29319d	-0.04130708
149	0xbc3c9ff7	-0.011512748
150	0x3d0bce99	0.034132574
151	0xbcb2a3f0	-0.021806687
152	0xbe840d5f	-0.2579145
153	0xbd6f3938	-0.058404177
154	0x3d03098a	0.03199152
155	0xbc91ea82	-0.017812017
156	0xbd2376e0	-0.03990829
157	0xbcd358f3	-0.02579925
158	0xbe26e87e	-0.16299626
159	0xbc1e2acd	-0.009653759
160	0x3ccf1411	0.025278123
161	0xbda6d151	-0.08145393
162	0xbd929ef5	-0.07159225
163	0xbd57e816	-0.05271157
164	0xbd03608b	-0.032074492
165	0x3a5cccf6	0.00084228755
166	0x3d515fb4	0.05111666
167	0xbdec4dd6	-0.115382835
168	0xbdc8ba0e	-0.09801112
169	0xbd4eee5b	-0.050520282
170	0xbd0fef22	-0.035140164
171	0x3db745af	0.08948838
172	0xbca1744d	-0.019708777
173	0xbd50eece	-0.051008992
174	0xbddc844f	-0.10767423
175	0xbdf7d44f	-0.121010415
176	0x3c858c17	0.016302152
177	0xbde4715a	-0.111544326
178	0xbc5e1af5	-0.013556232
179	0x3d4a28bc	0.049355254
180	0xbd8fa1e8	-0.07013303
181	0xbb828010	-0.0039825514
182	0xbce8999f	-0.028393565
183	0x3d27c3e6	0.040958308
184	0x3d341086	0.04396107
185	0xbd595467	-0.053059008
186	0xbd694724	-0.05695261
187	0xbd568861	-0.052376155
188	0x3c2940ce	0.010330392
189	0xbe00b7e7	-0.12570153
190	0xbd463885	-0.048393745
191	0xbd388f36	-0.04505845
192	0xbd4c9165	-0.049943347
193	0xbe0772f1	-0.1322744
194	0xbc85c278	-0.016328081
195	0xbbff205c	-0.00778584
196	0xbd9c3f4b	-0.0762926
197	0x3b581bf6	0.003297565
198	0x3d4fa9b2	0.050698943
199	0xbde26bcf	-0.11055719
200	0xbd807db2	-0.062739745
201	0xbe0443a6	-0.12916431
202	0x3c3d2add	0.011545864
203	0x3d9056be	0.07047795
204	0xbd55ac53	-0.052166294
205	0xbd3a6ca1	-0.045513753
206	0x3eb81fe2	0.35961825
207	0xbc8f42c1	-0.017487885
208	0x3d38d407	0.04512408
209	0xbc87c769	-0.016574578
210	0xbda9bbf0	-0.08287799
211	0xbb4bbfd7	-0.0031089687
212	0xbdeaa1a5	-0.114566125
213	0xbddaacbf	-0.1067748
214	0x3d6b0fef	0.057388242
215	0x3d0bdc52	0.03414566
216	0xbd5f0a50	-0.054453194
217	0xbd1a60ac	-0.03768985
218	0xbd7f50fe	-0.0623331
219	0xbe257c45	-0.16160686
220	0xbcb03869	-0.021511273
221	0xbc591ff2	-0.013252245
222	0xbc240939	-0.0100119645
223	0xbcbdc9a0	-0.023167431
224	0x3cb4dd6f	0.022078244
225	0x3c4abc31	0.01237397
226	0xbe91571b	-0.2838677
227	0xbcabb6f0	-0.020961255
228	0x3de366dd	0.11103604
229	0xbdf20c6c	-0.118187755
230	0x3d9d0959	0.076677985
231	0xbc7c29fe	-0.015390871
232	0xbdc0e706	-0.09419064
233	0xbd6cbc6b	-0.057796877
234	0xbcdc80c6	-0.026916873
235	0xbc8eb6f8	-0.01742123
236	0xbd068408	-0.03284076
237	0xbd86bfcc	-0.06579551
238	0x3de463aa	0.11151822
239	0xbc376c44	-0.011195246
240	0xbdcb4b3a	-0.09926458
241	0x3f87d059	1.0610458
242	0xbda26822	-0.07930018
243	0xbd402893	-0.046913695
244	0xbdb43cf4	-0.088006884
245	0x3e812de0	0.25230312
246	0xbdd0fb3d	-0.1020417
247	0xbd3e8572	-0.046513982
248	0xbd1c793e	-0.038201563
249	0xbdd5742e	-0.1042255
250	0xbc1785a3	-0.00924817
251	0xbdbc2c34	-0.091881186
252	0xbd9c7dfa	-0.076412156
253	0x3c6f0ea1	0.01459089
254	0x3c06abce	0.008219672
255	0xbda3ddca	-0.08001287

features.fc2.bias f4 [84]
0	0xbd5907fc	-0.05298613
1	0xbe067755	-0.13131459
2	0xbe885d61	-0.26633742
3	0xbc2700c9	-0.010193058
4	0xbd17f28a	-0.037096538
5	0xbd512e69	-0.05106965
6	0xbd5eef45	-0.054427404
7	0xbde2dd1e	-0.11077331
8	0xbe5c01ae	-0.21485016
9	0x3c8c70cb	0.017143628
10	0xbd9eecf6	-0.077600405
11	0xbdd4204d	-0.103577234
12	0xbde878d5	-0.11351172
13	0xbd63bb96	-0.055598818
14	0xbd545e8a	-0.051847972
15	0x3e5f1fb7	0.21789442
16	0xbdf68e85	-0.12038902
17	0xbe825e43	-0.2546254
18	0xbe2e92c2	-0.17048171
19	0xbdbb81ed	-0.09155641
20	0x3f1abeb9	0.6044727
21	0xbcfda831	-0.030963989
22	0x3b3c7a9c	0.0028759604
23	0xbcb39f5e	-0.021926578
24	0x3dc2e310	0.09515965
25	0x3e8eddbf	0.27903554
26	0xbdb8daab	-0.090260826
27	0x3e541ee0	0.20714903
28	0xbe89e1b5	-0.26930013
29	0x3ea83e43	0.32860002
30	0xbe2f6573	-0.17128544
31	0xbdfaf3fc	-0.122535676
32	0x3e0bbdfb	0.1364669
33	0xbef26057	-0.47339126
34	0x3c8ea58c	0.017412923
35	0xbe841970	-0.25800657
36	0xbe6dc532	-0.23219755
37	0xbdffd854	-0.12492433
38	0xbd7807c8	-0.060554296
39	0x3e1490ed	0.1450841
40	0xbbf730a2	-0.0075436393
41	0xbe25fac4	-0.1620894
42	0xbda191c6	-0.07889132
43	0xbe1d1462	-0.15339807
44	0xbd489ebe	-0.048979513
45	0xbd9b85dc	-0.07593891
46	0xbe21e605	-0.15810402
47	0xbdb3c5f9	-0.08777995
48	0xbe22b411	-0.15889002
49	0xbec291f6	-0.38001984
50	0xbd0b0fa2	-0.033950455
51	0xbd8dc117	-0.069215946
52	0xbe9bba89	-0.30415753
53	0x3e07c145	0.1325732
54	0xbd92fc27	-0.071770005
55	0xbd7989ca	-0.06092242
56	0x3f0f3ad3	0.55949134
57	0x3e3c0012	0.18359402
58	0xbe3528d1	-0.17691351
59	0xbd87a262	-0.06622769
60	0x3c9203c0	0.017824054
61	0x3e5fed50	0.21867871
62	0xbddc6711	-0.10761846
63	0x3e399fd6	0.18127379
64	0xbd8bed59	-0.0683238
65	0xbeb0eb37	-0.34554455
66	0xbe229707	-0.15877925
67	0xbe97fbdf	-0.2968435
68	0xbe278ada	-0.16361561
69	0xbe06cee8	-0.13164866
70	0x3da0754e	0.07834874
71	0x3f03b322	0.5144521
72	0xbebd69a2	-0.36994654
73	0xbd2512da	-0.04030118
74	0xbe18257d	-0.1485805
75	0xbd011eb5	-0.031523425
76	0x3d8131d8	0.06308335
77	0x3e8d6a93	0.27620372
78	0x3d5ed251	0.054399792
79	0xbd908e27	-0.070583634
80	0xbdea0be2	-0.11428048
81	0xbd802597	-0.0625717
82	0xbdec3c6e	-0.115349635
83	0x3df0ee7a	0.11764236

l1.weight f4 [84, 84]
0	0xbcb0dce2	-0.0215897
1	0xbd2cd4ad	-0.04219501
2	0xbd8db66c	-0.0691956
3	0x3c9bd104	0.019020565
4	0xbd4c7ad3	-0.04992182
5	0xbcd130cb	-0.025535962
6	0xbd8222d5	-0.063543
7	0xbd4d8f57	-0.050185528
8	0xbdcfb6b0	-0.10142267
9	0xbdb88224	-0.09009197
10	0x3d94b0e2	0.072603
11	0x3d5c7083	0.053818237
12	0x3d900c2a	0.0703357
13	0x3d46ac70	0.048504293
14	0xbc83740f	-0.016046552
15	0xbb769695	-0.0037626375
16	0xbc81e47a	-0.015856016
17	0xbd9ca4ba	-0.076486066
18	0xbd4c2f0b	-0.04984955
19	0xbd3a988f	-0.045555647
20	0x3c295a70	0.010336503
21	0x3b4f94e1	0.0031674432
22	0xbd36b679	-0.044607613
23	0xbd163c3a	-0.03667853
24	0xbd87b13a	-0.066256
25	0xbde8b4ad	-0.11362586
26	0xbc53dca3	-0.012931022
27	0x3c89f040	0.016838193
28	0xbd89bd21	-0.067255266
29	0xbe128635	-0.14309008
30	0xbd8c184e	-0.06840573
31	0xbdd24333	-0.102667235
32	0x3d2ef2bc	0.04271196
33	0xbd981d87	-0.07427507
34	0x3ca1e80a	0.019763965
35	0xbd98eb85	-0.07466797
36	0xbda7c2af	-0.0819143
37	0xbd6479ef	-0.055780347
38	0x3d751dbf	0.05984282
39	0x3d56a1cb	0.05240039
40	0xbd008d7c	-0.03138493
41	0x3d664aad	0.05622356
42	0x3ccf720e	0.02532294
43	0xbda24ad6	-0.0792443
44	0xbc37f0f5	-0.011226882
45	0xbc2d2bd9	-0.010569536
46	0x3d9d0f70	0.0766896
47	0xbda6c896	-0.081437275
48	0x3cb9a18d	0.022660041
49	0xbdb3881d	-0.08766196
50	0xbd7d97c1	-0.061912302
51	0xbd78438d	-0.060611296
52	0x3c4c2c71	0.0124617675
53	0xbda34fa1	-0.079741724
54	0x3c841114	0.016121425
55	0xbdcba93a	-0.09944387
56	0xbddf1f4b	-0.108946405
57	0xbd422fcc	-0.047408864
58	0x3ad2c250	0.0016079638
59	0xbdac2ee5	-0.08407382
60	0x3efa20f0	0.48853254
61	0xbd48f622	-0.049062856
62	0xbd7e9a85	-0.06215908
63	0xbd11afd9	-0.035568092
64	0xbdac19d6	-0.08403365
65	0xbd94e6a9	-0.072705574
66	0xbd89ae11	-0.06722654
67	0xbe0a8dab	-0.13530605
68	0xbd9ce3c5	-0.07660631
69	0x3d26a9e7	0.040689375
70	0x3c82e008	0.015975967
71	0xbd9a27bf	-0.07527112
72	0xbc897757	-0.016780538
73	0xbcc452d8	-0.023965284
74	0x3c84fb33	0.016233062
75	0xbd6984a3	-0.057011258
76	0xbd7b47c7	-0.06134775
77	0x3c8d76dc	0.01726859
78	0xbd61333d	-0.054980505
79	0xbd8a3723	-0.06748798
80	0x3cb42c9f	0.021993933
81	0xbdd1f880	-0.10252476
82	0xbdefc15f	-0.117068045
83	0x3d264781	0.040595535
84	0x3b4a53ea	0.003087277
85	0x3c0ff44c	0.008786272
86	0xbddf35ed	-0.108989574
87	0xbd71dec9	-0.059050355
88	0xbe1dc150	-0.15405774
89	0xbca4ab4b	-0.02010121
90	0xbc0a00d1	-0.008423046
91	0xbd88efd8	-0.066863716
92	0xbdde8054	-0.108643204
93	0x3d4c3314	0.0498534
94	0x3cf18a8f	0.029485015
95	0xbba9b8de	-0.0051795086
96	0x3c39e5ae	0.011346264
97	0xbbe754da	-0.0070596756
98	0xbd036ff3	-0.032089185
99	0xbdc4df7b	-0.09612938
100	0xbe048bd9	-0.12943973
101	0xbdb34e48	-0.08755165
102	0xbd774416	-0.060367666
103	0xbdda8e23	-0.10671642
104	0xbdd7a4c8	-0.105294764
105	0x3d825c24	0.06365231
106	0xbd74e191	-0.05978543
107	0xbbeef70f	-0.0072926353
108	0xbdbc57ef	-0.091964595
109	0xbde108f9	-0.109880395
110	0xbdbb9517	-0.09159296
111	0xba130b7a	-0.0005609315
112	0xbe326649	-0.17421831
113	0xbd9b354d	-0.07578526
114	0xbcb06744	-0.021533616
115	0x3be3e4f8	0.0069547854
116	0x3d20ab78	0.039226025
117	0xbdcfe21c	-0.10150549
118	0xbdab922b	-0.08377489
119	0xbbec963e	-0.0072200587
120	0xbbe97718	-0.007124793
121	0xbd9cb071	-0.07650841
122	0xbd385836	-0.045006
123	0xbd63e459	-0.05563769
124	0xbdef1b68	-0.11675149
125	0xbda694c1	-0.08133841
126	0xbe03e4f5	-0.12880309
127	0xbdccf036	-0.10006754
128	0xbdae9469	-0.08524401
129	0x3ca5bbfc	0.02023124
130	0xbd2dcb6c	-0.042430326
131	0xbdd7fc8f	-0.105462186
132	0x3b173108	0.0023069996
133	0xbeb6c688	-0.35698342
134	0xbd943d73	-0.07238283
135	0xbcca7598	-0.024714276
136	0x3c1024c3	0.008797827
137	0xbdb98bc9	-0.09059865
138	0xbcd79f16	-0.026320975
139	0xbd227b9c	-0.039668664
140	0xbdf89d8a	-0.12139423
141	0xbd00b520	-0.031422734
142	0xbdf4bd0b	-0.119501196
143	0xbbf02567	-0.0073286775
144	0xbce8473b	-0.028354278
145	0xbdf17564	-0.117899686
146	0xbd25a591	-0.0404411
147	0xbd03ef5d	-0.032210696
148	0xbdc9d3b6	-0.09854834
149	0xbdd5bc8d	-0.10436354
150	0x3d29be19	0.041441057
151	0xbd1c1f4a	-0.038115777
152	0x3c1e00f5	0.009643783
153	0xbd4e7364	-0.050403014
154	0xbd13aacc	-0.036051556
155	0xbe3439dc	-0.17600197
156	0xbaab154c	-0.0013052612
157	0xbd5807c9	-0.0527418
158	0xbdba0b9a	-0.09084244
159	0xbd12a8c0	-0.035805464
160	0xbcaf6f88	-0.021415487
161	0x3d3dbef6	0.046324693
162	0xbd6ea980	-0.058267117
163	0xbe197463	-0.14985804
164	0x3d91cb27	0.07118826
165	0x3b7624e4	0.003755861
166	0xbd7ecb86	-0.062205814
167	0x3cccf8d0	0.025020987
168	0x3d3f1775	0.04665323
169	0xbd9432a9	-0.07236225
170	0xbd440cc9	-0.047863755
171	0x3c308f4e	0.010776354
172	0x3c76ca42	0.01506287
173	0xbd0de0fe	-0.034638397
174	0xbc69569d	-0.014241842
175	0xbd6df7ed	-0.05809777
176	0xbe5dfbcf	-0.21678089
177	0xbd3afb7b	-0.045649987
178	0xbdd752e6	-0.105138585
179	0xbda568a7	-0.080766015
180	0xbd4ade28	-0.04952827
181	0x3cc7c39f	0.024385272
182	0x3c57217b	0.013130541
183	0xbd74eb36	-0.059794627
184	0xbd86c933	-0.065813445
185	0xbd48be0d	-0.04900937
186	0xbd7768ba	-0.06040261
187	0xbdd06c1a	-0.10176869
188	0xbd6485df	-0.055791732
189	0xbd60a377	-0.054843392
190	0x3d2ed359	0.042682026
191	0xbcd18f46	-0.025581013
192	0xbe1e7798	-0.15475309
193	0xbde84885	-0.11341957
194	0xbdd6a53b	-0.10480734
195	0xbd2b7408	-0.041858703
196	0xbee48b32	-0.44637448
197	0xbdaea651	-0.08527816
198	0xbd85c56a	-0.06531794
199	0x3cf20a60	0.029545963
200	0x3c2d2558	0.0105679855
201	0xbcaf7214	-0.021416701
202	0xbdc72e58	-0.09725636
203	0x3be1dd4f	0.006892837
204	0xbdb29046	-0.08718924
205	0xbdb6b6ed	-0.08921609
206	0x3bc7d51c	0.0060984027
207	0xbdaef428	-0.08542663
208	0xbe49c467	-0.19703828
209	0x3d11e8ee	0.03562253
210	0xbd229c24	-0.03969969
211	0xbe7a2ad0	-0.24430394
212	0xbdbbcbc0	-0.091697216
213	0xbbbed3ec	-0.005823603
214	0x3d3f4cb0	0.046703994
215	0xbc201687	-0.009770996
216	0xbc80531c	-0.01566463
217	0xbde9be3f	-0.1141324
218	0xbb4b56cf	-0.0031027084
219	0xbdb42753	-0.08796563
220	0xbda73ed0	-0.081662774
221	0x3cc5279b	0.024066737
222	0x3c2f6a4c	0.0107064955
223	0xbd4fc76c	-0.050727293
224	0xbd21748f	-0.0394178
225	0xbdcc77bd	-0.09983776
226	0xbd01480b	-0.031562846
227	0xbcfb7e78	-0.030699953
228	0xbd82c6e5	-0.06385592
229	0xbf05f8e1	-0.52332884
230	0xbda1120f	-0.078647725
231	0xbd8fe5c6	-0.07026248
232	0xbe0daee8	-0.13836253
233	0xbc1705e3	-0.009217712
234	0xbd5bb675	-0.0536408
235	0xbc99f2a7	-0.018792463
236	0xbe078dbb	-0.1323766
237	0x3d584c37	0.05280706
238	0xbd5f9498	-0.05458507
239	0xbd60bbaa	-0.05486647
240	0x3d048ee6	0.03236284
241	0xbc72c38e	-0.014817132
242	0xbdb75e29	-0.089535065
243	0xbdc590df	-0.096467726
244	0xbe409f5d	-0.18810792
245	0x3d0e14a6	0.03468766
246	0xbe03c87f	-0.12869452
247	0x3bad6c28	0.0052924342
248	0xbac14b4b	-0.001474717
249	0xbd884d53	-0.066553734
250	0xbcd3a209	-0.0258341
251	0x3d301177	0.042985406
252	0xbc5ef2dc	-0.013607707
253	0xbdd24d20	-0.10268617
254	0xbe375753	-0.17904405
255	0xbdb5e398	-0.08881301

l1.bias f4 [84]
0	0xbe36ec4d	-0.17863579
1	0x3d3bc91e	0.045846097
2	0xbe274b56	-0.16337332
3	0xbe157072	-0.14593676
4	0xbd244d5f	-0.04011285
5	0xbed83cdf	-0.4223394
6	0xbe4144f9	-0.18873967
7	0xbddd2455	-0.107979454
8	0xbe47d401	-0.19514467
9	0xbe3759c6	-0.1790534
10	0xbd2e8594	-0.04260786
11	0x3d610469	0.054935846
12	0x3d8601cf	0.06543314
13	0xbc34a63a	-0.01102596
14	0xbea249fe	-0.31697077
15	0xbe871965	-0.26386562
16	0xbd85c105	-0.06530956
17	0xbc59a18e	-0.013283147
18	0xbe5f723e	-0.21820924
19	0xbe09a890	-0.13443208
20	0xbe3a0a38	-0.1816796
21	0xbe4e3cf5	-0.20140441
22	0x3e80b452	0.25137573
23	0xbe1961a1	-0.14978649
24	0xbe72511d	-0.23663755
25	0xbe5fa625	-0.21840723
26	0x3d803d51	0.06261695
27	0xbe3ad0a1	-0.18243648
28	0xbe514cf4	-0.20439512
29	0xbd5e7cc5	-0.05431821
30	0xbe020f40	-0.1270113
31	0xbe4a9f4f	-0.19787334
32	0xbe1c97c3	-0.15292268
33	0xbe2e4cc7	-0.17021476
34	0xbd7154db	-0.058918815
35	0x3ecd3e08	0.4008639
36	0xbe33d615	-0.17562135
37	0xbe5f6c8c	-0.21818751
38	0xbf067dc6	-0.52535665
39	0xbe31f90a	-0.17380157
40	0xbe3e495e	-0.18582675
41	0xbddaa6a1	-0.10676313
42	0xbf2f6365	-0.6851104
43	0xbe80b3b8	-0.25137115
44	0xbc2e68ae	-0.010645075
45	0xbe1f0dad	-0.1553256
46	0xbda366bf	-0.07978582
47	0xbf837a83	-1.0271763
48	0xbe625d3e	-0.22105882
49	0xbe57fda2	-0.21092847
50	0xbe17b685	-0.1481572
51	0xbf680465	-0.90631706
52	0x3d40a1d3	0.047029328
53	0xbe8b359c	-0.27189338
54	0xbe415f83	-0.18884091
55	0xbe221cab	-0.15831248
56	0xbd8e425a	-0.06946249
57	0x3d216108	0.039399177
58	0xbe634c69	-0.22197117
59	0xbe309fea	-0.17248502
60	0xbe630af5	-0.22172149
61	0xbe1224a3	-0.14271788
62	0xbdccd7a9	-0.100020714
63	0x3c044ac3	0.008074465
64	0xbdc13a6d	-0.09434972
65	0xbd64d156	-0.0558637
66	0xbe95741b	-0.29190144
67	0xbbb00dc9	-0.005372737
68	0xbda7bc48	-0.08190209
69	0xbd9747f0	-0.07386768
70	0xbdacc3cd	-0.084357835
71	0xbf48e7c0	-0.7847862
72	0xbd799d90	-0.06094128
73	0xbcae075a	-0.02124374
74	0xbdb5fc8e	-0.088860616
75	0xbdb50d85	-0.08840469
76	0xbf1d8b2a	-0.6154047
77	0xbdffa97e	-0.124835
78	0xbe1edd0a	-0.15514007
79	0xbfd284c2	-1.6446764
80	0xbdf50dbd	-0.11965511
81	0x3d27a353	0.040927242
82	0xbe019292	-0.12653568
83	0x3df2ab5c	0.118490905

l2.weight f4 [256, 84]
0	0xbdb7b2cf	-0.08969652
1	0xbd168380	-0.036746502
2	0x3d1d1c09	0.038356815
3	0x3d1ff4cb	0.039051812
4	0xbd98e0f1	-0.07464779
5	0x3d8c298a	0.068438604
6	0xbc9f982d	-0.019481743
7	0xbd0aa09a	-0.033844568
8	0x3e07db04	0.13267142
9	0xbcfb3d32	-0.030668829
10	0xbd28ce23	-0.041212212
11	0xbd00179a	-0.03127251
12	0xbc8495a6	-0.01618464
13	0x3c4bf051	0.012447433
14	0x3c72f777	0.014829508
15	0x3d8afe14	0.06786743
16	0x3c4def86	0.012569314
17	0xbd9ca4fd	-0.076486565
18	0x3d6a8999	0.05726013
19	0x3d09300a	0.03349308
20	0xbdc7d339	-0.097570844
21	0xbefdf097	-0.49597618
22	0xbd13a766	-0.036048315
23	0xbc306aa7	-0.010767615
24	0xbd5dff07	-0.05419829
25	0xbd29665d	-0.041357387
26	0xbd2f607f	-0.042816635
27	0x3d964d39	0.07338948
28	0x3d31327f	0.043261047
29	0xbda459f9	-0.080249734
30	0xbaad0b2c	-0.0013202182
31	0x3ce7d369	0.02829905
32	0x3dce8049	0.10083062
33	0x3c0ed91a	0.008718753
34	0x3b5eb479	0.0033982082
35	0xbcb4f75e	-0.02209061
36	0x3ddb9f24	0.10723713
37	0xbd73dadc	-0.059534892
38	0x3deb625a	0.114933684
39	0xbd81727d	-0.06320665
40	0x3b316d39	0.0027073158
41	0x3ac09865	0.0014693855
42	0x3e220107	0.15820704
43	0x3db43f6f	0.088011615
44	0x3d2f149f	0.042744275
45	0x3b9f349d	0.004858567
46	0x3d1727fa	0.03690336
47	0xbeec29bb	-0.46125588
48	0x3dba0d8a	0.090846136
49	0xbb469d55	-0.003030618
50	0xbc654795	-0.013994117
51	0x3e328a85	0.17435654
52	0x3d1935df	0.03740489
53	0x3d9c98db	0.07646342
54	0xbd518f26	-0.051161908
55	0xbe02db88	-0.12779057
56	0x3bf4a4d7	0.0074659395
57	0xbd0cf4ac	-0.034413025
58	0x3d504c4b	0.05085401
59	0x3e02b875	0.12765677
60	0x3dbf0efc	0.0932903
61	0x3db9e1e5	0.09076289
62	0x3c9e5527	0.019327713
63	0xbd02eb86	-0.031962894
64	0xbe1a09c4	-0.15042788
65	0x3d9d6f99	0.07687301
66	0x3d485098	0.048904985
67	0x3da75ff9	0.08172602
68	0xbcbdeade	-0.023183282
69	0xbc73a145	-0.014869993
70	0x3d36829f	0.044558164
71	0x3d24c5a8	0.040227562
72	0x3d3ddf0c	0.046355292
73	0x3cc042cd	0.023469353
74	0xbd8972e4	-0.06711367
75	0xbbc6ba81	-0.0060647135
76	0x3d4955e1	0.049154166
77	0xbae2cc3e	-0.00173033
78	0xbd381fa3	-0.044952046
79	0x3f5edc7a	0.8705517
80	0x3c3b43b0	0.011429712
81	0xbcbcb332	-0.023034666
82	0xbd50b843	-0.050956976
83	0xbcf07a5e	-0.029355224
84	0xbd147d7b	-0.03625248
85	0xbd75b22d	-0.059984375
86	0xbb497429	-0.0030739403
87	0xbd4aebfd	-0.049541462
88	0xbcef3928	-0.029202059
89	0xbd930ad2	-0.07179798
90	0x3cbc33ac	0.022973858
91	0x3c9c0156	0.019043606
92	0x3d1a3295	0.037645895
93	0x3ce2838e	0.02765062
94	0xbd763785	-0.06011154
95	0x3d844f5e	0.064604506
96	0xbdbaac0b	-0.09114846
97	0x3d08108b	0.0332189
98	0xbdce0b8f	-0.100607984
99	0x3ca50621	0.020144524
100	0xbce9767d	-0.028498882
101	0x3cb5691a	0.022144843
102	0xbd919d8d	-0.071101286
103	0xbcf788c0	-0.030216575
104	0x3d669059	0.056290004
105	0xbe21c1b1	-0.15796544
106	0x3d1266aa	0.03574244
107	0x3d17bc86	0.037045024
108	0xbd43de91	-0.047819678
109	0x3db0f709	0.08640868
110	0x3c8bf683	0.01708532
111	0xbdd1d720	-0.1024611
112	0x3d10a6ff	0.03531551
113	0x3d65866f	0.05603641
114	0xbd421fed	-0.047393728
115	0xbd5d2d45	-0.05399825
116	0xbcf54e38	-0.029944524
117	0x3d581298	0.052752107
118	0xbd98ae59	-0.07455129
119	0xbdd07fea	-0.10180648
120	0x3bff4d14	0.007791171
121	0x3d65b6a5	0.056082387
122	0xbddf4ff0	-0.10903919
123	0x3d1016fb	0.035178166
124	0x3ba6682e	0.005078337
125	0x3d904bb3	0.070456885
126	0xbde40d67	-0.11135369
127	0xbd66107f	-0.056168076
128	0x3ca5e588	0.02025105
129	0xbdbe1014	-0.092804104
130	0xbc8c2c84	-0.01711107
131	0x3f166c70	0.5875921
132	0xbccbd94e	-0.024883892
133	0xbd6cc34e	-0.057803445
134	0xbda78040	-0.081787586
135	0xbe2e2396	-0.17005762
136	0x3c1bb028	0.009502448
137	0xbd9e1a99	-0.07719917
138	0xbcf8d259	-0.03037374
139	0xbb42c0a5	-0.0029716876
140	0x3d08eb79	0.03342769
141	0x3d1c186a	0.03810922
142	0xbc5d6583	-0.013512972
143	0xbd9b3755	-0.07578913
144	0x3e4d88aa	0.20071664
145	0xbe3e907b	-0.18609802
146	0x3dc3e7f0	0.09565723
147	0x3c453204	0.01203585
148	0x3e980193	0.296887
149	0x3d352496	0.044224344
150	0x3d93f310	0.07224095
151	0xbbab8545	-0.005234393
152	0x3d8272a6	0.06369524
153	0xbd3def5a	-0.04637084
154	0x3d2017e2	0.039085276
155	0xbc5cb557	-0.013470969
156	0x3d616a03	0.05503274
157	0xbd848db7	-0.064723425
158	0x3cd870b1	0.026420923
159	0xbd34936e	-0.044085912
160	0xbe2b775b	-0.16744749
161	0xbd6f8911	-0.058480326
162	0x3c5643b2	0.013077663
163	0xbf9b67b8	-1.2141027
164	0xbd2259ba	-0.03963635
165	0x3bbc166b	0.005739977
166	0x3d3b6f6c	0.045760557
167	0x3c840014	0.016113319
168	0xbd21a3d0	-0.039462864
169	0xbcb30996	-0.021855157
170	0x3d130590	0.035893977
171	0x3e280d69	0.16411366
172	0xbdb17e07	-0.08666616
173	0x3d714461	0.0589031
174	0x3d5df9f8	0.054193467
175	0xbce188ca	-0.027531046
176	0x3f3ce64a	0.73788893
177	0x3cf8ce47	0.030371798
178	0x3cfbd010	0.03073886
179	0x3c9486e5	0.018130729
180	0x3cca9144	0.024727471
181	0x3c1b5a99	0.009482049
182	0xbd52fd0a	-0.051510848
183	0xbd2c119c	-0.04200898
184	0xbd23333f	-0.039843794
185	0xbc75377a	-0.01496684
186	0xbc5b8138	-0.013397507
187	0xbbe50f58	-0.0069903545
188	0xbb1c63dc	-0.0023863232
189	0x3f85e603	1.0460819
190	0xbda598ba	-0.08085771
191	0xbd1fd6f1	-0.039023343
192	0x3d58652d	0.052830864
193	0x3d8ae9df	0.067828886
194	0xbc5ac89e	-0.013353495
195	0xbcf3a367	-0.029741002
196	0x3b41e4b9	0.0029585792
197	0xbd922ca6	-0.07137422
198	0xbdc66476	-0.0968713
199	0xbda52aa9	-0.080647774
200	0xbcd2a393	-0.025712764
201	0xbd807fe8	-0.06274396
202	0x3d4d8411	0.050174776
203	0xbc6e3065	-0.014537905
204	0x3c32c4cc	0.010911178
205	0xbca43ce9	-0.020048575
206	0x3d35960e	0.044332556
207	0xbd806c78	-0.06270689
208	0x3d779d42	0.060452707
209	0xbe0b8f3a	-0.13628855
210	0x3dc32e08	0.09530264
211	0x3dc68dbd	0.09695003
212	0xbd9049ac	-0.07045302
213	0x3d64d116	0.055863462
214	0x3db45ad7	0.08806389
215	0xbf85fbc6	-1.046746
216	0x3c8bbf56	0.01705901
217	0xbd080e76	-0.033216916
218	0xbd0be253	-0.034151386
219	0x3d97d1f4	0.07413092
220	0xbd056dec	-0.032575533
221	0xbc46b6e7	-0.012128568
222	0xbcdc39a1	-0.026882948
223	0xbcdae7bf	-0.026721833
224	0xbd372621	-0.044714097
225	0x3c9db504	0.019251354
226	0x3c804d4d	0.01566186
227	0xbd3d03b6	-0.046146117
228	0xbe30155c	-0.17195648
229	0x3d8b40d3	0.067994736
230	0x3cc65a04	0.024212845
231	0xbce3007e	-0.027710196
232	0xbddea20a	-0.1087075
233	0xbd59249b	-0.053013425
234	0xbdcb23d9	-0.09918947
235	0x3c4a595e	0.012350408
236	0xbcf80433	-0.03027544
237	0x3a89a439	0.0010501213
238	0xbd0a0497	-0.033695783
239	0x3cd89715	0.026439229
240	0x3d64221a	0.055696584
241	0x3d03ec56	0.03220781
242	0x3cc820ec	0.02442976
243	0xbdc29655	-0.0950133
244	0x3d798bb2	0.06092424
245	0x3d04e980	0.032449245
246	0x3c09a101	0.008400203
247	0x3ed7fb02	0.4218369
248	0xbcebfdfd	-0.028807634
249	0x3b241cd3	0.0025041595
250	0xbde49f68	-0.11163217
251	0xbb89e2c5	-0.0042079412
252	0xbd653f32	-0.05596847
253	0x3d65fc00	0.05614853
254	0x3c1b632d	0.009484095
255	0xbd2bad55	-0.04191335
