models/fedavg/globalmodelexperiment_log-2023-09-04-1859-48.pth (torch, 375691 bytes, 14 tensors)

features.conv1.weight f4 [6, 3, 5, 5]
0	0xbd8f1709	-0.069868155
1	0xbe320239	-0.1738366
2	0xb91469d0	-0.00014153798
3	0xbce3923f	-0.027779697
4	0xbdf05084	-0.11734107
5	0x3ce941c4	0.028473742
6	0x3ca6119e	0.020272072
7	0xbcfc5f2f	-0.030807106
8	0xbe5510a0	-0.20807123
9	0xbd536785	-0.051612396
10	0x3daabde3	0.08336999
11	0x3d2a2411	0.0415383
12	0x3c974c72	0.01846907
13	0xbd808ac8	-0.062764704
14	0xbe0b922b	-0.13629977
15	0xbd11393f	-0.035454985
16	0x3dfe0433	0.12403145
17	0x3e15fa2d	0.14646216
18	0x3e3d53cd	0.18488999
19	0x3dc23d6a	0.0948437
20	0xbd577eba	-0.05261109
21	0xbdb2f8a2	-0.08738829
22	0x3e0a2d0f	0.13493751
23	0x3d64c217	0.05584916
24	0x3d8c0386	0.068366095
25	0xbd6d9d59	-0.058011387
26	0xbb7151dc	-0.0036822474
27	0xbdf198d7	-0.1179673
28	0x3d8a7514	0.06760612
29	0x3d368c00	0.04456711
30	0x3d907932	0.07054366
31	0xbd56dcc2	-0.052456625
32	0xbd261710	-0.040549338
33	0xbe12f8d2	-0.1435273
34	0xbe0c69c2	-0.13712218
35	0x3e1a0280	0.15040016
36	0x3e0854f4	0.13313657
37	0x3dc71799	0.09721298
38	0x3d1bf1aa	0.038072266
39	0x3db6de6b	0.089291416
40	0xbd2c1c64	-0.042019263
41	0x3df1b61a	0.11802311
42	0x3ddf9a1e	0.109180674
43	0x3e06da08	0.1316911
44	0x3d93dbfc	0.07219693
45	0x3de63be1	0.1124189
46	0x3e0c6d3f	0.13713549
47	0x3dd3e070	0.103455424
48	0x3dd52db4	0.10409108
49	0x3e2f2eae	0.1710765
50	0x3da3703d	0.07980392
51	0x3d74394a	0.059624948
52	0xbdbdedef	-0.09273898
53	0x3d2858d1	0.041100327
54	0x3d7a5356	0.06111463
55	0xbcf430c8	-0.029808417
56	0x3a626374	0.00086360355
57	0xbd9eb640	-0.07749605
58	0xbdf40574	-0.119151026
59	0xbe371d8d	-0.17882366
60	0x3db4ed9d	0.08834384
61	0xbd072501	-0.032994274
62	0xbda9c810	-0.08290112
63	0x3b45d4cc	0.0030186651
64	0x3d27e75d	0.04099213
65	0x3bfc6192	0.007702061
66	0x3de40df8	0.11135477
67	0x3d10219f	0.035188314
68	0x3d31c028	0.043396145
69	0xbc23feb9	-0.010009461
70	0xbdc436c8	-0.09580761
71	0xbdd4162d	-0.10355792
72	0x3d83f584	0.06443313
73	0xbd99e65c	-0.07514641
74	0x3d826903	0.06367686
75	0x3e29845a	0.16554394
76	0x3e2a422d	0.16626807
77	0x3e24a890	0.16079926
78	0x3e1dc4a7	0.15407048
79	0x3dffd47e	0.124917015
80	0x3e1cc4e0	0.15309477
81	0x3df59bd5	0.11992613
82	0x3e5312b0	0.20612597
83	0x3e821a9a	0.2541092
84	0x3dc8af91	0.09799112
85	0x3e2dd742	0.16976646
86	0x3e63097a	0.22171584
87	0x3e1b9391	0.15193011
88	0x3e962967	0.29328462
89	0x3e35a808	0.1773988
90	0x3d5523f4	0.05203624
91	0x3d9d3444	0.076759845
92	0x3d54e97b	0.051980477
93	0xbe0fb3a1	-0.14033367
94	0xbe5027e5	-0.20327719
95	0xbea08547	-0.31351683
96	0xbe514e1e	-0.20439956
97	0xbe6c0e42	-0.23052314
98	0xbead0c45	-0.33798423
99	0xbeb9878e	-0.36236233
100	0x3d948f9a	0.07253952
101	0xbbdc1194	-0.0067159627
102	0xbd083c92	-0.03326089
103	0x3d0cce54	0.034376457
104	0xbdda524a	-0.10660227
105	0xbdce16fd	-0.100629784
106	0xbdf5bbc4	-0.11998704
107	0xbe08a110	-0.1334269
108	0xbd68557e	-0.056722157
109	0xbd6d5952	-0.05794651
110	0x3c30e8e2	0.010797711
111	0xbda4ec31	-0.080528624
112	0x3e193b04	0.14963919
113	0xbc8e4384	-0.017366178
114	0x3d436b8f	0.047709998
115	0x3c589aeb	0.013220529
116	0xbe2d59be	-0.16928765
117	0xbe13882b	-0.14407413
118	0xbda7cb6a	-0.08193095
119	0x3c55b336	0.0130432155
120	0xbe496e61	-0.19671012
121	0xbe925807	-0.28582785
122	0xbe9d5840	-0.30731392
123	0xbd05e334	-0.03268738
124	0xbe3a0892	-0.18167332
125	0x3d11e1b1	0.035615627
126	0x3b01bbd0	0.0019795783
127	0xbe1732fa	-0.1476554
128	0xbdb8dc9a	-0.090264514
129	0xbd152b5a	-0.036418296
130	0xbe06ab7f	-0.13151358
131	0xbe380bb8	-0.1797322
132	0x3cccdfdd	0.02500909
133	0xbc87f4c7	-0.016596211
134	0xbda74162	-0.08166768
135	0x3e1768c4	0.14786059
136	0x3e266759	0.16250362
137	0x3e720070	0.2363298
138	0x3e06b1d6	0.13153777
139	0x3e27d2ca	0.16389003
140	0x3d830361	0.06397129
141	0x3ca5590c	0.020184062
142	0x3e26e8a8	0.16299689
143	0x3e438390	0.19093156
144	0x3df2f9cc	0.11864051
145	0xba385e90	-0.0007033134
146	0xbdb7ab7c	-0.08968255
147	0xbdc66db9	-0.09688897
148	0x3cfadd42	0.030623082
149	0xbcd6f30c	-0.02623894
150	0xbe35047a	-0.17677489
151	0x3cfcf004	0.030876167
152	0xbe4ea55e	-0.2018027
153	0xbd463bfa	-0.04839704
154	0xbde11b00	-0.10991478
155	0x3d86d95c	0.06584427
156	0x3dd02b6a	0.101645306
157	0xbcded159	-0.027199434
158	0x3cae79fc	0.021298401
159	0x3d89d45e	0.06729959
160	0xbdb97161	-0.090548284
161	0xbc5d06ae	-0.013490362
162	0xbdc53ed2	-0.09631123
163	0xbde35f13	-0.11102118
164	0xbda679fc	-0.081287354
165	0xbd791189	-0.06080774
166	0xbe3a04fe	-0.18165967
167	0xbe6f9c2e	-0.23399422
168	0xbdf232b9	-0.11826081
169	0xbe4b4462	-0.19850305
170	0x3e8fdb20	0.28096867
171	0x3e9d645f	0.3074064
172	0x3d8b7e86	0.06811242
173	0x3e780f85	0.2422467
174	0x3e92fc98	0.2870834
175	0x3d0601fa	0.03271673
176	0x3d5a228c	0.053255603
177	0xbde952c1	-0.11392737
178	0x3c8395b3	0.016062593
179	0xbde02f9e	-0.10946582
180	0xbc8d7aaf	-0.017270414
181	0x3dd40f6f	0.10354506
182	0x3e18aad6	0.14908919
183	0x3e0fb836	0.14035115
184	0x3e4e0a1d	0.20121045
185	0xbe618334	-0.22022706
186	0x3b79ab00	0.0038096309
187	0xbe16f7bc	-0.1474294
188	0xbde4d7aa	-0.11173947
189	0xbdf75fb9	-0.120788045
190	0xbe25d504	-0.1619454
191	0xbcab8d6c	-0.020941459
192	0xbeae1c46	-0.34005946
193	0xbdb09021	-0.086212404
194	0xbdbcea47	-0.09224372
195	0x3d13e289	0.036104713
196	0x3e3f4b06	0.18680963
197	0x3d8e0078	0.06933683
198	0x3e122e74	0.14275533
199	0xbd3e87d4	-0.046516255
200	0x3d8af595	0.06785122
201	0x3e3bd0cb	0.18341367
202	0xbd97fdc9	-0.074214526
203	0x3dd3b257	0.1033675
204	0x3dd0c5ba	0.10193963
205	0x3e431daf	0.19054292
206	0x3e8f9e70	0.28050566
207	0x3db9cbe6	0.09072094
208	0x3e7104d6	0.23537001
209	0x3d9efe19	0.07763309
210	0xbe099afb	-0.13438027
211	0x3c92d77c	0.017925017
212	0xbe4878f9	-0.19577397
213	0x3de285dc	0.11060688
214	0x3b367984	0.0027843425
215	0xbe0f154c	-0.13972968
216	0xbc1dad56	-0.009623846
217	0xbe17d07c	-0.14825624
218	0xbdee3a9f	-0.11632275
219	0xbdcc04e9	-0.09961874
220	0x3d0a2563	0.03372706
221	0x3e548270	0.20752883
222	0x3e315453	0.17317323
223	0x3df04305	0.11731533
224	0x3dcfde48	0.10149819
225	0x3cb177db	0.021663597
226	0x3db8a96c	0.0901669
227	0xbc926c6c	-0.017873965
228	0x3d00cdd7	0.031446304
229	0xbd675851	-0.05648071
230	0xbc86749b	-0.016413024
231	0xbe4dc10d	-0.20093174
232	0xbe0231ea	-0.12714353
233	0xbdf57b3d	-0.119863965
234	0xbe036085	-0.12829788
235	0xbe4a63ed	-0.19764681
236	0xbe7a2f46	-0.24432096
237	0xbe4d1ea7	-0.20031224
238	0xbe2537f0	-0.1613462
239	0xbd60a976	-0.05484911
240	0xbe431e3f	-0.19054507
241	0xbd4e1119	-0.050309274
242	0xbe17e351	-0.14832808
243	0xbe047a9f	-0.12937401
244	0xbdc66ce0	-0.09688735
245	0xbd1ade4b	-0.03780965
246	0xbe7f42d5	-0.24927838
247	0xbe5ea964	-0.21744305
248	0xbe5c210d	-0.21496983
249	0xbdc9163f	-0.09818696
250	0x3c67f604	0.014157776
251	0xbdd78250	-0.10522902
252	0xbca2e220	-0.019883215
253	0xbe08b8df	-0.13351773
254	0xb9fc9a14	-0.00048179983
255	0xbd394de7	-0.04524031

features.conv1.bias f4 [6]
0	0x3e6f43ad	0.2336566
1	0xbf1567e1	-0.5836163
2	0xbe3c949a	-0.18416062
3	0x3e1258f5	0.14291747
4	0xbec3e3b6	-0.38259667
5	0x3d3bc1c1	0.045839075

features.conv2.weight f4 [16, 6, 5, 5]
0	0x3e2b385a	0.16720715
1	0x3defe3b5	0.117133535
2	0x3d6ab1f2	0.057298608
3	0xbb8467d8	-0.0040406995
4	0x3d99824b	0.074955545
5	0x3de56256	0.11200397
6	0x3d950775	0.07276813
7	0x3cc88c37	0.024480922
8	0xbd72e166	-0.059296988
9	0xbc93490c	-0.017979167
10	0x3defc6b8	0.117078245
11	0x3d291c37	0.041286673
12	0x3cae971c	0.021312289
13	0x3bc3acb3	0.005971515
14	0xbcc1c4cf	-0.023653416
15	0x3dd0df62	0.10198857
16	0x3db8f546	0.09031157
17	0xbd1d7b48	-0.03844765
18	0x3db65c7c	0.08904359
19	0x3d564af7	0.052317586
20	0xbcb94f28	-0.022620752
21	0xbc3ecf92	-0.011646168
22	0xbdad92ba	-0.084752515
23	0x3cf9e0c5	0.030502686
24	0x3cc6c184	0.024262197
25	0x3d8c736c	0.068579525
26	0xbd046a5c	-0.032327995
27	0x3d6a34af	0.05717915
28	0x3d72cc18	0.05927667
29	0x3c7b5ffe	0.015342711
30	0x3ca7bcbf	0.020475743
31	0x3d1a6b0c	0.037699744
32	0xbd3d28a9	-0.046181355
33	0x3d779ce0	0.060452342
34	0x3c4d5e00	0.012534618
35	0xbce007c4	-0.027347453
36	0xbd64b2a2	-0.05583442
37	0x3d40acdc	0.04703985
38	0x3d88eb55	0.06685511
39	0x3cba5a4a	0.022748131
40	0x3dc20304	0.094732314
41	0x3dd7b982	0.1053343
42	0x3bc3edda	0.005979282
43	0x3da649b9	0.0811953
44	0xbb74e090	-0.0037365295
45	0x3d53c1ae	0.05169838
46	0xbbfdb673	-0.007742697
47	0x3cab743a	0.020929445
48	0x3c5679b6	0.013090542
49	0x3c985f22	0.01860005
50	0x3c9387fd	0.01800918
51	0xbca357d2	-0.019939337
52	0x3db2560c	0.087078184
53	0xbb1ca7f2	-0.0023903814
54	0xbc74b5ed	-0.014935953
55	0x3b993912	0.0046759928
56	0x3dbff3d7	0.09372681
57	0x3d8aa0da	0.06768961
58	0x3de1d83b	0.11027571
59	0x3d004f71	0.03132576
60	0x3cad3276	0.021142226
61	0x3c9bb000	0.019004822
62	0xbd8d18eb	-0.06889518
63	0x3db530dd	0.088472106
64	0x3db37d1e	0.087640986
65	0x3d0dc6c7	0.034613397
66	0xbb8c7a59	-0.004287046
67	0xbdbc2ad2	-0.09187855
68	0xbdbef2c9	-0.09323651
69	0xbdcd4c72	-0.100243464
70	0x3bd95018	0.0066318624
71	0xbdc97628	-0.0983699
72	0x3cb497d8	0.022045061
73	0x3d17b667	0.037039187
74	0xbb43b31b	-0.0029861394
75	0x3db041a0	0.08606267
76	0x3d9f5e1b	0.07781621
77	0x3da74863	0.081681035
78	0xbb857894	-0.004073212
79	0x3df89e83	0.12139609
80	0x3d834966	0.06410484
81	0xbdb7c688	-0.08973414
82	0x3ac5233e	0.001504041
83	0xbd19a0b6	-0.03750678
84	0x3d92d5d5	0.071696915
85	0xbd260e5b	-0.040541034
86	0xbd3674d7	-0.04454502
87	0xbddc26c6	-0.10749583
88	0xbe0819f7	-0.13291155
89	0xbcc6a110	-0.024246722
90	0xbd36fc03	-0.04467393
91	0x3d2c1fac	0.042022392
92	0xbd172a7a	-0.036905743
93	0x3d38a783	0.045081627
94	0x3cdab600	0.026698112
95	0xba42f21c	-0.000743659
96	0x3dce9322	0.10086657
97	0x3d4e1709	0.050314937
98	0xbcfa91f5	-0.030587176
99	0x3e04c516	0.12965807
100	0xbcb24b1c	-0.02176433
101	0xbdb7e4aa	-0.08979161
102	0xbe197dcd	-0.14989395
103	0xbe14997d	-0.14511676
104	0xbe27a4ab	-0.1637141
105	0xbe25e36b	-0.16200034
106	0xbddceb61	-0.107870825
107	0xbd1be51b	-0.03806029
108	0xbdac5605	-0.084148444
109	0xbe2e123f	-0.16999148
110	0xbdb63492	-0.08896746
111	0xbe065219	-0.13117255
112	0xbdfc4cc9	-0.12319333
113	0xbdc28ccf	-0.09499513
114	0xbe0899aa	-0.13339868
115	0xbe38f1e3	-0.18061022
116	0xbe3f721a	-0.1869587
117	0xbe2741a8	-0.1633364
118	0xbe14ed52	-0.14543656
119	0xbe03f0c8	-0.1288482
120	0xbe06a882	-0.13150218
121	0xbe3be9ba	-0.18350878
122	0xbe2ef340	-0.1708498
123	0xbe2e45d6	-0.17018828
124	0xbddf116e	-0.10891996
125	0x3d70513c	0.05867122
126	0x3d42ddef	0.047574934
127	0x3dbdc7b9	0.0926661
128	0x3d3695b4	0.04457636
129	0x3c853c6a	0.01626416
130	0x3b68073a	0.0035404698
131	0x3cf72da1	0.030173125
132	0xbcc85796	-0.024455827
133	0x3d065541	0.03279615
134	0x3d8d2202	0.06891252
135	0x3d675b15	0.056483347
136	0xbaf04fec	-0.0018334365
137	0xbd97c103	-0.07409861
138	0xbde19b16	-0.110159084
139	0xbd71b28f	-0.059008177
140	0x3d782ccc	0.060589597
141	0xbcf9ab88	-0.0304773
142	0x3c972826	0.018451761
143	0x3d635fdc	0.05551134
144	0xbd15c7ec	-0.036567613
145	0xbc8102e9	-0.015748458
146	0x3d277aa6	0.04088845
147	0x3db6769c	0.08909342
148	0xbd37c263	-0.044863116
149	0x3d2fb2a3	0.04289497
150	0x3dd94630	0.1060909
151	0xbcff5de0	-0.031172693
152	0xbd9a1642	-0.075237766
153	0x3d853b88	0.06505495
154	0xbd90403a	-0.070435
155	0xbcca4caa	-0.02469476
156	0x3d3d0ad4	0.046152905
157	0xbc29d086	-0.010364657
158	0xbd667e9b	-0.056273084
159	0xbd7a59df	-0.061120864
160	0x3d1bae88	0.038008243
161	0x3d3ea3ba	0.04654286
162	0xba2ea729	-0.0006662482
163	0x3d310e30	0.04322642
164	0x3cead932	0.02866802
165	0xbd956e53	-0.07296433
166	0xb9db11f8	-0.00041784323
167	0x3c6a3846	0.014295643
168	0xbd8afb2e	-0.0678619
169	0xbd88544a	-0.06656702
170	0xbc1dc464	-0.009629343
171	0xbda0c940	-0.078508854
172	0x3cdb54e0	0.02677387
173	0xbceb83d2	-0.02874938
174	0xbdb9188b	-0.09037884
175	0xbc94c136	-0.018158536
176	0xbccdcb45	-0.02512134
177	0xbaa3889f	-0.0012476629
178	0x3d9b35f6	0.075786516
179	0x3d91ca2b	0.071186386
180	0xbc9e9d5d	-0.019362146
181	0xbd4e8a51	-0.050424878
182	0xbcb450b1	-0.022011133
183	0xbd308c89	-0.043102775
184	0x3d4b73e0	0.049671054
185	0x3d8bee5d	0.068325736
186	0x39d7f988	0.0004119391
187	0x3c9534b4	0.018213607
188	0x3db7991a	0.08964749
189	0x3d986d6e	0.07442747
190	0x3cd6e283	0.026231056
191	0xbb5c8446	-0.0033648177
192	0x3dafaf7e	0.08578394
193	0x3df64bb0	0.12026155
194	0x3d9389c1	0.07204009
195	0x3e0b2d3a	0.13591471
196	0x3dc1e304	0.09467128
197	0x3cdc57a1	0.026897253
198	0x3db4eb91	0.08833993
199	0xbc1241d8	-0.008926831
200	0x3deb71de	0.11496328
201	0x3dff1f80	0.1245718
202	0x3dc4ceb4	0.09609738
203	0x3bc39cfc	0.0059696417
204	0xbc5c1795	-0.013433357
205	0x3e0293b6	0.1275166
206	0x3d46816e	0.048463278
207	0x3e0e3649	0.13887896
208	0x3dbaac0b	0.09114846
209	0x3cdb74e3	0.026789134
210	0x3c9b66cb	0.018969914
211	0xbd419345	-0.047259588
212	0x399e913b	0.00030244314
213	0xbca23b00	-0.019803524
214	0x3dae9640	0.08524752
215	0xbd568437	-0.052372184
216	0x3c3911a0	0.011295706
217	0x3ccd543e	0.025064584
218	0x3d027300	0.031847954
219	0x3d0be8a4	0.03415741
220	0xbdd48bc6	-0.10378222
221	0xbb34c51a	-0.0027583302
222	0x3ba4ebc6	0.005032989
223	0xbde42450	-0.111397386
224	0xbdef6a8b	-0.11690243
225	0x3db739b3	0.08946552
226	0x3ccbbacd	0.024869347
227	0x3d8bf8a2	0.06834532
228	0x3d4af2d6	0.049547993
229	0x3d7c7567	0.0616354
230	0x3d3aca21	0.04560292
231	0x3bbee09b	0.005825115
232	0x3c25b04a	0.010112831
233	0x3bec7214	0.0072157476
234	0x3ca9510d	0.02066853
235	0x3c8e6975	0.01738427
236	0x3cfbd6d9	0.030742096
237	0x3d9cfe70	0.076657176
238	0xbc48a0ae	-0.01224534
239	0x3d565dae	0.052335434
240	0x3d0420ec	0.03225796
241	0x3cdd9a8b	0.02705123
242	0xbd2043fc	-0.039127335
243	0x3d51f84e	0.051262192
244	0x3be60a68	0.0070202835
245	0x3d7a71ed	0.061143804
246	0x3dae4b7d	0.08510492
247	0xbd228094	-0.039673403
248	0xbd1d96d3	-0.038473915
249	0x3c7c0bb2	0.015383648
250	0xbcfe4eb4	-0.031043388
251	0x3d272d21	0.040814523
252	0x3cac2fd8	0.021018907
253	0x3d59e305	0.05319502
254	0xbd8ddea2	-0.069272295
255	0x3d6e8e9d	0.058241475

features.conv2.bias f4 [16]
0	0x3d8c0b0c	0.068380445
1	0xbe0bc6fb	-0.13650124
2	0x3c09dab6	0.008413961
3	0x3bfd0439	0.0077214506
4	0xbea68082	-0.3251992
5	0xbe16b70f	-0.14718269
6	0xbddd2c98	-0.10799521
7	0xbda3ee17	-0.080043964
8	0xbd645854	-0.0557483
9	0x3e81b39b	0.2533234
10	0x3cc169d8	0.02361004
11	0xbda15039	-0.078766294
12	0xbd6e7424	-0.05821623
13	0xbd70c249	-0.058779035
14	0x3d59c9f8	0.053171128
15	0x3c51ddd6	0.012809237

features.fc1.weight f4 [120, 400]
0	0x3d380e37	0.04493543
1	0x3d383df7	0.04498097
2	0xbc08ffc8	-0.008361764
3	0xbc3d1f0e	-0.011543049
4	0xbb7d126c	-0.0038615717
5	0xbc4632a9	-0.012097039
6	0x3d3b703a	0.045761324
7	0x3cc31bb9	0.02381693
8	0x3b9892ac	0.0046561565
9	0xbd414221	-0.047182206
10	0x3d1899d2	0.03725607
11	0xbbece9fa	-0.0072300406
12	0xbcea3e72	-0.02859423
13	0xbd47f051	-0.048813168
14	0xbd70a18b	-0.05874781
15	0x3d0ba0bc	0.034088835
16	0xbd113214	-0.03544815
17	0x3d223cdd	0.039608825
18	0xbb3f8732	-0.002922487
19	0xbd8c71fd	-0.06857679
20	0xbcf03320	-0.029321253
21	0x3c785ae6	0.015158391
22	0x3cc12b16	0.023580115
23	0x3cafca0e	0.021458652
24	0xbcc4a79c	-0.024005704
25	0x3d4d482a	0.05011765
26	0x3d0b69b5	0.034036357
27	0x3d1b6087	0.037933853
28	0xbc26b312	-0.01017453
29	0x3b83d28e	0.004022903
30	0x3d359530	0.04433173
31	0xbc05fc63	-0.008177849
32	0xbd115421	-0.035480622
33	0xbd45e68e	-0.048315577
34	0xbcbd609d	-0.023117358
35	0xbbe3efca	-0.0069560753
36	0x3ca95420	0.020669997
37	0xbc83641f	-0.016038952
38	0x3c3f85c0	0.011689603
39	0xbd32035a	-0.043460228
40	0xbbd96853	-0.006634751
41	0x3d22df0d	0.0397635
42	0x3c562d0e	0.013072265
43	0xbcbc03ab	-0.022950968
44	0x3cf851dc	0.030312471
45	0x3cb0aec8	0.021567717
46	0x3d14fca1	0.03637374
47	0xbc40970e	-0.011754764
48	0xbc3a5f0a	-0.011375198
49	0x3c81acf3	0.015829539
50	0xbcc27183	-0.023735767
51	0x3ce7dcae	0.02830347
52	0x3d1960f4	0.037445977
53	0xbbf8a764	-0.007588314
54	0x3d383735	0.044974525
55	0x3d2f02ba	0.04272721
56	0x3caf7a3e	0.021420594
57	0x3cc7b348	0.02437748
58	0x3b7f0a35	0.0038915996
59	0x3d251ad0	0.040308774
60	0x3d23d8c9	0.040001664
61	0xbd0322f2	-0.03201575
62	0xbcd4ba13	-0.025967633
63	0xbba0e9b8	-0.004910674
64	0x3c7a5598	0.015279196
65	0xbd0c2af5	-0.034220655
66	0x3cf72b64	0.030172057
67	0xbd54c588	-0.051946193
68	0xbc3a1412	-0.011357324
69	0x3bed564e	0.0072429543
70	0xbcbca512	-0.02302793
71	0xbcc16d9e	-0.02361184
72	0x3ce116fa	0.027476776
73	0x3cb49c2e	0.022047129
74	0xbd14e6f1	-0.036353055
75	0xbc98a5f8	-0.018633828
76	0x3c01e326	0.007927692
77	0xbc1e869c	-0.009675648
78	0x3cc055cb	0.02347841
79	0xbbbb87f6	-0.005722995
80	0xbc2625c6	-0.010140842
81	0xbc934bfc	-0.017980568
82	0xbb98c9bf	-0.004662722
83	0xbc8fc62a	-0.017550547
84	0xbd6bd514	-0.057576254
85	0x3d01e7ad	0.031715084
86	0xbd555a50	-0.05208808
87	0xbd3a5b47	-0.045497205
88	0x3d2db904	0.042412773
89	0x3ccffd9e	0.025389489
90	0xbd59c955	-0.05317052
91	0x3bd042d5	0.0063556232
92	0x3a47ffc6	0.0007629361
93	0x3d20897c	0.039193615
94	0x3ca95ea8	0.020675018
95	0xbcabc75c	-0.020969085
96	0xbd81909d	-0.06326411
97	0xbd272bcf	-0.040813264
98	0xbcc27c2c	-0.02374085
99	0xbcdc7627	-0.026911808
100	0xbc844120	-0.016144335
101	0x3c6aa52b	0.014321606
102	0xbcf962f2	-0.030442689
103	0xbd56d76e	-0.052451544
104	0x3c426b3b	0.011866386
105	0x3c7d745c	0.015469637
106	0x3c78d1f6	0.015186777
107	0xbb1f7aea	-0.0024334737
108	0x3d28f2e3	0.04124726
109	0xbce6d80c	-0.028179191
110	0x3d3776d5	0.04479106
111	0xbcf365be	-0.0297116
112	0x3c6e4f1c	0.014545228
113	0x3c98fc4e	0.018674996
114	0x3cad0cd0	0.021124274
115	0x3d433aaa	0.04766337
116	0x3c25c29c	0.010117199
117	0xbc9d8250	-0.019227177
118	0xbcd39556	-0.025828045
119	0xbcd4a8b6	-0.025959354
120	0x3d763e28	0.06011787
121	0x3bd9990d	0.0066405595
122	0xbcab11b6	-0.020882469
123	0xbc5d783d	-0.013517437
124	0xbd03e139	-0.03219721
125	0x3a135236	0.00056198554
126	0x3cc1d3ce	0.023660567
127	0xbcd3fb4a	-0.02587666
128	0xbc2f3211	-0.010693089
129	0x3d16b1d6	0.03679069
130	0xbbbe0f16	-0.005800138
131	0x3b98f6f8	0.004668113
132	0x3bea6169	0.0071527255
133	0xbcb4789c	-0.022030167
134	0x3d3ea703	0.046545994
135	0xbc6b5643	-0.014363828
136	0xbc757560	-0.014981598
137	0x3c6fc8b1	0.014635251
138	0x3cc6bd45	0.024260173
139	0xbc44ca35	-0.012011101
140	0xbd19ccfb	-0.037549
141	0x3b6127a9	0.0034355915
142	0x3c82622d	0.015915954
143	0xbcc3779f	-0.02386075
144	0xbcc9ae8d	-0.024619365
145	0xbcf87a9d	-0.030331904
146	0x3d3a2720	0.04544747
147	0x3d1a2cf5	0.03764053
148	0x3d6b8eb7	0.05750915
149	0xbd264b2c	-0.040599033
150	0xbd2c0650	-0.041998208
151	0xbbf62813	-0.0075121014
152	0x3ca1b95c	0.019741707
153	0x3d14a5da	0.03629098
154	0x3bd78a03	0.0065777316
155	0x3d208692	0.039190836
156	0x3b5b950f	0.0033505594
157	0xbc9e6366	-0.019334506
158	0xbc95a5b7	-0.018267496
159	0x3c1df79b	0.009641553
160	0xbd07e5ed	-0.03317826
161	0x3cda180c	0.026622795
162	0x3c8476d2	0.01616994
163	0xbd55880b	-0.052131694
164	0x3d286610	0.04111296
165	0x3d14ed69	0.036359224
166	0x3d323296	0.043505274
167	0xbcfc153e	-0.030771848
168	0xbc6a93be	-0.014317451
169	0x3b59c778	0.0033230465
170	0xbd2c901c	-0.04212962
171	0xbd14caae	-0.036326103
172	0xbd118d83	-0.035535347
173	0xbd355a24	-0.044275418
174	0xbc68aa7e	-0.014200805
175	0x3d03e4a9	0.03220049
176	0x3c4db9a0	0.0125564635
177	0x3c865fd4	0.016403116
178	0xbc856582	-0.016283754
179	0xbaaacbfd	-0.0013030764
180	0x3d0dcb4a	0.0346177
181	0x3d196209	0.03744701
182	0xbcfc0f42	-0.030768994
183	0x3d2eee02	0.04270745
184	0x3d433037	0.047653403
185	0x3ccf4160	0.025299728
186	0xbd280ccb	-0.041027825
187	0x3d20a0a5	0.039215703
188	0x3d27d0d2	0.04097063
189	0xbcfef44f	-0.031122355
190	0x3b52eb34	0.003218365
191	0xbcdf1599	-0.027231978
192	0x3ceea98a	0.029133577
193	0xbd544b8e	-0.051829867
194	0x3cf62b6b	0.03005
195	0xbb1fa266	-0.0024358272
196	0x3d082a84	0.03324367
197	0xbd08d95c	-0.033410415
198	0x3cfcf7a0	0.030879796
199	0x3c225594	0.009908099
200	0x3c1f85d6	0.009736499
201	0x3c87b5f7	0.01656626
202	0x3c9ac01e	0.018890437
203	0x3d48ae18	0.048994154
204	0xbb97da09	-0.004634146
205	0x3cf34db9	0.029700147
206	0xbcc35dc9	-0.023848431
207	0x3c9729e9	0.018452602
208	0x3b75f2fd	0.0037528866
209	0x3ce75e84	0.02824331
210	0x3d23afe2	0.039962657
211	0xbd2e9ee9	-0.042632017
212	0x3c567bce	0.013091041
213	0xbd43b1a2	-0.047776826
214	0xbc9749ca	-0.018467803
215	0xbd356ada	-0.044291355
216	0x3ca0bbaf	0.019620745
217	0xbc441522	-0.011967929
218	0xbd303e3a	-0.043028094
219	0xbbfc3f66	-0.0076979874
220	0x3d452c1f	0.04813778
221	0x3caecc23	0.021337574
222	0x3d312994	0.043252543
223	0xbd092cdb	-0.033490043
224	0xbd43528a	-0.047686137
225	0x3c93b6dc	0.01803153
226	0xbd3d1a4b	-0.046167653
227	0xbd22069e	-0.039557092
228	0xbcaf58d1	-0.021404656
229	0xbd33ffa1	-0.04394496
230	0xbca927c1	-0.020648839
231	0xbb0b2618	-0.0021232422
232	0xbcd68115	-0.026184598
233	0xbd1a0158	-0.037598938
234	0x3d3450a9	0.044022236
235	0xbc630c8e	-0.013857974
236	0x3cb159db	0.021649292
237	0xbcf599b4	-0.029980518
238	0xbd24f420	-0.04027188
239	0x3c937648	0.018000737
240	0xbc9984cc	-0.01874008
241	0x3ce04ca7	0.0273803
242	0xbd37cdd6	-0.044874035
243	0x3d3bc8e9	0.0458459
244	0x3bd45ebe	0.0064810207
245	0xbd2e9fb1	-0.042632762
246	0x3be01c5d	0.0068393187
247	0xbba0f119	-0.0049115536
248	0xbb5525a0	-0.0032523647
249	0x3cbe1c7c	0.023206942
250	0x3c2fbdba	0.010726387
251	0x3d6d6a2d	0.057962585
252	0x3c94f594	0.018183507
253	0xbbc746f1	-0.006081455
254	0xbc42f78c	-0.01189984
255	0x3cf4a194	0.029862203

features.fc1.bias f4 [120]
0	0xbda50672	-0.0805787
1	0xbd19cfd7	-0.037551727
2	0x3c12a5bc	0.008950647
3	0xb993aa54	-0.0002816493
4	0x3d10a91f	0.035317536
5	0x3cef736d	0.029229844
6	0xbd450a58	-0.048105568
7	0xbca4dfba	-0.020126212
8	0x3d919153	0.071077965
9	0x3d2bed52	0.041974373
10	0xbcbf410d	-0.023346448
11	0xbbdcaf83	-0.00673479
12	0xbdc4546f	-0.09586417
13	0xbccba88a	-0.02486064
14	0xbd6cd404	-0.05781938
15	0xbcdbc62e	-0.026827898
16	0x3bd1e898	0.006405901
17	0xbc9ac880	-0.018894434
18	0xbd3629c3	-0.04447342
19	0x3c728f8e	0.014804734
20	0x3d0ae533	0.033909988
21	0xba164e6e	-0.0005733733
22	0xbca0fe88	-0.01965262
23	0x3db608f8	0.088884294
24	0xbc9b98f8	-0.01899384
25	0x3d4365b4	0.047704414
26	0xbca6afe2	-0.02034754
27	0xbcd9e88c	-0.026600145
28	0x3d1507e9	0.036384497
29	0x3b41db42	0.002958015
30	0x3d6f7b0a	0.05846695
31	0x3cb03e18	0.021513984
32	0xbd29c7a6	-0.041450165
33	0x3c89ada7	0.016806437
34	0xbc6719b1	-0.014105246
35	0x3d34f5a1	0.044179562
36	0x3d017959	0.031609867
37	0xbd268404	-0.040653244
38	0x3d3b3d46	0.04571273
39	0x3d2b523f	0.041826483
40	0xbbaed412	-0.0053353393
41	0x3b991bda	0.0046725096
42	0x3cc8787f	0.02447152
43	0xbabc9d94	-0.0014390224
44	0xbaadb716	-0.0013253416
45	0xbc4e1147	-0.012577361
46	0xbbe07ef1	-0.00685107
47	0x3d17e578	0.037084073
48	0x3a47ec7a	0.00076264853
49	0xbd0974b1	-0.03355855
50	0x3d5eecf6	0.054425202
51	0xbcafe291	-0.02147034
52	0x3d5636db	0.052298408
53	0xbd3adc61	-0.045620326
54	0xbcee47b7	-0.02908693
55	0xbcbcd757	-0.0230519
56	0x3d0d3335	0.034472663
57	0x3d48a7c3	0.048988115
58	0xbc64e997	-0.013971708
59	0x3c906f20	0.017631114
60	0xbd161832	-0.03664417
61	0x3d4260e0	0.04745567
62	0x3d05853e	0.032597773
63	0xbd301aca	-0.042994298
64	0x3c721e85	0.014777784
65	0xbc1016a5	-0.008794461
66	0xbc9d2bff	-0.019186018
67	0x3cc90a34	0.024540998
68	0xbd231df2	-0.03982348
69	0xbd8bf726	-0.06834249
70	0x3cd7d859	0.02634828
71	0x3d52c935	0.051461417
72	0xbd28651e	-0.041112058
73	0x3b4c4838	0.0031170975
74	0xbd827ad4	-0.06371084
75	0x3d8e9e9e	0.069638476
76	0x3c5514da	0.01300546
77	0x3d50b5ca	0.050954618
78	0xbda92cf9	-0.08260531
79	0xbce914ba	-0.028452266
80	0xbc9885e0	-0.018618524
81	0x3cb652ea	0.022256333
82	0xbd536550	-0.05161029
83	0x3ca4bae2	0.020108644
84	0xbd3f29af	-0.046670612
85	0x3d6d8595	0.057988722
86	0x3d0fa045	0.035064954
87	0xbb9b64f3	-0.0047422587
88	0xbd05ccb0	-0.03266591
89	0xbcea8d31	-0.028631778
90	0xbbda676e	-0.006665162
91	0xbd7a5c59	-0.061123226
92	0x3d225d0d	0.03963952
93	0xbd516ebd	-0.051131
94	0x3d286599	0.041112516
95	0x3c5bff37	0.013427547
96	0xbd16f10b	-0.03685097
97	0xbd6e4d99	-0.05817947
98	0x3c58ce51	0.013232783
99	0xbcd92597	-0.026507182
100	0x3c9cc555	0.019137064
101	0x3d869cd7	0.065728836
102	0x3c830488	0.015993372
103	0xbc23e600	-0.010003567
104	0x3bf40753	0.007447162
105	0x3cbc18ee	0.022961106
106	0xbd6f10a0	-0.058365464
107	0x3db0a623	0.08625438
108	0x3c92d38a	0.017923135
109	0xbd467706	-0.048453353
110	0xbc4d62b4	-0.01253574
111	0x3d17072f	0.036872085
112	0xbcde08f6	-0.027103882
113	0xbcbd0fa5	-0.023078749
114	0xbc872b18	-0.01650004
115	0xbbb581c2	-0.00553915
116	0x3d118c3d	0.035534132
117	0x3ceab3c2	0.028650168
118	0xbd342834	-0.043983653
119	0x3d375ceb	0.044766348

features.fc2.weight f4 [84, 120]
0	0xbda2c64b	-0.07947978
1	0x3d9db6e0	0.07700896
2	0xbd0fa1c3	-0.035066377
3	0xbd9e20f0	-0.07721126
4	0xbd728c6c	-0.059215948
5	0xbcc4b1c7	-0.024010552
6	0xbd2232a1	-0.039599065
7	0xbcbcaacb	-0.02303066
8	0x3d1170c7	0.035507943
9	0x3cc98f01	0.024604322
10	0xbaf38d57	-0.0018581551
11	0x3c486e70	0.012233362
12	0x3b1d784e	0.0024028006
13	0xbd4f8782	-0.05066634
14	0x3ce5b228	0.028039053
15	0x3d0c97ae	0.03432434
16	0xbb9c3d2f	-0.004768036
17	0xbd40baf1	-0.04705328
18	0xbd9b29ad	-0.075763084
19	0x3d470a43	0.04859377
20	0xbc491186	-0.012272244
21	0x3d9b04e7	0.075692944
22	0xbd22051b	-0.03955565
23	0xbbd0cf7c	-0.0063723903
24	0x3c49087e	0.012270091
25	0x3ce4be78	0.027922854
26	0x3d910077	0.07080167
27	0x3d91a3c1	0.07111312
28	0x3b55e9e6	0.0032640635
29	0xbd6b1beb	-0.05739967
30	0x3d97b787	0.07408052
31	0x3cdc9118	0.026924655
32	0xbd2231fe	-0.039598458
33	0x3c92c08c	0.01791408
34	0x3cde7e30	0.02715978
35	0xbd03e350	-0.032199204
36	0x3c0b4d48	0.008502312
37	0x3c1daeba	0.009624178
38	0x3db6d192	0.08926691
39	0x3d7e4ec0	0.06208682
40	0x3b7c02ec	0.003845389
41	0x3d839f3f	0.06426858
42	0x3c103aec	0.008803111
43	0xbd9d892c	-0.07692179
44	0xbd9b357a	-0.07578559
45	0x3d31067b	0.04321907
46	0xbd108b0f	-0.035288867
47	0xbdb6c102	-0.08923532
48	0x39f69f44	0.00047039439
49	0xbd8c2cb9	-0.06844468
50	0x3c619038	0.013767295
51	0xbd08f5f7	-0.033437695
52	0x3db7175b	0.089400016
53	0xbd3b1ef8	-0.04568383
54	0xbc3dc815	-0.011583348
55	0x3ce0a28f	0.027421264
56	0x3dc632d4	0.096776634
57	0x3d59ebfd	0.05320357
58	0x3ced9d1a	0.029005576
59	0x3d93027c	0.07178208
60	0xbc90dbe6	-0.01768298
61	0xbd7d241c	-0.061802015
62	0xbd960d95	-0.07326809
63	0x3c5fc8f4	0.013658751
64	0x3d01cb66	0.031688116
65	0xbc851dec	-0.01624962
66	0x3d6a901d	0.057266343
67	0xbd38efb6	-0.04515048
68	0xbd4b0ab6	-0.04957076
69	0xbcb56b6f	-0.022145955
70	0x3d752321	0.059847955
71	0xbb9b7c69	-0.0047450555
72	0xbda98f84	-0.082793266
73	0x3d778f93	0.060439657
74	0xbb3d4224	-0.0028878534
75	0xbbf297a1	-0.0074033295
76	0x3d284fea	0.041091837
77	0xbd6f08ae	-0.058357887
78	0x3c140417	0.009034178
79	0xbd8c3917	-0.068468265
80	0xbd05ee1b	-0.03269778
81	0x3da1c310	0.07898533
82	0x3d3222ef	0.043490347
83	0x3c4ce91c	0.0125067495
84	0xbce33739	-0.027736293
85	0x3d501895	0.050804693
86	0x3d6c147e	0.05763673
87	0xbb98557c	-0.0046488624
88	0x3cb473ba	0.022027839
89	0xbad6c211	-0.0016384741
90	0xbd9d922a	-0.07693894
91	0x3c8c0a3a	0.01709472
92	0x3a7da083	0.0009675102
93	0xbcdd1e48	-0.026991978
94	0x3d16f958	0.036858886
95	0xbcb69bfa	-0.022291172
96	0xbd4c2cfe	-0.049847595
97	0x3db86e80	0.09005451
98	0xbd6bde47	-0.057585027
99	0x3c8326dd	0.016009742
100	0xbc8b45e2	-0.017001096
101	0xbd84c43a	-0.0648274
102	0xbcbd03c6	-0.023073088
103	0x3cc079d1	0.023495587
104	0xbcb6c57d	-0.022310967
105	0xbc886ae8	-0.01665254
106	0xbc010934	-0.007875729
107	0x3d878bd0	0.06618464
108	0x3d4b57ea	0.04964439
109	0x3d6db5d1	0.05803472
110	0x3c8c66d7	0.017138882
111	0xbc9fd939	-0.01951276
112	0x3ce82b9c	0.028341107
113	0xbceba816	-0.028766673
114	0x3d439523	0.04774965
115	0xbd5a6e1f	-0.053327676
116	0x3d20dd7c	0.039273724
117	0xbd875b2e	-0.06609188
118	0xbd8ccd19	-0.06875057
119	0x39dcd43e	0.00042119803
120	0xbd686a8a	-0.05674223
121	0xbd74ccce	-0.05976563
122	0x3d2218d4	0.03957446
123	0x3da73b6a	0.08165629
124	0x3da638a8	0.08116275
125	0x3cde0092	0.027099881
126	0xbdbcbaa2	-0.09215285
127	0xbc8030f1	-0.015648337
128	0x3da390ad	0.07986579
129	0xbb1f2408	-0.002428295
130	0xbdc1d8f8	-0.09465212
131	0xbd84c24e	-0.06482373
132	0xbd47c5aa	-0.04877249
133	0x3de74519	0.11292476
134	0x3c457f39	0.012054258
135	0xbd47d51a	-0.048787214
136	0x3cbece29	0.023291664
137	0xbd1ca873	-0.038246583
138	0xbbd7c11e	-0.0065843007
139	0xbbf02c48	-0.0073294975
140	0x3cd4a644	0.025958188
141	0x3d9530ac	0.07284674
142	0x3da990d4	0.08279577
143	0xbd513746	-0.051078103
144	0xbd86b4f3	-0.06577482
145	0x3cc70ffa	0.02429961
146	0x3d3f22a4	0.046663895
147	0x3d83cf0e	0.06435977
148	0xbc0bb62b	-0.008527319
149	0x3d8d8af5	0.069112696
150	0x3ca78d6d	0.02045318
151	0xbd05424b	-0.032533925
152	0x3cad1d79	0.021132218
153	0xbd1297b6	-0.035789214
154	0x3d918d2d	0.07107005
155	0xbd739244	-0.05946566
156	0xbd16b366	-0.03679218
157	0xbd96b162	-0.07358052
158	0xbce5940a	-0.028024692
159	0xbd2ea703	-0.042639744
160	0x3d9fbbbd	0.0779948
161	0x3c02ccd6	0.007983407
162	0x3dbb199f	0.09135746
163	0xbd68a239	-0.056795333
164	0xbd97ef02	-0.07418634
165	0x3db08c68	0.0862053
166	0x3d25602b	0.040374916
167	0x3d97b60e	0.07407771
168	0xbd45799e	-0.048211686
169	0x3d873122	0.06601168
170	0x3c87e546	0.016588818
171	0x3d568e30	0.052381694
172	0x3d0a383d	0.03374504
173	0xbcd4afa7	-0.025962664
174	0xbd9d2267	-0.07672577
175	0xbd51e639	-0.051244948
176	0xbc77de2e	-0.015128655
177	0x3db93b5c	0.09044525
178	0x3d1c27fb	0.038124066
179	0xbc977d16	-0.018492263
180	0xbd8f8ca9	-0.07009251
181	0x3d9a966f	0.07548224
182	0xbcd071ce	-0.025444891
183	0xbcb37fd3	-0.021911537
184	0x3d3fdda0	0.046842217
185	0x3d671ea7	0.056425717
186	0x3ceb2755	0.028705278
187	0x3c3339b1	0.010939048
188	0x3d9b749a	0.07590599
189	0x3d5ff621	0.054678086
190	0x3d00cf1a	0.031447507
191	0x3cae5db0	0.021284908
192	0x3aab2a82	0.0013058933
193	0xbd06c492	-0.032902308
194	0x3cb88158	0.022522613
195	0xbd8097fc	-0.06278989
196	0x3d93ace9	0.07210714
197	0x3dafd182	0.08584882
198	0x3c531106	0.012882477
199	0x3c815b83	0.015790707
200	0xbcd2a877	-0.025715096
201	0x3da252ec	0.07925972
202	0x3db9b2b5	0.09067289
203	0xbd51ea04	-0.051248565
204	0x3d802f62	0.062590376
205	0xbd91cd5e	-0.07119249
206	0x3db8f4bb	0.09031054
207	0x3cf30126	0.029663634
208	0x3dad3629	0.08457596
209	0xbd8ef5e1	-0.069804914
210	0xbc82d92c	-0.015972696
211	0xbcd544d2	-0.026033793
212	0xbcaa9a05	-0.020825395
213	0x3daa8c2a	0.083275154
214	0xbcfd1a6e	-0.030896392
215	0x3cdcabc0	0.026937366
216	0xbc382df0	-0.011241421
217	0xbd2e52c2	-0.042559393
218	0x3dca9a22	0.0989268
219	0x3dd6d73a	0.1049027
220	0x3c94da20	0.018170416
221	0x3da89ef4	0.08233443
222	0x3d014a53	0.03156502
223	0x3dd572fa	0.10422321
224	0xbc937095	-0.01799802
225	0x3c6b4ddf	0.014361828
226	0xbc12e98a	-0.008966813
227	0xbd934e06	-0.07192616
228	0xbd087682	-0.033316143
229	0x3d18770b	0.037222903
230	0x3baafc2d	0.00521805
231	0x3cd6e3a5	0.026231596
232	0xbda109aa	-0.078631714
233	0x3dc34e5e	0.09536432
234	0x3d7ca8a8	0.06168428
235	0x3dfc5cb4	0.12322369
236	0x3daaaa79	0.08333296
237	0x3d04b4ac	0.032398865
238	0x3db88293	0.0900928
239	0x3c2fb99d	0.010725406
240	0x3b94c4e2	0.004540072
241	0xbcefe320	-0.029283106
242	0x3de0b1be	0.10971402
243	0x3d09d228	0.033647686
244	0x3d91c9ed	0.071185924
245	0x3dd47c18	0.103752315
246	0xbb38dad6	-0.0028206608
247	0xbd5ad6fc	-0.05342768
248	0xbd60809f	-0.054810163
249	0xbd60c4b1	-0.05487508
250	0x3d6eac38	0.05826971
251	0x3d5ed798	0.054404825
252	0x3d62f867	0.055412676
253	0xbdb5f512	-0.08884634
254	0x3c2fd65f	0.010732262
255	0xbd9cbbdd	-0.076530196

features.fc2.bias f4 [84]
0	0x3e0e2caa	0.13884225
1	0x3bab0da9	0.0052201343
2	0x3d619c2f	0.05508059
3	0x3d87f147	0.06637817
4	0x3d98de43	0.07464268
5	0xbd9cc8bd	-0.07655475
6	0xbd926825	-0.0714877
7	0x3b008a39	0.0019613637
8	0xbdd021c6	-0.10162692
9	0x3c98891f	0.018620072
10	0x3d84ea42	0.06489994
11	0xbd48dfec	-0.049041674
12	0xbcf7cd50	-0.030249268
13	0x3adbeb00	0.001677841
14	0x3cafa265	0.02143974
15	0xbe24da2e	-0.16098854
16	0xbc98d719	-0.018657254
17	0xbdaf9d93	-0.08574977
18	0x3e5fb33a	0.21845713
19	0x3ce91894	0.028454103
20	0xbda8a788	-0.08235079
21	0x3e15553e	0.14583299
22	0xbd1469cb	-0.036233705
23	0xbd72b558	-0.059254974
24	0x3d61d1ce	0.055131726
25	0xbc3e7707	-0.011625058
26	0x3ad70230	0.001640385
27	0x3dea7e3f	0.11449861
28	0x3df1bfa7	0.11804133
29	0x3e09920f	0.13434623
30	0xbd895191	-0.06705011
31	0xbbc456bf	-0.0059917863
32	0x3d881f2c	0.066465706
33	0xbdab1ca3	-0.083550714
34	0xbe0544ba	-0.13014498
35	0xbccc0488	-0.024904504
36	0xbdcb791d	-0.0993521
37	0x3cf95efa	0.030440796
38	0x3cbbff20	0.022948802
39	0x3dd6675b	0.10468932
40	0xbe0383f6	-0.12843308
41	0xbdb35c3b	-0.08757826
42	0xbcab9ec8	-0.020949736
43	0x3e016997	0.12637936
44	0x3d60e73c	0.054908022
45	0x3d57e81f	0.052711602
46	0x3dc141d6	0.09436385
47	0xbc3deb00	-0.011591673
48	0xbd5c0e8b	-0.053724807
49	0x3d1c4fbc	0.038161978
50	0xbd5504b5	-0.052006442
51	0xbd3065bb	-0.043065768
52	0xbd7a11fe	-0.061052315
53	0x3d691918	0.056908697
54	0x3c33ad72	0.010966646
55	0x3cae203f	0.02125561
56	0x3e2a72f6	0.16645417
57	0x3d440461	0.04785574
58	0xbd4722df	-0.04861724
59	0xbdb6a36c	-0.08917889
60	0x3e3f001b	0.18652384
61	0x3c65509e	0.013996271
62	0x3dc8c18b	0.098025404
63	0x3b859c21	0.00407745
64	0xbcdddc73	-0.027082657
65	0x3ddc5eca	0.10760267
66	0x3e275c88	0.16343892
67	0x3ddc4dc4	0.1075702
68	0xbda7275d	-0.08161805
69	0xbd8a036b	-0.06738933
70	0xbdc117e4	-0.09428385
71	0x3e3cfa3e	0.18454835
72	0x3d8f7805	0.07005314
73	0xbccc1f4c	-0.024917267
74	0x3c6afe6d	0.014342886
75	0xbd009aa2	-0.03139747
76	0x3bf1c3ea	0.007378091
77	0xbcf3affa	-0.029746998
78	0xbc50172d	-0.012700838
79	0x3dd2df9f	0.102965586
80	0xbce2d644	-0.02769006
81	0xbd8791f5	-0.06619636
82	0xbd9c5576	-0.07633488
83	0xbdf9ad07	-0.121912055

l1.weight f4 [84, 84]
0	0xbda698fd	-0.08134649
1	0x3d72e34c	0.0592988
2	0xbda7ed7a	-0.08199592
3	0x3dab2bef	0.08357989
4	0x3de3b8b5	0.111192144
5	0x3be8b5fd	0.007101773
6	0xbdc899f5	-0.0979499
7	0x3d296176	0.04135271
8	0xbc990634	-0.018679716
9	0xbdac6866	-0.0841835
10	0x3d51c447	0.051212575
11	0xbd2284ae	-0.039677314
12	0x3d55eca8	0.052227646
13	0x3be93bb0	0.007117711
14	0x3db5ff48	0.08886582
15	0xbde9aab9	-0.11409516
16	0x3db69262	0.08914639
17	0x3b474b78	0.0030409973
18	0x3d92cca3	0.071679376
19	0xbc848298	-0.016175553
20	0x3d402e7e	0.04691934
21	0x3da5eaa0	0.08101392
22	0xbdadebb3	-0.08492222
23	0x3db5aa92	0.08870424
24	0xbcef69f6	-0.02922533
25	0x3d9f0698	0.077649295
26	0x3d05bc22	0.03265012
27	0x3c89b792	0.016811166
28	0xbd490210	-0.049074233
29	0xbd8c80a4	-0.06860474
30	0x3c205230	0.00978522
31	0x3dde44e4	0.108529836
32	0x3d0024e9	0.0312852
33	0x3b8c4897	0.0042811143
34	0x3dc5588b	0.09636029
35	0xbd719aaa	-0.05898539
36	0xbd5a32a9	-0.05327097
37	0xbda2d147	-0.07950073
38	0xbd227179	-0.039658997
39	0x3df6642e	0.120308265
40	0x3da3232d	0.079656936
41	0x3cebc770	0.028781623
42	0xbd2bded6	-0.04196056
43	0x3dff72d8	0.124730766
44	0xbd335a5d	-0.04378735
45	0x39ca8c4c	0.00038632972
46	0xba6a0fa4	-0.0008928722
47	0x3da3aed2	0.07992329
48	0x3d8bd9b0	0.0682863
49	0xbc379c09	-0.011206635
50	0xbd8f1dc1	-0.06988097
51	0x3d224ade	0.03962218
52	0x3d9f7fa2	0.07788016
53	0x3d8929e4	0.06697443
54	0xbda9351b	-0.08262082
55	0xbddf4d0c	-0.109033674
56	0xbdc33a1e	-0.09532569
57	0xbde8da80	-0.113698006
58	0xbd987432	-0.074440375
59	0x3c8ca2aa	0.017167408
60	0x3d31d01a	0.04341135
61	0x3db411c7	0.08792453
62	0x3cac033a	0.020997632
63	0xbd9cb91c	-0.07652494
64	0x3cf62b9f	0.030050097
65	0xbd0be915	-0.03415783
66	0xbdcda8d2	-0.100419655
67	0x3d52c739	0.051459525
68	0x3d8e49cd	0.0694767
69	0xbd704406	-0.058658622
70	0x3dc802c3	0.09766152
71	0x3d9c9436	0.076454565
72	0x3d3ccce2	0.04609383
73	0x3b8a0a34	0.004212642
74	0x3db47f57	0.08813351
75	0x3dda633b	0.10663458
76	0x3d0cb35c	0.034350738
77	0xbb03221c	-0.0020009344
78	0x3deef34e	0.116675004
79	0x3cb1b7f9	0.02169417
80	0xbdb29d51	-0.08721412
81	0x3d87b190	0.06625664
82	0xbd6c9815	-0.057762224
83	0xbcafc225	-0.02145488
84	0xbc9a75e8	-0.01885505
85	0x3d83e30e	0.064397916
86	0x3cc924f0	0.024553746
87	0xbd911f1b	-0.07086011
88	0x3db6815b	0.08911391
89	0xbc4b5012	-0.012409227
90	0xbd4c8399	-0.04993019
91	0x3dc89be9	0.097953625
92	0x3ced69de	0.028981145
93	0xbdcb0869	-0.099137135
94	0x3d7f3eb7	0.06231567
95	0x3d977dab	0.07397016
96	0xbda553e0	-0.080726385
97	0xbcad6746	-0.021167409
98	0x3c34c600	0.011033535
99	0x3d9694b4	0.073525816
100	0xbd84704b	-0.06466731
101	0xbddc087c	-0.10743806
102	0xbd468970	-0.048470914
103	0x3d2c8d68	0.042127043
104	0xbc5dbb92	-0.01353349
105	0x3cb9be01	0.022673609
106	0xbd7e7350	-0.06212169
107	0xbd173c93	-0.036923002
108	0x3c6d80ed	0.01449607
109	0x3c89e156	0.016831081
110	0xbdcec196	-0.10095517
111	0xbd4c3314	-0.0498534
112	0x3d41b05d	0.047287334
113	0x3dc0024c	0.09375438
114	0x3d6b9287	0.057512786
115	0x3dc7d5d9	0.09757585
116	0xbda9f876	-0.08299343
117	0xbdaec411	-0.085334904
118	0xbd972e2c	-0.073818535
119	0xbdf06423	-0.117378496
120	0x3c5b0a67	0.013369179
121	0xbdd62198	-0.10455626
122	0x3d8e4a29	0.06947739
123	0x3dd312d7	0.10306328
124	0x3c4e9a48	0.012610026
125	0x3c317e4e	0.010833336
126	0x3d3cd29a	0.046099283
127	0x3dcb654c	0.0993143
128	0x3d79d907	0.06099799
129	0xbcbe4b9e	-0.023229416
130	0xbccc1398	-0.024911687
131	0xbd83b3b4	-0.0643076
132	0x3d8d4ff5	0.06900016
133	0xbdd5db4a	-0.10442217
134	0xbd017da6	-0.03161397
135	0x3cf97c72	0.030454848
136	0x3dc6e8f3	0.097124
137	0x3dd8c0c8	0.10583645
138	0xbcd11bcf	-0.025525955
139	0x3d850287	0.06494623
140	0xbdc79df5	-0.09746925
141	0xbd980a0f	-0.074237935
142	0x3d4f80c2	0.050659902
143	0xbd0693e5	-0.032855887
144	0x3db251ba	0.08706994
145	0x3dc9e21e	0.098575816
146	0xbd3c5c8e	-0.045986705
147	0xbd79079e	-0.06079828
148	0x3ca085a5	0.019594977
149	0xbdafd077	-0.085846834
150	0xbd916b68	-0.07100564
151	0x3d98fd5c	0.074701995
152	0xbcacd0dc	-0.021095686
153	0xbdab2e1a	-0.083584026
154	0x3d8240b6	0.06359999
155	0xbdb768f4	-0.08955565
156	0x3d2399b8	0.03994152
157	0xbdda285b	-0.106522284
158	0x3b10e242	0.0022107516
159	0x3cd45742	0.025920514
160	0xbdc1402e	-0.094360694
161	0xbd1fd1a2	-0.03901828
162	0xbd02397e	-0.03179311
163	0xbda5fa3a	-0.081043676
164	0xbdd395eb	-0.10331329
165	0xbd2e122e	-0.042497806
166	0xbdbd1e7b	-0.09234329
167	0xbbc98f52	-0.0061511183
168	0x3de9ed47	0.1142221
169	0x3cd93b9c	0.026517682
170	0xbc2eff72	-0.01068102
171	0x3d1656ab	0.036703747
172	0x3d05ed67	0.032697108
173	0x3cda052e	0.026613798
174	0x3d8ee2e8	0.06976873
175	0xbd3f39b1	-0.04668588
176	0xbe1fc870	-0.15603805
177	0xbd44b6ad	-0.048025776
178	0x3dba12ac	0.09085593
179	0x3cac2ca2	0.021017376
180	0x3bf03459	0.007330459
181	0xbd6b5956	-0.057458244
182	0xbb823438	-0.00397351
183	0xbd2cc510	-0.04218012
184	0xbb72169f	-0.0036939753
185	0x3d65ed8c	0.056134745
186	0xbd0399fe	-0.03212928
187	0x3d9a90f8	0.07547182
188	0x3c34ea44	0.011042181
189	0xbc300dc4	-0.0107454695
190	0x3b048bfc	0.0020225039
191	0xbce6f680	-0.028193712
192	0x3c156fa2	0.009120854
193	0xbd0fd25b	-0.03511272
194	0xbd64b7b1	-0.055839244
195	0xbd8ae3cf	-0.06781732
196	0xbddfee3d	-0.10934112
197	0x3d095fcc	0.033538625
198	0x3d83395a	0.06407423
199	0x3dc5dcff	0.09661292
200	0x3d8cbf25	0.068723954
201	0x3d254d43	0.040356886
202	0xbdd67d4a	-0.10473116
203	0xbdb57a61	-0.088612325
204	0x3c240cdc	0.010012832
205	0x3d96447d	0.07337282
206	0xbd1a39cd	-0.03765278
207	0xbdcdacb6	-0.100427076
208	0xbd8ecde9	-0.06972868
209	0x3dc23e07	0.09484487
210	0xbd699fd8	-0.057037205
211	0x3dacc48f	0.08435928
212	0x3d497f02	0.04919339
213	0x3dbf7f57	0.0935046
214	0x3d8001c4	0.06250337
215	0xbdb2eb5c	-0.087362975
216	0xbc249a39	-0.010046535
217	0xbdb511ea	-0.088413075
218	0xbdd11db0	-0.102107406
219	0xbd444fb8	-0.04792759
220	0xbc741b1d	-0.014899042
221	0xbc83cb3e	-0.016088124
222	0x3dc9a228	0.09845382
223	0x3db7f5c5	0.08982424
224	0x3d63c1b2	0.055604644
225	0xbd7b8d1f	-0.06141388
226	0xbd27d2cf	-0.040972527
227	0x3c04a6eb	0.008096437
228	0x3d41b0e2	0.04728783
229	0x3cd0d615	0.025492707
230	0x3db236f7	0.0870189
231	0xbdbefc1c	-0.0932543
232	0x3d97219c	0.07379457
233	0x3c26c9bd	0.010179934
234	0x3dc65d8f	0.09685814
235	0x3d05eedd	0.0326985
236	0xbbdf1264	-0.0068076123
237	0x3c773331	0.015087889
238	0x3cd32c50	0.025777966
239	0x3dfd185c	0.12358162
240	0xbb7957c7	-0.0038046704
241	0xbbe7ce03	-0.007074119
242	0xbcf8e367	-0.030381871
243	0xbd5b3a39	-0.053522322
244	0xbda8970a	-0.082319334
245	0x3d2a13ca	0.04152278
246	0x3dd1116f	0.10208403
247	0x3d96cdbd	0.0736346
248	0xba2309eb	-0.00062194344
249	0x3d5a1d62	0.053250678
250	0xbccef433	-0.025262928
251	0x3c0b4316	0.008499881
252	0x3db36026	0.08758573
253	0x3d5fad22	0.05460847
254	0x3ba63be0	0.0050730556
255	0x3dda1eb3	0.10650387

l1.bias f4 [84]
0	0x3b89438c	0.0041889604
1	0xbd26fe77	-0.04077002
2	0x3e921e7a	0.28538877
3	0xbd75dc9e	-0.06002485
4	0x3c5ffa60	0.013670534
5	0xbd1372b0	-0.035998046
6	0x3e125705	0.14291008
7	0xbcf9e364	-0.030503936
8	0x3ee1a8ee	0.44074196
9	0xbc33b99b	-0.010969545
10	0x3d93cd7b	0.07216927
11	0x3e34fa78	0.17673671
12	0x3e095d94	0.13414603
13	0xbcc07f2a	-0.023498137
14	0x3e168b09	0.14701475
15	0xbc5031b2	-0.012707161
16	0x3d89c4e3	0.06727006
17	0xbc89c1c9	-0.016816037
18	0x3e0cd4db	0.13753073
19	0xbd96cb5a	-0.07363005
20	0xbd4f02ce	-0.050539784
21	0xbde2bd1c	-0.11071226
22	0x3df9351e	0.121683344
23	0x3e218295	0.1577247
24	0xbc62c61d	-0.013841179
25	0x3e40bdc4	0.1882239
26	0x3da7b754	0.08189264
27	0xbda18cff	-0.07888221
28	0x3e7155e6	0.23567924
29	0xbd56144e	-0.052265458
30	0xbda2589a	-0.07927056
31	0x3c1c1ad9	0.009527885
32	0x3e358e7f	0.17730139
33	0x3eaf552c	0.34244668
34	0x3dbe2808	0.09284979
35	0x3edac21e	0.42726225
36	0xbd2f4aed	-0.042796064
37	0xbcafab62	-0.021444026
38	0xbd099151	-0.03358585
39	0x3c31cb3f	0.01085168
40	0xbcaee7cd	-0.021350766
41	0xbdc6f830	-0.09715307
42	0x3d13e7eb	0.036109846
43	0xbdacf9b0	-0.084460616
44	0xbda1287a	-0.078690484
45	0x3d02fe5a	0.03198085
46	0xbdef1a9c	-0.11674997
47	0xbda22a0d	-0.07918177
48	0x3e011055	0.12603886
49	0xbd0ed7b3	-0.034873676
50	0x3db8b6a5	0.09019212
51	0x3c5ac35b	0.01335224
52	0xbcc16dd5	-0.023611942
53	0xbdb756e6	-0.089521214
54	0x3e88a44a	0.26687843
55	0xbd802be2	-0.0625837
56	0x3e8bb528	0.2728665
57	0xbd3c41f4	-0.045961335
58	0x3dca0a75	0.09865276
59	0xbd436470	-0.047703207
60	0xbd5a3d79	-0.05328128
61	0x3dbf1398	0.09329909
62	0x3c8fda21	0.017560067
63	0xbdba1797	-0.09086531
64	0x3cc83255	0.024438063
65	0xbdb046a6	-0.08607225
66	0xbd686cb2	-0.056744285
67	0x3bcac54c	0.0061880704
68	0x3dfe1888	0.12407023
69	0xbd8302e1	-0.063970335
70	0x3e931948	0.28730226
71	0x3e86d461	0.26333907
72	0xbce215a3	-0.027598208
73	0xbda39d46	-0.07988982
74	0x3d06da98	0.03292331
75	0x3c5ed15c	0.01359972
76	0x3d9aa8f5	0.07551757
77	0x3e292180	0.16516685
78	0x3ecfeed5	0.40611902
79	0xbd0274d6	-0.031849705
80	0x3dbd721a	0.09250279
81	0x3de94663	0.11390378
82	0xbda5ceee	-0.08096109
83	0x3e3a8b4a	0.18217197

l2.weight f4 [256, 84]
0	0x3d8ae7ec	0.06782517
1	0x3d9a05d0	0.0752064
2	0x3ddb646a	0.10712512
3	0xbd59fe71	-0.05322117
4	0xbcc20e69	-0.023688512
5	0x3dc2de1e	0.09515022
6	0xbd272cf0	-0.04081434
7	0x3d246733	0.04013748
8	0x3d32386c	0.04351084
9	0x3b9adbc5	0.0047259056
10	0xbbf5282b	-0.007481595
11	0x3d21335b	0.039355617
12	0xbd6b4f4d	-0.057448674
13	0xbd90fdd8	-0.07079667
14	0x3d608e58	0.05482325
15	0x3dc10204	0.094242126
16	0xbdb2004a	-0.086914614
17	0xbd92ff9c	-0.0717766
18	0x3db59edc	0.08868191
19	0x3da95ffd	0.082702614
20	0xbda1b804	-0.07896426
21	0xbd68a51e	-0.056798093
22	0xbd8a405b	-0.06750556
23	0xbc2ebf3e	-0.010665713
24	0xbdc64c48	-0.09682518
25	0xbdd41c3c	-0.10356948
26	0xbdb648a6	-0.08900575
27	0x3c6d995e	0.014501898
28	0x3dcdd88d	0.100510694
29	0xbd0197ea	-0.031639017
30	0xbddde492	-0.10834612
31	0x3d82ea11	0.06392301
32	0x3cd27846	0.025692116
33	0x3d54f768	0.051993757
34	0xbdad5edb	-0.08465358
35	0x3db0605b	0.08612128
36	0x3c69517a	0.014240617
37	0x3bc7b62b	0.006094714
38	0xbd9b8cbd	-0.07595203
39	0x3d2feb1b	0.042948823
40	0xbd20de67	-0.0392746
41	0xbdceddb1	-0.10100878
42	0x3d428420	0.047489285
43	0xbd33172c	-0.04372327
44	0x3dae2bc6	0.08504443
45	0xbc8ea450	-0.017412335
46	0x3d34bf24	0.0441276
47	0xbdf02803	-0.11726382
48	0x3d5603bb	0.05224965
49	0xbda73c39	-0.081657834
50	0x3dc9f100	0.0986042
51	0x3d8c6d4c	0.06856784
52	0xbbf2ef6b	-0.0074137948
53	0x3dcf4e93	0.10122409
54	0x3dba6540	0.09101343
55	0x3db1e9cc	0.08687171
56	0x3e004afe	0.12528607
57	0x3d8d8937	0.06910937
58	0xbdd816e3	-0.1055124
59	0xbdb6bbb2	-0.08922519
60	0xbd14e15a	-0.036347724
61	0x3d6bda02	0.057580955
62	0x3d2b05db	0.04175363
63	0x3da1e40e	0.07904826
64	0xbda5de44	-0.080990344
65	0x3d06d80f	0.032920893
66	0xbd74204e	-0.05960112
67	0x3d299e16	0.041410528
68	0xbd9f6e9d	-0.0778477
69	0x3db9a4ca	0.09064634
70	0x3d65056e	0.05591338
71	0x3dca8c83	0.09890082
72	0x3db76675	0.08955089
73	0x3dabf165	0.08395652
74	0xba2b9159	-0.0006544791
75	0x3d206194	0.039155558
76	0xbdb7e30b	-0.08978852
77	0x3c8c4db0	0.017126888
78	0x3dec3456	0.1153342
79	0xbbc2f69a	-0.0059498074
80	0x3db288fe	0.087175354
81	0x3c8865b8	0.016650066
82	0x3a5b6a1d	0.0008369999
83	0x3ddf5305	0.109045066
84	0x3ca653ee	0.020303693
85	0x3d41dccc	0.04732971
86	0x3d8ce27f	0.06879138
87	0x3d0aaac9	0.03385428
88	0x3da09b6b	0.078421436
89	0xbdb444ad	-0.08802161
90	0x3cdf5212	0.027260814
91	0x3d858874	0.06520167
92	0x3d837456	0.06418674
93	0x3d1154b0	0.035481155
94	0x3c7ec2b5	0.015549351
95	0xbdae1a85	-0.08501152
96	0x3bd2e3f0	0.0064358637
97	0x3caea9a9	0.021321135
98	0x3d02f40c	0.031971022
99	0xbd2dfe1f	-0.042478677
100	0x3c4b6717	0.012414715
101	0x3cf2b42b	0.029626926
102	0xbd7d4744	-0.061835542
103	0x3d5fa9dd	0.054605354
104	0xbc531dbd	-0.012885508
105	0xbbb0751e	-0.005385055
106	0xbda370df	-0.07980513
107	0x3d375969	0.044763003
108	0xbd5d2070	-0.053986013
109	0xbdac533d	-0.08414314
110	0xbd1e80a1	-0.03869689
111	0x3d0f7e8a	0.035032786
112	0x3d86802c	0.065674156
113	0xbcf7ebbf	-0.03026378
114	0xbdce0d69	-0.100611515
115	0x3a3fd24e	0.00073174096
116	0x3db3e711	0.08784307
117	0xbda56cb6	-0.080773756
118	0x3dccc568	0.0999859
119	0x3dd529cc	0.10408363
120	0xbc98ecf0	-0.018667668
121	0x3d86f4da	0.065896705
122	0x3dd31194	0.10306087
123	0xbd9e2880	-0.077225685
124	0xbd9d00ee	-0.07666193
125	0x3c955865	0.018230626
126	0x3cc63293	0.024194038
127	0x3d12e398	0.03586158
128	0x3dba9778	0.091109216
129	0xbb71731f	-0.00368423
130	0x3da4e408	0.08051306
131	0x3b25ccd1	0.0025299082
132	0x3da2199e	0.07915042
133	0x3d6f2980	0.058389187
134	0xbd24786d	-0.04015391
135	0xbd976597	-0.073924236
136	0x3d4692a8	0.048479706
137	0xbdc3ef5b	-0.09567138
138	0x3d0a45aa	0.033757843
139	0xbdcced07	-0.10006147
140	0xbd819fd2	-0.063293114
141	0xbdaa5fe7	-0.08319073
142	0xbcfa8d11	-0.030584844
143	0xbc6bd881	-0.01439488
144	0xbd1af50e	-0.03783136
145	0xbdb8c007	-0.09021001
146	0x3cc705c4	0.024294741
147	0x3d90fc82	0.07079412
148	0xbdd8b3ce	-0.1058117
149	0x3d83ad9a	0.06429596
150	0x3db4c656	0.08826892
151	0x3be36fa1	0.0069407974
152	0xbddbab2a	-0.10726006
153	0xbdd67031	-0.104706176
154	0xbdea5a11	-0.1144296
155	0x3cbf6f6a	0.023368556
156	0x3d4b37f1	0.049613897
157	0x3c764096	0.015030047
158	0xbc28982d	-0.010290188
159	0xbca49c3c	-0.02009403
160	0xbcac367e	-0.021022078
161	0x3d56e025	0.052459855
162	0x3dc25ebe	0.09490727
163	0xbda45d64	-0.08025625
164	0xbccc0216	-0.024903338
165	0x3dabe186	0.083926246
166	0x3db29efe	0.087217316
167	0x3d900c50	0.070335984
168	0xbd9be891	-0.07612718
169	0x3d9db365	0.077002324
170	0x3ca0bea2	0.01962215
171	0xbdc581f9	-0.09643931
172	0x3d97b9ac	0.07408461
173	0xbd81b027	-0.063324265
174	0xbd7bf88e	-0.061516337
175	0x3d54b03c	0.051925883
176	0x3cebe7e1	0.028797092
177	0xbd8f362e	-0.06992756
178	0x3cf19d4e	0.029493954
179	0xbdea717a	-0.11447425
180	0xbd4c985c	-0.04994999
181	0x3d90a4f9	0.07062716
182	0xbce10ab5	-0.027470926
183	0xbdd0894f	-0.101824395
184	0x3d9bf16a	0.076144055
185	0x3cab1308	0.020883098
186	0xbc5ebb5e	-0.0135944765
187	0x3d5a19f0	0.053247392
188	0x3dc38415	0.09546677
189	0x3d42bc75	0.047543008
190	0xbdae45ef	-0.085094325
191	0xbcecd013	-0.028907811
192	0xbda78ca9	-0.08181126
193	0x3dca4766	0.098768994
194	0x3d8382b7	0.06421416
195	0xbd720789	-0.059089217
196	0xbdb8b799	-0.090193935
197	0x3c831616	0.016001742
198	0x3d35d991	0.04439694
199	0xbd039644	-0.032125726
200	0x3d7e8e31	0.062147323
201	0x3c3009ea	0.010744551
202	0xbcdb1da3	-0.02674753
203	0x3da3a917	0.07991236
204	0xbcee2e1f	-0.029074727
205	0x3cf2f3c1	0.029657247
206	0xbdd68d2b	-0.104761444
207	0xbc8b079b	-0.0169714
208	0xbca823d9	-0.020524906
209	0x3d199f58	0.037505478
210	0xbd34cdaf	-0.044141468
211	0x3dc67b89	0.09691531
212	0xbdb95869	-0.09050066
213	0x3dd700e1	0.104982145
214	0xbdb2d7b0	-0.087325454
215	0xbcfdffbe	-0.031005736
216	0xbd9c0958	-0.0761897
217	0xbd9ba1f1	-0.07599247
218	0xbd96de1b	-0.07366582
219	0xbdd86855	-0.10566775
220	0x3d18724b	0.037218373
221	0x3db63fdc	0.08898899
222	0x3d96eb51	0.07369102
223	0x3d488d02	0.0489626
224	0x3da02479	0.078194566
225	0x3daf4b0d	0.08559237
226	0xbcc29d6a	-0.023756701
227	0xbd818a2f	-0.063251846
228	0x3d172910	0.036904395
229	0x3ddd58ef	0.10807978
230	0xbda61462	-0.081093565
231	0xbb1230b1	-0.0022306854
232	0xbdca6448	-0.098824084
233	0x3dd73fde	0.105102286
234	0xbd2b0388	-0.041751415
235	0x3d904736	0.070448324
236	0x3d7e122f	0.06202906
237	0xbd3b416a	-0.04571668
238	0x3dca9bfe	0.098930344
239	0x3cd841f6	0.02639864
240	0x3cf35ad3	0.029706394
241	0xbda946dc	-0.082654685
242	0xbdc920c0	-0.098207
243	0xbdd8e650	-0.105908036
244	0x3d632985	0.055459518
245	0xbe00891d	-0.12552305
246	0xbda5d255	-0.08096758
247	0x3ce28bdb	0.027654579
248	0x3d2d465b	0.042303424
249	0x3d3a7bbe	0.045528166
250	0xbae6a710	-0.0017597396
251	0xbd6af836	-0.05736562
252	0xbdbdc883	-0.0926676
253	0x3d0eb276	0.034838162
254	0x3cca3890	0.024685174
255	0xbdcaaabb	-0.098958455
