models/fedavg/localmodel0experiment_log-2023-09-04-1928-25.pth (torch, 375691 bytes, 14 tensors)

features.conv1.weight f4 [6, 3, 5, 5]
0	0xbcb6d79c	-0.022319607
1	0xbf2a4f54	-0.66527295
2	0x3e3c82c9	0.18409266
3	0x3eaa640d	0.33279458
4	0xbf64b578	-0.893394
5	0x3ec427b8	0.38311553
6	0xbdf206f9	-0.11817736
7	0xbf79d163	-0.97585124
8	0xbefd5d47	-0.49485227
9	0x3d51a509	0.05118278
10	0x3e24c4fa	0.16090766
11	0x3f7a50d7	0.977796
12	0xbed272e6	-0.41103286
13	0xbf3335b6	-0.7000383
14	0xbc14b6c1	-0.009076775
15	0xbe877e14	-0.26463377
16	0x3e8b605a	0.27221948
17	0x3f626a51	0.88443476
18	0x3f1a333b	0.6023442
19	0xbde4071a	-0.11134167
20	0x3efefaf4	0.49800837
21	0xbecb3783	-0.3969079
22	0x3e0699df	0.13144635
23	0xbe229aec	-0.1587941
24	0x3da7e84d	0.08198605
25	0xbe89e24a	-0.26930457
26	0xbefd936a	-0.4952653
27	0x3e9e852a	0.3096097
28	0x3f3a167d	0.72690564
29	0xbd2cf354	-0.042224243
30	0x3e138025	0.14404352
31	0xbddeb0fe	-0.10873602
32	0xbf1bd31e	-0.60869014
33	0xbd5b3469	-0.05351678
34	0x3f07a91c	0.52992415
35	0xbe6ca74f	-0.23110698
36	0x3f73cd61	0.9523526
37	0xbe0ea51d	-0.13930173
38	0xbed1006f	-0.40820643
39	0x3ee92e01	0.4554291
40	0xbf46c9a2	-0.7765142
41	0x3ca69550	0.02033487
42	0x3f511da2	0.8168584
43	0x3f0aa186	0.54152715
44	0xbd70b886	-0.058769725
45	0x3e5c678e	0.21523878
46	0xbec976e5	-0.39348522
47	0x3e388271	0.1801851
48	0x3db11710	0.08646977
49	0x3ec46ae6	0.38362807
50	0x3e4aa933	0.19791107
51	0xbee9c0f3	-0.4565502
52	0x3e20ab96	0.15690455
53	0x3efcb0c8	0.49353623
54	0xbe6c9521	-0.23103763
55	0x3edbb216	0.42909306
56	0xbd92206a	-0.07135089
57	0xbf54397d	-0.8290022
58	0xbecafb03	-0.39644632
59	0x3d212af6	0.03934761
60	0x3e23d257	0.15998207
61	0x3f4e8711	0.80674845
62	0xbedfbc35	-0.43698278
63	0xbf2bc86c	-0.67102695
64	0x3ca3e557	0.020006819
65	0xbe8c226a	-0.27370006
66	0x3e4d6284	0.20057112
67	0x3f368085	0.71289855
68	0x3ead9557	0.33903
69	0xbec1581c	-0.37762535
70	0x3ecff3fa	0.40615827
71	0xbede5d1c	-0.43430412
72	0x3d81465b	0.06312247
73	0xbeacc90e	-0.33747143
74	0xbe3f2235	-0.18665393
75	0xbcff7385	-0.031183014
76	0x3d40542d	0.046955276
77	0xbe03b485	-0.12861831
78	0x3e9095a7	0.28239176
79	0x3e8de76f	0.27715632
80	0x3db7f3b2	0.08982028
81	0x3e30dbfc	0.17271417
82	0x3db79bdd	0.089652754
83	0x3f1701e6	0.5898727
84	0x3deabfe7	0.11462384
85	0xbe8048f8	-0.2505567
86	0x3f1b6ea5	0.60715705
87	0x3f95b4a3	1.1695751
88	0x3f20c89f	0.62806123
89	0xbf0400d4	-0.51563764
90	0x3e45aa46	0.19303235
91	0x3ecc1ecf	0.39867255
92	0x3edc082f	0.42974994
93	0xbed1f2c7	-0.41005537
94	0xbe9f2864	-0.31085503
95	0xbdb912f1	-0.09036816
96	0xbf30ddf1	-0.69088656
97	0xbf9e1cc8	-1.2352533
98	0xbf6da644	-0.92831826
99	0x3f0cf0b7	0.550548
100	0x3e81d9c0	0.25361443
101	0x3e51b749	0.20480074
102	0xbe01442b	-0.1262366
103	0x3e62741b	0.22114603
104	0x3d7d0f94	0.061782435
105	0xbe27f23e	-0.16401002
106	0xbd17721f	-0.03697407
107	0xbe7932e6	-0.24335822
108	0x3e0fc326	0.14039287
109	0xbe577cdf	-0.21043728
110	0xbf1179cb	-0.56826466
111	0x3e948643	0.29008684
112	0x3f9d149b	1.2271913
113	0x3e8da5ee	0.27665657
114	0xbf3bf855	-0.734258
115	0x3d727b7b	0.05919979
116	0x3d2df928	0.042473942
117	0x3dad1936	0.08452074
118	0xbed2cac9	-0.41170338
119	0xbce8cc7a	-0.028417815
120	0x3d48a976	0.048989736
121	0xbf59f49d	-0.85138875
122	0xbfc2e091	-1.5224782
123	0xbf377d94	-0.7167599
124	0x3f576ae4	0.8414748
125	0x3e1213f0	0.14265418
126	0xbc878499	-0.01654272
127	0xbf0426e6	-0.51621854
128	0xbe298c7a	-0.16557494
129	0x3e0b28f6	0.13589844
130	0xbe1adf66	-0.15124282
131	0xbeb842e0	-0.35988522
132	0xbf04e5d8	-0.51913214
133	0xbe0b1836	-0.13583454
134	0xbe0e5756	-0.13900504
135	0xbe960f62	-0.2930861
136	0x3eacfcbe	0.33786577
137	0x3f6945e0	0.91122246
138	0x3e65c4dc	0.22438377
139	0xbede93f9	-0.4347227
140	0x3e6a660e	0.22890493
141	0x3ec0674e	0.37578815
142	0x3f1a961d	0.60385305
143	0x3d8fb86d	0.07017598
144	0x3e699ee3	0.22814517
145	0x3ed3fbc1	0.4140301
146	0xbe77bf5e	-0.24194095
147	0xbf308a95	-0.6896146
148	0xbe5acfff	-0.21368407
149	0x3f8dbebb	1.1073831
150	0xbe6bef18	-0.23040426
151	0x3f3411e6	0.7033981
152	0xbf8cbcf5	-1.0995165
153	0x3f02fa3f	0.51163095
154	0xbe0e5a13	-0.13901548
155	0xbeb40c96	-0.35165852
156	0x3f21f26d	0.6326054
157	0xbfb1ea38	-1.3899603
158	0x3edd5256	0.4322688
159	0xbea86c7e	-0.32895273
160	0xbeadd818	-0.3395393
161	0x3f2bac7b	0.6706006
162	0xbf83bb3c	-1.0291514
163	0x3f192d69	0.59834915
164	0xbea1bfc7	-0.31591627
165	0xbee9b359	-0.45644644
166	0x3cd3a52b	0.025835594
167	0xbf98b6da	-1.1930802
168	0x3e1e31e1	0.15448715
169	0xbf135391	-0.5754939
170	0x3f2e58e6	0.681044
171	0x3f93c6e0	1.1545067
172	0xbd6e55f6	-0.058187447
173	0x3f8573cb	1.0425962
174	0x3f3ecd5b	0.745321
175	0xbcf29231	-0.029610725
176	0x3f5ce83f	0.8629188
177	0xbf81c245	-1.0137411
178	0x3f2c0b65	0.67204887
179	0xbde8fe79	-0.11376662
180	0x3ce35762	0.027751628
181	0x3faab19d	1.3335453
182	0xbf244cfe	-0.6417998
183	0x3f9a359b	1.2047609
184	0x3e9504d1	0.29105237
185	0xbe430b3f	-0.19047259
186	0x3f9bafb9	1.2163001
187	0xbf250018	-0.6445327
188	0x3f8c299f	1.0950202
189	0xbd0a716b	-0.03379957
190	0xbf5c2645	-0.85995895
191	0x3d787c42	0.060665376
192	0xbfbf3dcb	-1.4940733
193	0x3d2a8c09	0.041637454
194	0xbf3546b2	-0.70811
195	0xbeafc895	-0.3433272
196	0x3ee9b6ea	0.45647365
197	0xbf2dcb1a	-0.67888033
198	0x3eb5113b	0.35364708
199	0xbe87b6d8	-0.26506686
200	0xbecff827	-0.40619013
201	0x3edb88eb	0.42877898
202	0xbf6c598e	-0.9232415
203	0x3ec5935a	0.38588983
204	0xbe9d9309	-0.3077624
205	0xbe34801c	-0.17626995
206	0x3f4e1950	0.80507374
207	0xbf471be9	-0.7777696
208	0x3f3bd6c4	0.7337458
209	0xbeb0d65f	-0.34538552
210	0xbda7ff37	-0.08202975
211	0x3f74018d	0.95314866
212	0xbee85aa2	-0.45381647
213	0x3f86f578	1.0543661
214	0xbe0eceb4	-0.13946038
215	0xbef8e52f	-0.48612353
216	0x3e451199	0.19244994
217	0xbf47102c	-0.7775905
218	0x3e27be90	0.16381288
219	0xbf190832	-0.5977813
220	0xbdecbc3f	-0.115593426
221	0x3f08abd5	0.53387195
222	0xbe59efe0	-0.21282911
223	0x3ee778d4	0.45209372
224	0xbd511848	-0.051048547
225	0x3e7d38ed	0.24728747
226	0x3e3f65bc	0.18691152
227	0x3db585c4	0.088634044
228	0x3ef85f4f	0.48510215
229	0x3f272b7c	0.65300727
230	0x3dc1391b	0.0943472
231	0xbdd2a880	-0.10286045
232	0xbe283519	-0.16426505
233	0xbd22bac1	-0.039728884
234	0x3e2ad549	0.16682924
235	0xbe526735	-0.20547183
236	0xbeca4b78	-0.39510703
237	0xbee4ac68	-0.44662786
238	0xbeb4f2b3	-0.35341415
239	0xbd356c00	-0.04429245
240	0xbeffb497	-0.49942467
241	0xbf18bdc3	-0.59664553
242	0xbf42ebf1	-0.7614127
243	0xbf0ef447	-0.5584149
244	0xbe8e5120	-0.27796268
245	0xbdc7dd36	-0.097589895
246	0xbeffd316	-0.49965733
247	0xbf2f424a	-0.68460524
248	0xbf11ae63	-0.5690672
249	0xbe1df8d2	-0.15426949
250	0xbd859896	-0.06523244
251	0xbe6284db	-0.22120993
252	0xbe6a6ee9	-0.22893871
253	0xbe365799	-0.17806853
254	0x3dd4bcbb	0.1038756
255	0x3d1a4d28	0.03767124

features.conv1.bias f4 [6]
0	0x3f0fba18	0.5614333
1	0xbfaceaac	-1.3509116
2	0xbf1ff497	-0.6248259
3	0x3e8a8d5e	0.2706098
4	0xbf55653a	-0.83357584
5	0x3f07a18e	0.5298089

features.conv2.weight f4 [16, 6, 5, 5]
0	0x3e2049db	0.15653174
1	0x3be99a96	0.007129024
2	0x3e00811e	0.12549254
3	0x3d69dfce	0.057098202
4	0x3da5cd33	0.08095779
5	0x3e8bb2f8	0.2728498
6	0x3da77d42	0.08178188
7	0x3d929d5d	0.07158921
8	0x3d4b5fcf	0.049651917
9	0x3c6af006	0.014339453
10	0x3e385ba0	0.18003702
11	0x3d75c900	0.06000614
12	0xbd252fe8	-0.04032889
13	0xbd4ff7d9	-0.050773475
14	0xbe0f1cd4	-0.13975841
15	0x3e93675c	0.28789794
16	0x3e1fff56	0.15624747
17	0x3cb0c595	0.02157859
18	0x3dce7fd2	0.100829735
19	0xbbb02779	-0.0053757993
20	0x3e1a703e	0.1508188
21	0x3dfccc1a	0.12343617
22	0x3cb4f8c8	0.022091284
23	0x3d9ede8d	0.07757292
24	0xbd89102f	-0.0669254
25	0x3dae5b35	0.0851349
26	0x3e1db263	0.1540008
27	0x3e544d02	0.20732501
28	0x3e2fd94f	0.1717274
29	0x3e45c53a	0.19313517
30	0x3dcc072f	0.09962308
31	0x3e4f1c88	0.20225728
32	0x3e32b11e	0.17450377
33	0x3e5d4410	0.21607995
34	0x3e662bfc	0.22477716
35	0x3e151909	0.14560331
36	0x3e0ebea1	0.13939907
37	0x3e29f062	0.16595605
38	0x3e56e09d	0.2098412
39	0x3e6b13e1	0.22956802
40	0x3da974f9	0.08274264
41	0x3d830d70	0.063990474
42	0x3cb899c3	0.022534257
43	0x3d7e3d34	0.062070087
44	0x3dcc7a9b	0.09984323
45	0x3db32175	0.08746616
46	0xbcc70b5c	-0.024297409
47	0xbcfad9ce	-0.030621435
48	0xbc78b091	-0.015178815
49	0xbd0dabac	-0.034587547
50	0x3e427992	0.18991688
51	0x3c075571	0.008260117
52	0x3dc145c5	0.094371356
53	0xbc5a06ef	-0.013307317
54	0x3dee3986	0.116320655
55	0x3cbb80cb	0.022888562
56	0xbd85d7ba	-0.06535287
57	0xbdb14d5f	-0.086573355
58	0xbceff962	-0.02929372
59	0x3c4b1d61	0.012397141
60	0x3e577ec0	0.21044445
61	0xbcb65365	-0.022256562
62	0x3bd1eaac	0.006406149
63	0x3e0dfd71	0.13866211
64	0x3e4bc294	0.19898444
65	0x3d8b3e19	0.067989536
66	0xbd0f4444	-0.034977213
67	0x3d094908	0.033516914
68	0x3d57a3c9	0.052646432
69	0x3d61cd77	0.055127587
70	0x3cc71880	0.024303675
71	0xbe0a6ca6	-0.13518009
72	0xbc34e611	-0.01104118
73	0xbd1faf77	-0.038985696
74	0xbd997fb6	-0.07495062
75	0x3e47287e	0.1944904
76	0x3dadb86a	0.0848244
77	0x3d8da2cb	0.06915816
78	0xbd0955f3	-0.033529233
79	0x3be3157e	0.0069300523
80	0x3e4946f0	0.19655967
81	0xbd1e8724	-0.0387031
82	0x3dabd83c	0.08390853
83	0x3d042fda	0.032272197
84	0x3cd1a9a5	0.025593588
85	0x3e4f2c8f	0.20231842
86	0x3d55e967	0.052224543
87	0xbc167768	-0.009183742
88	0xbd36b5c9	-0.044606958
89	0xbd551c39	-0.05202887
90	0x3e06e623	0.13173728
91	0xbd016df0	-0.031598985
92	0xbe0bfec8	-0.1367141
93	0xbd4d75ad	-0.050161052
94	0xbe07c9f7	-0.13260637
95	0x3e361753	0.17782335
96	0x3d939daf	0.0720781
97	0x3d1a6c79	0.037701104
98	0x3ca5aed2	0.020224962
99	0x3e0ee53f	0.13954638
100	0x3d8c9b30	0.06865537
101	0x3df5d004	0.120025665
102	0xbc727302	-0.014797928
103	0x3d5b2ee9	0.053511534
104	0xbe22c6b1	-0.15896107
105	0xbe1fcfdf	-0.1560664
106	0xbeefa198	-0.46802974
107	0xbee4ef7f	-0.4471397
108	0xbea202fc	-0.31642902
109	0xbe6e031f	-0.23243378
110	0xbee843d9	-0.45364264
111	0xbf5ad0bd	-0.8547476
112	0xbf63d65b	-0.88998955
113	0xbf3646d4	-0.71201825
114	0xbed8d169	-0.42347267
115	0xbee80955	-0.4531962
116	0xbf477d70	-0.7792578
117	0xbf49d09d	-0.78833944
118	0xbf3f654b	-0.74763936
119	0xbf02fb5a	-0.5116478
120	0xbea86652	-0.32890564
121	0xbf195de5	-0.59908897
122	0xbf1a724c	-0.60330653
123	0xbf1b305d	-0.6062067
124	0xbed9599b	-0.42451176
125	0x3ea416aa	0.3204854
126	0x3e0c3737	0.13692938
127	0x3e5c6390	0.21522355
128	0x3e38d973	0.180517
129	0x3eb3e06f	0.35132167
130	0x3d657128	0.056016117
131	0xbd8a002c	-0.06738314
132	0xbd6b6c86	-0.057476543
133	0xbd368c70	-0.044567525
134	0x3dcc8f12	0.09988226
135	0x3dd36db3	0.10323658
136	0xbd9d7f35	-0.076902784
137	0xbdb49ece	-0.08819352
138	0xbe395f1c	-0.18102688
139	0xbcbc64be	-0.022997256
140	0x3e54d0fd	0.20782848
141	0xbddbf51a	-0.10740109
142	0xbd964765	-0.07337836
143	0xbcd4fba7	-0.025998903
144	0xbb4f5d8b	-0.003164145
145	0x3df1d249	0.11807687
146	0xbdb4e161	-0.0883205
147	0xbdb76f43	-0.08956768
148	0xbe6a4b8d	-0.22880383
149	0xbd574f88	-0.05256608
150	0xbd40dafa	-0.047083832
151	0xbefe0018	-0.49609447
152	0xbf0e6334	-0.5562012
153	0xbeaf60ba	-0.34253484
154	0xbe52a117	-0.20569263
155	0x3e3777f9	0.1791686
156	0x3cbd2bcb	0.023092171
157	0xbd230ef6	-0.03980919
158	0xbd8b2a2c	-0.06795153
159	0x3dc18445	0.094490565
160	0x3efc5d58	0.49289966
161	0x3ed7103b	0.4200457
162	0x3ecc9159	0.3995464
163	0x3ea096a7	0.3136494
164	0x3ea7ecf8	0.3279798
165	0xbe03749b	-0.1283745
166	0xbea01cb0	-0.31271887
167	0xbec42012	-0.38305718
168	0xbebb7f1d	-0.36620417
169	0xbe07856d	-0.13234492
170	0xbe688dac	-0.22710294
171	0xbe38d19f	-0.18048714
172	0xbe825c7d	-0.25461188
173	0xbe8e0797	-0.27740166
174	0xbe2d0d7b	-0.16899674
175	0x3e0ac286	0.13550767
176	0xbdad5ff7	-0.084655695
177	0xbd987390	-0.07443917
178	0xbc5b209b	-0.013374473
179	0x3e80954f	0.25113913
180	0xbba5d503	-0.0050607934
181	0xbd9af51e	-0.07566284
182	0xbd1769b5	-0.036966044
183	0xbc2a3358	-0.010388218
184	0x3e0c1abc	0.13682073
185	0x3d0f9235	0.035051543
186	0xbd02403b	-0.031799536
187	0x3da6345b	0.08115455
188	0x3dd6950a	0.10477646
189	0x3d90d11e	0.07071136
190	0xbd41e87f	-0.047340866
191	0xbdf5a7b9	-0.11994881
192	0xbcdb2b0c	-0.026753925
193	0x3d38cbe9	0.04511634
194	0xbce305d8	-0.027712747
195	0x3e8ddb3a	0.2770632
196	0x3e0a6a0f	0.1351702
197	0x3e025767	0.12728654
198	0x3ddfbe00	0.109249115
199	0xbbf05da0	-0.0073353797
200	0xbca5a862	-0.020221893
201	0xbca81924	-0.0205198
202	0x3d549ace	0.051905446
203	0xbab2998f	-0.0013626086
204	0x3d19195a	0.037377693
205	0x3e8fe0b4	0.28101122
206	0x3eee0ffe	0.46496576
207	0x3f1bb1ac	0.6081798
208	0x3ecec04e	0.40381092
209	0x3e527c1e	0.2055516
210	0x3da0072e	0.078138694
211	0x3e0e1da6	0.13878497
212	0x3e252b84	0.16129881
213	0x3de9aa38	0.1140942
214	0x3dad056c	0.084483
215	0xbdf81910	-0.12114155
216	0xbe414bb8	-0.1887654
217	0xbe76ca1b	-0.24100535
218	0xbe3ec53e	-0.1862993
219	0xbd9149d4	-0.0709416
220	0xbce0392d	-0.027371014
221	0xbe62e7b4	-0.221587
222	0xbe77296f	-0.241369
223	0xbe1364aa	-0.14393869
224	0x3c364c18	0.011126541
225	0x3ea3f76c	0.32024705
226	0x3e7a145d	0.2442183
227	0x3e907faa	0.282224
228	0x3e948f32	0.290155
229	0x3e98d6cf	0.29851386
230	0x3dd805c8	0.10547978
231	0xbc992ce3	-0.018698161
232	0xbdf69b62	-0.12041356
233	0xbe1c172e	-0.15243217
234	0xbd9a125f	-0.07523035
235	0x3e5bc39a	0.21461335
236	0x3e857c4a	0.26071388
237	0x3e8e7fe9	0.27831963
238	0x3ddb3a62	0.10704495
239	0x3d99f9c7	0.07518344
240	0xbd2a8f1d	-0.04164039
241	0xbacb6719	-0.0015518396
242	0xbd955e7d	-0.07293413
243	0xbda632c2	-0.0811515
244	0xbdc28f48	-0.09499985
245	0xbe922cd5	-0.2854983
246	0xbe8b73dc	-0.2723683
247	0xbee4be50	-0.44676447
248	0xbedb1ed4	-0.42796957
249	0xbe3db842	-0.1852732
250	0x3ce6c451	0.028169783
251	0x3de019c3	0.10942414
252	0x3db338b8	0.087510526
253	0x3e155788	0.14584172
254	0x3d84adb2	0.06478442
255	0xbd757ca2	-0.059933312

features.conv2.bias f4 [16]
0	0x3fae38ca	1.3611081
1	0xbf735ab2	-0.95060265
2	0xbdaf82c7	-0.08569866
3	0x3ec4cbc4	0.3843671
4	0xbf684376	-0.9072794
5	0xbf48db58	-0.7845969
6	0x3f01b3a7	0.5066475
7	0x3da8fd09	0.082513876
8	0xbee349ec	-0.44392335
9	0x3f6f8a3d	0.9357031
10	0x3e6f6009	0.23376478
11	0xbe9a274f	-0.30108115
12	0x3e64a84c	0.22329825
13	0xbe39bd7b	-0.18138687
14	0x3ed54603	0.41654977
15	0xbfc088aa	-1.5041707

features.fc1.weight f4 [120, 400]
0	0x3e82c8ba	0.25543767
1	0x3e023003	0.12713628
2	0xbc8f2892	-0.0174754
3	0xbdb4fa6f	-0.08836829
4	0xbe06b51b	-0.13155024
5	0x3dbb262d	0.09138141
6	0x3d83350e	0.06406604
7	0xbd3f5944	-0.04671599
8	0xbda6779e	-0.08128284
9	0xbe137b26	-0.14402446
10	0x3e14128b	0.14460199
11	0x3c888bf3	0.016668295
12	0xbd306862	-0.043068297
13	0xbd884b1d	-0.06654952
14	0xbdc5b64e	-0.096539125
15	0x3dd60b3a	0.1045136
16	0xbd9691e5	-0.07352046
17	0xbca5f054	-0.020256199
18	0xbc1bc35b	-0.009507026
19	0xbdd13365	-0.10214881
20	0xbc1e1543	-0.009648624
21	0xbded9d98	-0.11602324
22	0xbdf1fc91	-0.11815751
23	0xbdb4a192	-0.088198796
24	0xbe4179e9	-0.18894161
25	0x3e143b80	0.14475822
26	0x3cd01c83	0.02540422
27	0xbd810f6f	-0.06301772
28	0xbdc74b03	-0.09731104
29	0xbd64c693	-0.055853438
30	0x3da4594d	0.08024845
31	0xbd811391	-0.0630256
32	0xbded6516	-0.11591546
33	0xbdf11bb6	-0.117728636
34	0xbda8651c	-0.0822241
35	0x3df9532e	0.121740684
36	0xbc84d1df	-0.016213356
37	0xbde6aac3	-0.11263039
38	0xbde939ef	-0.11388003
39	0xbdc48cb2	-0.09597148
40	0x3dd5ac46	0.10433249
41	0xbc66bc43	-0.014082971
42	0xbdc04bde	-0.093894705
43	0xbdb3fa6c	-0.087879986
44	0xbc59950b	-0.0132801635
45	0x3df59276	0.11990826
46	0x3d16f433	0.03685398
47	0xbd793ee9	-0.06085101
48	0xbd916fbb	-0.07101389
49	0xbd929a69	-0.07158358
50	0x3dcf61e1	0.10126091
51	0x3d2a6100	0.041596413
52	0xbd2736e7	-0.040823843
53	0xbdb7c1d3	-0.08972516
54	0x3d80c91b	0.06288358
55	0x3de14b29	0.11000664
56	0xbd2773bb	-0.040881854
57	0xbddb79d8	-0.10716599
58	0xbde39d3f	-0.11113977
59	0x3c971b2d	0.018445576
60	0x3dc05049	0.09390313
61	0xbdd7b142	-0.10531856
62	0xbe28e5b5	-0.16493876
63	0xbd903b58	-0.07042569
64	0x3c4f4455	0.012650569
65	0xb84d9f8d	-4.9024402e-05
66	0xbd2092bf	-0.039202448
67	0xbe2416d1	-0.16024329
68	0xbd4d5027	-0.050125267
69	0x3b6d136e	0.003617491
70	0x3c1af5ca	0.009458015
71	0xbd51e8d3	-0.05124743
72	0xbd43b386	-0.04777863
73	0x3baceee3	0.005277501
74	0xbc9f1860	-0.019420803
75	0xbcc8d090	-0.024513513
76	0xbbba82e0	-0.005691871
77	0xbd67f840	-0.056633234
78	0xbc2860b7	-0.010276965
79	0xbcaa5caf	-0.020796148
80	0xbd56bd4a	-0.052426614
81	0xbcc7f709	-0.024409788
82	0xbcc79981	-0.024365189
83	0xbce553e0	-0.027994096
84	0xbd1ebc1e	-0.03875362
85	0xbc39210f	-0.011299386
86	0xbd1e7953	-0.038689923
87	0x3b4da998	0.0031381603
88	0x3dcd1fb1	0.1001581
89	0x3d95553a	0.07291646
90	0xbdb09662	-0.08622433
91	0xb91a54e4	-0.00014718209
92	0x3cf2e707	0.029651178
93	0x3d86d9a3	0.0658448
94	0x39c453ea	0.00037446554
95	0xbdf4b467	-0.119484715
96	0xbd908c5f	-0.07058024
97	0xbc888896	-0.016666692
98	0x3c6cc4af	0.01445119
99	0xbd951c1b	-0.07280751
100	0xbdbe6df1	-0.092983134
101	0xbd3e4bc0	-0.04645896
102	0xbbf07605	-0.007338288
103	0xbc8229e2	-0.015889112
104	0x3dbd9c7b	0.09258362
105	0xbd405a3e	-0.04696106
106	0xba9ac6b1	-0.0011808482
107	0x3d53d959	0.05172095
108	0x3da60f91	0.08108438
109	0x3dbdabfe	0.092613205
110	0xbc2f4cae	-0.010699434
111	0xbcd493fd	-0.025949473
112	0x3c611ea6	0.013740217
113	0x3da1da6a	0.07902987
114	0x3e19174f	0.14950298
115	0x3b57a95a	0.0032907338
116	0xbd5de743	-0.054175626
117	0xbd35c122	-0.04437364
118	0xbc91c9b9	-0.017796384
119	0x3dc94207	0.09827047
120	0x3ded2723	0.1157973
121	0x3da4898a	0.08034046
122	0x3bc23635	0.005926872
123	0x3d2c4349	0.042056356
124	0x3e3cb8b0	0.18429828
125	0xbd53c3dc	-0.051700458
126	0xbd356c46	-0.04429271
127	0xbd3de7a1	-0.046363477
128	0xbbb5b35d	-0.0055450634
129	0xbd17ba3b	-0.037042838
130	0x3b7c7a25	0.0038524952
131	0xbd5f0c82	-0.054455288
132	0x3b783468	0.0037873033
133	0xbd261ccc	-0.040554807
134	0xbd63c7a7	-0.055610325
135	0x3c26b59d	0.010175136
136	0xbd03404b	-0.032043736
137	0x3d37e9cc	0.0449007
138	0xbcb68c93	-0.022283828
139	0xbdbf6f6d	-0.09347425
140	0xbd97533c	-0.073889226
141	0xbda9b91a	-0.082872584
142	0x3c810aaa	0.015752155
143	0xbcb970f3	-0.022636866
144	0xbd60968d	-0.054831076
145	0xbe0f0376	-0.13966164
146	0xbdcf6c34	-0.1012806
147	0xbd0760fa	-0.03305147
148	0x3cca4039	0.024688827
149	0xbbe3da4c	-0.0069535132
150	0xbc61ea60	-0.0137887895
151	0x3c3353d1	0.010945276
152	0x3c8f6daf	0.017508356
153	0x3d41bde9	0.047300253
154	0x3d81e4a6	0.06342439
155	0xbb0133db	-0.0019714746
156	0xbcecd04e	-0.028907921
157	0xbd4f623d	-0.050630797
158	0xbd7ac01a	-0.06121836
159	0xb9a1a610	-0.0003083204
160	0xbb4f9a54	-0.003167768
161	0x3cdec069	0.027191358
162	0xbd5907d9	-0.052986
163	0xbd947f73	-0.072508715
164	0x3d2dfe5a	0.042478897
165	0x3c847aef	0.0161719
166	0x3d952d3c	0.072840184
167	0xbd524a09	-0.051340137
168	0xbc57261f	-0.013131647
169	0x3c6726b3	0.014108348
170	0xbd3cf121	-0.046128396
171	0x3d383fe4	0.044982806
172	0xbd4c0eb5	-0.049818713
173	0xbd40137b	-0.046893578
174	0xbc29eabc	-0.010370906
175	0xbb1f19fb	-0.002427696
176	0x3d3b3178	0.045701474
177	0xbcc844c6	-0.024446856
178	0xbd80409a	-0.06262322
179	0xbd42203c	-0.047394022
180	0xbd26c3bf	-0.04071402
181	0x3d620e7e	0.055189602
182	0xbd08a0d9	-0.03335652
183	0xbd4001fc	-0.046876892
184	0xbc138554	-0.009003956
185	0x3d2ae3a4	0.041721
186	0x3cf3dcf5	0.029768446
187	0x3d8fe097	0.07025259
188	0x3d0a50ed	0.033768583
189	0xbd1d7588	-0.038442165
190	0x3df5919b	0.11990663
191	0x3dd3a971	0.10335053
192	0x3dc3cf6a	0.095610455
193	0xbc809c3b	-0.015699496
194	0x3cc3edc0	0.023917079
195	0xbc52e02d	-0.0128708305
196	0x3cb69851	0.022289427
197	0xbd00319a	-0.031297304
198	0x3c9875ba	0.018610824
199	0xbc866181	-0.016403915
200	0x3c4bbc2c	0.012435
201	0xbd26f13e	-0.04075741
202	0xbdb5884c	-0.08863887
203	0xbd938f24	-0.07205036
204	0x3ba7c521	0.005119935
205	0x3d6b53fb	0.057453137
206	0xbd72893d	-0.059212912
207	0xbcac466d	-0.021029675
208	0xbcea2405	-0.028581629
209	0x3ca77890	0.02044323
210	0x3e0a6917	0.13516651
211	0x3d0c3151	0.03422672
212	0x3d8de09d	0.06927607
213	0xbbf72b73	-0.0075430213
214	0x3d74988a	0.059715785
215	0x3d2962d3	0.04135401
216	0x3dced6f0	0.1009959
217	0x3d83f8c1	0.064439304
218	0x3c5ecfb2	0.013599323
219	0x3d9352ac	0.07193503
220	0x3e0904f4	0.13380796
221	0x3dd9bcce	0.10631715
222	0x3dde2f1b	0.108488284
223	0x3d4ee0d7	0.050507393
224	0x3da7b282	0.081883445
225	0xbdce2a6d	-0.10066686
226	0xbdfb7e11	-0.12279905
227	0xbcfdad1f	-0.03096634
228	0x3df9dbbd	0.12200115
229	0x3e10e802	0.14151004
230	0xbdbfaefc	-0.093595475
231	0xbd148b23	-0.036265504
232	0xbbefb6c3	-0.007315488
233	0x3d91430d	0.07092867
234	0x3df90dcb	0.12160834
235	0xbdd04c7b	-0.101708375
236	0xbc99177d	-0.018687958
237	0xbd4a08d6	-0.049324833
238	0xbcf3a94e	-0.029743817
239	0x3ba402e6	0.0050052283
240	0xbdee8b27	-0.11647635
241	0xbaead535	-0.0017916324
242	0xbd650335	-0.05591126
243	0xbbeeacf2	-0.0072838003
244	0xbc9b901a	-0.018989611
245	0xbe1b3dc0	-0.15160275
246	0xbd8948b9	-0.06703324
247	0xbcc4e169	-0.024033265
248	0x3b0a7112	0.0021124524
249	0x3cc96c15	0.02458767
250	0x3e48c417	0.19606052
251	0x3e64c2da	0.22339955
252	0x3e0c934f	0.13728069
253	0x3cc51837	0.024059398
254	0xbe0f9104	-0.14020163
255	0x3da87aef	0.08226573

features.fc1.bias f4 [120]
0	0xbe281e75	-0.16417868
1	0xbdd06638	-0.10175747
2	0xbddc2c4e	-0.10750638
3	0xbdcd4edf	-0.10024809
4	0x3d32cbfa	0.04365156
5	0x3ce4ce3c	0.027930371
6	0xbd6a572a	-0.057212032
7	0xbd615def	-0.055021223
8	0x3e3bef53	0.18353014
9	0x3b5c1895	0.0033583988
10	0x3d721a0d	0.059106875
11	0x3bae40bb	0.005317775
12	0xbede1231	-0.43373254
13	0xbd055b2e	-0.03255766
14	0xbe066960	-0.13126135
15	0xbe1b72b7	-0.15180479
16	0xbd1e3e5a	-0.03863368
17	0xbd265745	-0.04061057
18	0xbdc40af9	-0.09572405
19	0x3e2fa5e4	0.17153126
20	0x3daf0db1	0.08547533
21	0x3c7a699b	0.015283967
22	0xbd85b138	-0.065279424
23	0x3e932db3	0.28745803
24	0x3bad287b	0.0052843667
25	0x3ea2a686	0.31767672
26	0x3e0107b2	0.12600592
27	0xbc844097	-0.01614408
28	0x3e235f1e	0.15954253
29	0x3d9100b3	0.070802115
30	0x3d0ef314	0.034899786
31	0x3e117a1f	0.14206742
32	0x3d1d8419	0.038456056
33	0xbc080112	-0.008301036
34	0xbc544a06	-0.012957102
35	0x3d64dbc9	0.055873666
36	0x3d185a92	0.03719575
37	0xbca54ef4	-0.02017925
38	0x3c75af37	0.014995388
39	0x3e682478	0.22670162
40	0x3d9a1143	0.07522824
41	0x3e418555	0.18898518
42	0x3ded4b4d	0.11586628
43	0x3d9af988	0.075671256
44	0xbcdae693	-0.026721274
45	0x3d319160	0.04335153
46	0xbe1bf2e8	-0.1522938
47	0x3dcbe1a4	0.09955147
48	0x3d2683c5	0.04065301
49	0x3d3dc639	0.046331618
50	0xbbb4d8aa	-0.0055189924
51	0xbd92aac6	-0.07161479
52	0x3e40252a	0.18764177
53	0x3daac15f	0.08337664
54	0xbe0ef79f	-0.13961647
55	0x3d36bd89	0.04461435
56	0xbd3ba7d1	-0.04581434
57	0x3e3e7759	0.18600215
58	0xbcfb403f	-0.030670283
59	0x3c750f7d	0.014957306
60	0xbdd1cf0b	-0.102445684
61	0x3e569924	0.20956856
62	0x3e16dd2a	0.14732805
63	0xbe06bdae	-0.13158295
64	0x3d909c5e	0.07061075
65	0x3c84a6e7	0.016192866
66	0x3c986933	0.01860485
67	0x3e39709e	0.18109366
68	0xbdb457f9	-0.08805842
69	0xbe83c8bd	-0.2573909
70	0x3b287791	0.0025706033
71	0x3e0ecd60	0.13945532
72	0xbabf11a4	-0.0014577401
73	0x3dc2972d	0.09501491
74	0xbdeb1091	-0.11477769
75	0x3d31679f	0.04331171
76	0xbdc8068a	-0.09766872
77	0x3decb868	0.1155861
78	0xbe6ffc6d	-0.23436137
79	0xbdd8f11d	-0.10592864
80	0xbdeba9b2	-0.11506976
81	0xbc45772d	-0.0120523395
82	0xbd8d59fa	-0.06901927
83	0x3dde29c9	0.10847814
84	0xbe22a2a8	-0.15882361
85	0x3d96761c	0.07346746
86	0xbc873ec6	-0.016509425
87	0xbb8ae12a	-0.0042382674
88	0xbdcf146f	-0.10111319
89	0x3c304a04	0.010759834
90	0x3d76955b	0.06020103
91	0xbcd2cbc6	-0.025731932
92	0x3e7bcbea	0.24589506
93	0xbd5cd3bc	-0.053912863
94	0x3d290deb	0.04127304
95	0x3d531aef	0.051539358
96	0xbdd5832a	-0.10425408
97	0xbe3ea88a	-0.1861898
98	0x3db08a73	0.08620157
99	0x3c8aa729	0.016925411
100	0xbd3a0a4b	-0.045419972
101	0x3d811ee7	0.06304722
102	0xbda43055	-0.08017031
103	0xbd028722	-0.031867154
104	0x3e3ab279	0.18232144
105	0x3c09fc88	0.008422025
106	0xbde19d81	-0.110163696
107	0x3e0984ed	0.13429613
108	0x3d59b5cd	0.053151894
109	0xbdde3df9	-0.10851664
110	0xbd63b58a	-0.05559305
111	0x3d125339	0.0357239
112	0x3d6cd071	0.057815973
113	0xbd059422	-0.032611974
114	0xbe3677ff	-0.17819212
115	0xbd16723a	-0.03673003
116	0x3ddd4121	0.10803438
117	0x3d9184ac	0.07105383
118	0xbda00fd0	-0.07815516
119	0x3e1ac36f	0.15113614

features.fc2.weight f4 [84, 120]
0	0xbd8ab176	-0.06772129
1	0x3d798e00	0.060926437
2	0x3b90a65e	0.0044143638
3	0xbc8556e7	-0.01627679
4	0xbd9b9bf1	-0.07598103
5	0x3cf2ad30	0.029623598
6	0xbe0f76e8	-0.14010203
7	0xbd3417b4	-0.043967918
8	0x3e527c35	0.20555194
9	0xbcb53237	-0.02211867
10	0xbc83b015	-0.016075173
11	0x3e0c29b3	0.13687782
12	0x3d8e2800	0.06941223
13	0xbd79a750	-0.060950577
14	0x3d158c1f	0.036510583
15	0x3bd6b637	0.0065524834
16	0x3beb8151	0.0071870466
17	0x3b6625d8	0.0035117771
18	0xbdea3644	-0.114361316
19	0xbc3ed3c9	-0.011647173
20	0xbdc54917	-0.096330814
21	0x3db041b5	0.086062826
22	0xbcf078cd	-0.029354477
23	0x3d1fd109	0.03901771
24	0xbd37e118	-0.0448924
25	0x3d646b79	0.055766556
26	0x3de38e86	0.111111686
27	0x3d80a268	0.062809765
28	0xbdca8304	-0.098882705
29	0xbd942a5e	-0.072346434
30	0xbd5eeb37	-0.054423537
31	0x3db1174f	0.08647024
32	0xbdc97091	-0.098359235
33	0x3d8bdcc0	0.06829214
34	0x3d64b3bb	0.055835467
35	0xbdd0b017	-0.101898365
36	0xbd842899	-0.06453056
37	0xbddb507a	-0.10708709
38	0x3d27fc3d	0.041012038
39	0x3d5285aa	0.051397003
40	0x3d0b2de9	0.03397933
41	0x3d95698c	0.07295522
42	0xbc0c52f1	-0.008564697
43	0xbdb94a3a	-0.09047361
44	0xbe079d70	-0.13243651
45	0x3d4c5ceb	0.0498933
46	0x3d85e303	0.0653744
47	0xbe0ee39a	-0.1395401
48	0x3dd2532a	0.102697685
49	0x3d9f3d76	0.077753946
50	0xbd96f23a	-0.0737042
51	0xbde361de	-0.11102651
52	0xbc5308cd	-0.012880516
53	0xbc6b8c5d	-0.014376727
54	0xbc858c98	-0.016302392
55	0x3d05bef9	0.03265283
56	0x3d6804d7	0.05664524
57	0xbd78d3f2	-0.060749
58	0x3befe4c7	0.0073209736
59	0xbd18309d	-0.037155736
60	0xbcf3e8d3	-0.029774105
61	0xbd971444	-0.07376912
62	0xbe57e07e	-0.2108173
63	0x3c3ef678	0.011655442
64	0x3d1332c8	0.0359371
65	0xbda47b8a	-0.08031376
66	0x3bd5be73	0.0065229475
67	0xbd007072	-0.031357236
68	0xbd7dd64d	-0.06197195
69	0xbcfa0a4d	-0.03052249
70	0x3b50e7ad	0.003187637
71	0x3d52b265	0.05143966
72	0x3d5ae59f	0.05344164
73	0x3dae2a8a	0.085042074
74	0x3d62ee00	0.055402756
75	0xbdfe69cc	-0.12422523
76	0x3c58306a	0.013195137
77	0xbcaf1727	-0.021373345
78	0x3ca96a5c	0.020680599
79	0xbbf17d07	-0.0073696407
80	0xbd3a7efb	-0.045531254
81	0x3da2b24a	0.07944162
82	0xbd416e2a	-0.0472242
83	0xbc908ca9	-0.017645197
84	0x3d7d1d08	0.061795264
85	0x3d8b2235	0.06793634
86	0x3c0fbf28	0.008773603
87	0xbd9bedba	-0.07613702
88	0x3d1596b1	0.036520664
89	0x3c586b0d	0.013209117
90	0xbe007cd0	-0.12547612
91	0xbdaf1104	-0.08548167
92	0x3a0fb9b0	0.00054826867
93	0x3cdac1d2	0.026703749
94	0xbde3a365	-0.111151494
95	0xbd957ea2	-0.07299544
96	0xbd1c662f	-0.038183387
97	0x3daea58a	0.08527668
98	0xbd940887	-0.07228189
99	0x3cad1439	0.021127807
100	0xbda7aea8	-0.0818761
101	0x3ce56c2e	0.028005686
102	0xbc9ab545	-0.018885264
103	0x3d0eaab5	0.034830768
104	0xbc1dd135	-0.009632398
105	0xbda0ed2f	-0.07857739
106	0xbd65cfc0	-0.05610633
107	0x3e210c9e	0.1572747
108	0x3cb8ce81	0.022559406
109	0x3d213570	0.039357603
110	0x3d53ddb9	0.051725123
111	0x3ce5ab51	0.028035792
112	0xbd631116	-0.055436216
113	0xbddce26d	-0.10785375
114	0x3daf5426	0.08560972
115	0x3bbbe2d2	0.005733826
116	0x3da02d13	0.07821097
117	0xbd7c906e	-0.061661176
118	0xbdf855ac	-0.121257156
119	0xbd4ff5f6	-0.050771676
120	0xbdd4db41	-0.10393382
121	0xbdd5d43f	-0.10440873
122	0x3a9e63ad	0.0012084149
123	0x3e15d948	0.14633667
124	0x3d960070	0.07324302
125	0xbc809d72	-0.015700076
126	0xbe040a96	-0.12894663
127	0xbca31d15	-0.019911328
128	0x3daf6fb3	0.08566227
129	0xbcd6e814	-0.02623371
130	0xbe29f77b	-0.16598313
131	0x3d887022	0.06662013
132	0xbd9aa0fc	-0.075502366
133	0x3cc38ec5	0.023871789
134	0x3ba0bf39	0.004905608
135	0xbd054903	-0.032540333
136	0xbd807a6d	-0.06273351
137	0xbd74f429	-0.05980316
138	0x3d3a8391	0.045535628
139	0xbd440ff9	-0.047866795
140	0xbc4c14f2	-0.012456166
141	0x3da91aa7	0.08257037
142	0xbcc61c7d	-0.024183506
143	0xbdb93a56	-0.0904433
144	0xbd27b54c	-0.040944383
145	0x3ca3ec9b	0.020010283
146	0xbc6082b4	-0.013703037
147	0xbc0ae19d	-0.008476642
148	0xbde7028b	-0.11279782
149	0x3d2fe28c	0.04294066
150	0x3d2ed187	0.04268029
151	0xbda6da56	-0.08147113
152	0xbcc9e443	-0.024644976
153	0xbcbd977b	-0.02314352
154	0x3dc9bd2f	0.09850537
155	0x3e0328ba	0.12808505
156	0xbd1e31f5	-0.03862186
157	0xbe005b18	-0.1253475
158	0xbd921d39	-0.0713448
159	0x3c9246ee	0.017856088
160	0x3cdd7dd8	0.027037546
161	0xbcb4dab6	-0.022076946
162	0x3e298d5c	0.1655783
163	0xbd9ab95d	-0.075548865
164	0xbe04da77	-0.12973963
165	0x3db27695	0.08714024
166	0x3e0dad41	0.13835622
167	0x3e049771	0.12948395
168	0xbc0743af	-0.008255883
169	0x3d641093	0.05567987
170	0xbb473ff5	-0.0030403112
171	0xbab7154e	-0.0013968141
172	0xbdb02c66	-0.08602218
173	0x3aa92a5b	0.00129063
174	0xbb47d561	-0.0030492174
175	0x3c9f5fe5	0.019454906
176	0x3db5be22	0.088741556
177	0x3d171148	0.036881715
178	0xbdda3d86	-0.10656266
179	0xbd8855c7	-0.06656986
180	0xbe0ef03b	-0.13958828
181	0x3d56a474	0.05240293
182	0x3d590f04	0.052992836
183	0xbd0ffe7c	-0.035154805
184	0xbbc358fb	-0.005961535
185	0x3c7b138d	0.0153244855
186	0x3d9f9a6e	0.07793127
187	0xbc9f2ec8	-0.019431487
188	0xbe12a8aa	-0.14322153
189	0x3de2d3ff	0.11075591
190	0x3cc88163	0.024475759
191	0xbdf59c5e	-0.11992715
192	0xbcb0f055	-0.021598974
193	0xbe0adc04	-0.13560492
194	0xbc36cfc9	-0.011157938
195	0xbcc9387e	-0.02456307
196	0x3d111813	0.03542335
197	0x3cc0fd47	0.023558272
198	0x3d9abb20	0.075552225
199	0xbd4aa968	-0.049477965
200	0x3d45b227	0.048265602
201	0x3dbf8717	0.09351938
202	0x3dcef693	0.10105624
203	0xbe091235	-0.13385852
204	0x3d7038cd	0.05864792
205	0xbd7251f8	-0.059160203
206	0x3c93281f	0.017963467
207	0xbc80b632	-0.015711877
208	0x3d88a6bc	0.06672427
209	0xbe45e333	-0.19324951
210	0xbd893d0e	-0.067010984
211	0xbb92bd6a	-0.0044781463
212	0xbcd63ac5	-0.02615107
213	0xb90e1f83	-0.00013553914
214	0xbd8f5613	-0.06998839
215	0xbd8eb7bd	-0.06968639
216	0xbaeac073	-0.0017910138
217	0x3d82aa40	0.06380129
218	0x3c6f4d93	0.0146058975
219	0x3d885648	0.06657082
220	0xbd3be592	-0.045873232
221	0xbcbadcc8	-0.022810355
222	0xbdb17251	-0.08664382
223	0x3db9d499	0.09073753
224	0xbde12fd8	-0.109954536
225	0x3db0e9b3	0.086383246
226	0xbe00b1ee	-0.12567875
227	0xbddcfad8	-0.10790032
228	0xbe1952fc	-0.14973062
229	0xbd101380	-0.035174847
230	0xbd779c39	-0.06045172
231	0xbe0a07d7	-0.13479553
232	0xbdc91506	-0.09818463
233	0x3d48c55b	0.049016338
234	0x3cda964a	0.026682992
235	0xb952b83e	-0.00020095796
236	0xbc454a3f	-0.012041627
237	0xbd11bb94	-0.03557928
238	0x3dae298b	0.085040174
239	0x3d1ad7d9	0.037803505
240	0x3ddb8a4b	0.10719737
241	0x3db345fb	0.08753582
242	0xbb8fd73b	-0.004389671
243	0xbd0c1b21	-0.03420556
244	0xbe06cd0a	-0.13164154
245	0x3d501330	0.05079955
246	0xbd93c7f0	-0.072158694
247	0xbd8b1fa7	-0.067931466
248	0xbdb5327f	-0.08847522
249	0xbe05935b	-0.13044493
250	0x3d6410fe	0.055680268
251	0xbba1fc9f	-0.004943445
252	0x3d01d179	0.03169391
253	0xbdf4509c	-0.119294375
254	0xbe18a6f1	-0.14907433
255	0xbdb33235	-0.087498106

features.fc2.bias f4 [84]
0	0x3ef9570e	0.4869923
1	0x3d0658dd	0.03279959
2	0x3e88e4ed	0.26737157
3	0x3e836054	0.2565943
4	0x3ea8d6c4	0.32976353
5	0xbd3229d6	-0.04349693
6	0x3d574e57	0.052564945
7	0x3d0640de	0.032776706
8	0xbe322a5b	-0.1739897
9	0x3cc1000b	0.02355959
10	0x3e9414f2	0.2892223
11	0xbe0bdf30	-0.13659358
12	0x3c0975b1	0.008389876
13	0x3ea32669	0.31865242
14	0xbcd4b1c0	-0.025963664
15	0xbef8adae	-0.48570007
16	0xbe195e4c	-0.14977378
17	0xbe3ab6e8	-0.18233836
18	0x3f35002b	0.7070338
19	0x3edfa044	0.4367696
20	0xbd705ea4	-0.058684006
21	0x3ec12797	0.37725517
22	0xbe4d71ab	-0.20062892
23	0x3c29f0f8	0.010372393
24	0x3e125872	0.14291552
25	0xbe34efa1	-0.17669536
26	0x3e839255	0.2569758
27	0x3e65b784	0.22433287
28	0x3e8858e7	0.26630327
29	0x3eb74b49	0.35799626
30	0x3dc7395e	0.09727739
31	0xbd0a8902	-0.033822067
32	0x3e3422f0	0.17591453
33	0xbe21fbae	-0.15818664
34	0xbdbf20d4	-0.09332433
35	0xbdc35f01	-0.09539605
36	0xbea03187	-0.31287786
37	0x3d9182ea	0.07105048
38	0x3c4e6054	0.012596209
39	0x3e9ef345	0.31044975
40	0xbee67e2b	-0.45018134
41	0xbead5055	-0.3385035
42	0xbd9f37ec	-0.07774338
43	0x3f004973	0.50112075
44	0x3b0c81be	0.0021439637
45	0x3e2d4362	0.16920236
46	0x3e75c542	0.24001029
47	0x3e346ec8	0.17620385
48	0xbda7fb48	-0.08202225
49	0x3d38a906	0.04508307
50	0xbe40a817	-0.18814121
51	0xbca2aab1	-0.019856783
52	0xbe9eba08	-0.31001306
53	0x3cb575f5	0.022150973
54	0x3e2f596b	0.17123954
55	0x3e4a8bb0	0.19779849
56	0x3f178f71	0.5920325
57	0x3e92480a	0.28570586
58	0x3dcd27f4	0.10017386
59	0xbd0653ea	-0.03279487
60	0x3ee63132	0.44959408
61	0x3e985863	0.29754934
62	0x3ecca11b	0.39966664
63	0xbe1131e2	-0.14179185
64	0xbceca086	-0.028885137
65	0x3e88d5e6	0.26725692
66	0x3ef28d36	0.4737336
67	0x3e888ee7	0.26671526
68	0xbe7b7e78	-0.24559963
69	0xbe17d32e	-0.14826652
70	0xbe15e531	-0.14638211
71	0x3effbf55	0.49950662
72	0x3eac1bad	0.33614865
73	0x3b30fa0b	0.0027004506
74	0x3e0fe7fa	0.14053336
75	0xbde7245c	-0.11286232
76	0x3df32177	0.11871617
77	0x3d522d0e	0.0513125
78	0x3d263e9d	0.040587056
79	0x3e891890	0.26776552
80	0xbccc2c46	-0.024923455
81	0xbdf41e5f	-0.11919855
82	0xbe8b673a	-0.27227193
83	0xbebc3dd4	-0.3676592

l1.weight f4 [84, 84]
0	0xbdb61bea	-0.08892043
1	0xbd858eb9	-0.06521363
2	0xbe0444b5	-0.12916835
3	0x3dd9c8a9	0.10633976
4	0x3e020acf	0.12699436
5	0xbc54c266	-0.012985801
6	0xbde1c3b6	-0.11023657
7	0xbd4e4e61	-0.050367717
8	0xbe096091	-0.13415743
9	0xbdbb307a	-0.091401055
10	0xbc8956ec	-0.01676508
11	0xbe211501	-0.15730669
12	0x3d21b56a	0.03947965
13	0x3b3af873	0.0028529435
14	0xbcd3861e	-0.025820788
15	0xbe0c710b	-0.13714997
16	0x3d61b2bb	0.05510209
17	0xbd04fe52	-0.0324691
18	0x3d834485	0.064095534
19	0xbcc21ecc	-0.023696326
20	0xbbabaf4a	-0.005239402
21	0x3da9ff63	0.08300664
22	0xbda2db69	-0.079520054
23	0x3d4393cb	0.04774837
24	0x3cbc6770	0.022998542
25	0x3dc25680	0.09489155
26	0xbd27f510	-0.041005194
27	0xbd4de9e1	-0.050271872
28	0xbde2ef4a	-0.11080797
29	0xbd3f8deb	-0.046766203
30	0xbbd7e299	-0.006588292
31	0x3dc6cf1d	0.097074725
32	0x3c694c05	0.014239316
33	0xbbc4d257	-0.00600652
34	0x3d467841	0.048454527
35	0xbdbbc9a1	-0.09169317
36	0xbdbb3942	-0.091417804
37	0xbe271703	-0.16317372
38	0xbdafb317	-0.085790806
39	0x3cf25e5b	0.029586008
40	0x3d05c1ab	0.0326554
41	0xbd976cb2	-0.07393779
42	0xbda804c3	-0.08204033
43	0x3e09f6e8	0.13473094
44	0x3d495740	0.049155474
45	0xbc9e04c8	-0.01928939
46	0x3d60b6fe	0.054862015
47	0xbc890aba	-0.016728748
48	0x3c1049f2	0.008806692
49	0x3d7837dc	0.060600147
50	0xbe1427cb	-0.14468305
51	0x3ce559f3	0.027996993
52	0x3dc3b8e2	0.09556748
53	0x3dac81e7	0.084232144
54	0xbdebfb7e	-0.11522578
55	0xbe300d9a	-0.17192689
56	0xbdfcd12d	-0.123445846
57	0xbe14bb11	-0.14524485
58	0xbdc530f5	-0.096284784
59	0x3c9dcd04	0.019262798
60	0xbd45fcfc	-0.048336968
61	0x3d8209e0	0.0634954
62	0x3d8d6d3e	0.06905602
63	0xbdb8c2e6	-0.09021549
64	0x3d160996	0.036630236
65	0xbda24e12	-0.07925047
66	0xbe3bbb47	-0.1833316
67	0x3ded26ec	0.115796894
68	0x3dda911f	0.10672211
69	0xbdd246a8	-0.10267383
70	0x3da1b890	0.07896531
71	0x3dd06537	0.10175555
72	0x3c7d10d0	0.015445903
73	0xbdac543b	-0.08414503
74	0x3ce39bb3	0.027784204
75	0x3dada704	0.08479121
76	0x3d3080c6	0.043091558
77	0xbc8161a4	-0.015793629
78	0x3dd2eec4	0.10299447
79	0xba979337	-0.0011564259
80	0xbdfe4d7b	-0.12417122
81	0x3d8a0b6b	0.06740459
82	0xbc4d774b	-0.012540649
83	0xbdc5c714	-0.09657112
84	0xbbbb7cc5	-0.005721661
85	0x3d8e1ea5	0.06939439
86	0x3ba455dd	0.0050151185
87	0xbd734c67	-0.059399035
88	0x3d6f4167	0.058411982
89	0x39769d0f	0.00023518897
90	0xbd27df3c	-0.040984377
91	0x3d99c268	0.07507783
92	0xbd072dd0	-0.033002675
93	0xbdae8dc6	-0.08523135
94	0x3d20f928	0.039300114
95	0x3d7c7e92	0.061644144
96	0xbdbe1833	-0.092819594
97	0xbdbc2e0f	-0.091884725
98	0xbb9a68ad	-0.0047121854
99	0xbca94da8	-0.020666912
100	0xbdb9aa63	-0.09065702
101	0xbddfc10d	-0.109254934
102	0xbd60df27	-0.054900315
103	0x3ceafc10	0.028684646
104	0xbcb09abf	-0.021558164
105	0xbc8e6271	-0.017380925
106	0xbd7a4329	-0.061099205
107	0xbca8d949	-0.020611422
108	0x3c3a929e	0.011387495
109	0x3aac808f	0.0013160872
110	0xbded4628	-0.11585647
111	0xbdfb3924	-0.12266758
112	0x3d679ace	0.056544118
113	0x3dad4904	0.08461192
114	0xbc04c94e	-0.008104635
115	0x3db58ec2	0.088651195
116	0xbdf66840	-0.12031603
117	0xbd6efdc6	-0.058347486
118	0xbd72d200	-0.059282303
119	0xbe029245	-0.1275111
120	0xbd5255dc	-0.051351413
121	0xbe059927	-0.13046704
122	0x3d244655	0.040106136
123	0x3dcfab28	0.10140067
124	0xbc49058b	-0.012269388
125	0xbd51f483	-0.051258575
126	0x3d717306	0.058947586
127	0x3de0e700	0.1098156
128	0x3d70d1d6	0.058793865
129	0xbc8ad2d8	-0.016946241
130	0xbd31cf94	-0.043410853
131	0xbd29b7fe	-0.041435234
132	0x3d95aa8f	0.07307922
133	0xbdd2f959	-0.103014655
134	0xbd0b7936	-0.034051143
135	0x3d80a2fb	0.06281086
136	0xba403b1e	-0.0007333028
137	0x3d9366f3	0.071973704
138	0x3bf3bc70	0.007438235
139	0x3d470e4d	0.048597623
140	0xbdfe692c	-0.12422404
141	0xbe02cd37	-0.12773596
142	0x3d71e816	0.059059225
143	0xbcd386b3	-0.025821066
144	0x3d89d859	0.06730718
145	0x3df8c4cf	0.12146913
146	0xbd8a87a9	-0.06764156
147	0xbd85f3d5	-0.06540648
148	0x3c613706	0.013746029
149	0xbdd906a9	-0.105969734
150	0xbd9ae5a5	-0.075633325
151	0x3d21bbaf	0.03948563
152	0xbd014ff3	-0.031570386
153	0xbd98e37d	-0.07465265
154	0x3d065013	0.03279121
155	0xbdb7bafb	-0.089712106
156	0x3d599256	0.053118072
157	0xbd964584	-0.07337478
158	0xbc950081	-0.018188717
159	0x3cd14e6a	0.025550086
160	0xbdcceceb	-0.10006126
161	0xbd5df271	-0.05418629
162	0xbc0e2b18	-0.008677267
163	0xbdd4a116	-0.10382287
164	0xbd992b47	-0.074789576
165	0xbd483af5	-0.04888435
166	0xbdcfa3d8	-0.101386726
167	0xbce29058	-0.02765672
168	0x3e162d58	0.14665735
169	0x3c30fb89	0.010802158
170	0xbdcccbf8	-0.099998415
171	0xbc87fe71	-0.01660082
172	0x3ce67848	0.028133526
173	0x3d6550a8	0.055985123
174	0xbcda7827	-0.026668621
175	0xbd8c9caa	-0.06865819
176	0xbe003748	-0.12521088
177	0xbaa5e324	-0.0012656194
178	0xbb4a6943	-0.0030885495
179	0xba8de319	-0.0010825127
180	0xbd649406	-0.05580523
181	0x3df9bf52	0.121946946
182	0xba8ea846	-0.001088389
183	0xbd2fcbd6	-0.042919002
184	0xbccdd7a2	-0.025127236
185	0x3d1c2d85	0.03812935
186	0xbdb03bc8	-0.08605152
187	0x3e013958	0.12619531
188	0xbd1564e4	-0.03647317
189	0x3d243670	0.04009098
190	0xbcaad153	-0.020851767
191	0xbdfffdc6	-0.12499575
192	0xbdefc6d7	-0.117078476
193	0xbd06f23c	-0.032945856
194	0xbcbf99db	-0.023388794
195	0xbdf0375e	-0.117293105
196	0xbde5f431	-0.112282164
197	0x3b614f59	0.003437957
198	0xbd56eeb1	-0.052473728
199	0x3db2e10b	0.0873433
200	0xbb08f69d	-0.0020898946
201	0xbd1055d3	-0.0352381
202	0xbdd96b31	-0.10616148
203	0xbd513108	-0.05107215
204	0xbb9f43e2	-0.004860387
205	0x3d1a2aee	0.037638597
206	0xbde3d452	-0.11124481
207	0xbe355338	-0.17707527
208	0xbd0c9e9d	-0.034330953
209	0xbc05c1b3	-0.008163857
210	0xbcfccac8	-0.030858412
211	0x3d7bdaad	0.061487842
212	0x3d481f60	0.048858047
213	0x3e334090	0.17505097
214	0x3daf2a9b	0.08553048
215	0xbe0f5c57	-0.14000069
216	0xbcc1e038	-0.023666486
217	0xbd8a6a9d	-0.06758616
218	0xbe3a5b57	-0.18198906
219	0xbdaa8512	-0.083261624
220	0x3dc25685	0.094891585
221	0xbd360fb1	-0.04444856
222	0x3d4017eb	0.04689781
223	0x3ccd804d	0.025085593
224	0x3df61b8e	0.120169744
225	0xbd94f0d8	-0.072725
226	0xbdbb516f	-0.091463916
227	0xbcb3ab15	-0.021932164
228	0xbd09546a	-0.03352777
229	0x3de841c5	0.113406695
230	0x3cb78993	0.022404468
231	0xbd05835c	-0.032595977
232	0x3de53915	0.11192528
233	0xbd043f25	-0.03228678
234	0x3d5c79af	0.053826984
235	0x3dfa6e76	0.122281
236	0xbd8b4885	-0.068009414
237	0x3d896657	0.06708973
238	0xbc893f28	-0.016753748
239	0x3c9f8c47	0.01947607
240	0x3c5b4b61	0.013384671
241	0xbaa0fa92	-0.0012281707
242	0xbd1b1d89	-0.037869964
243	0xbd40813c	-0.046998248
244	0xbd923c62	-0.07140423
245	0x3c5844f5	0.013200034
246	0x3dd9ad09	0.10628707
247	0x3d967238	0.07346004
248	0x3d4cfb72	0.050044484
249	0x3d64b407	0.05583575
250	0xbcab6046	-0.02091993
251	0x3b2947b7	0.00258301
252	0x3e082d96	0.1329864
253	0x3d6893b1	0.056781475
254	0xbc427e6e	-0.0118709635
255	0x3d9adf26	0.075620934

l1.bias f4 [84]
0	0x3d776e32	0.060407825
1	0xb8b329d2	-8.543175e-05
2	0x3f46e4ae	0.7769269
3	0xbbcc2fc6	-0.006231281
4	0x3e189026	0.14898738
5	0x3e4d2ec1	0.20037366
6	0x3ed00c84	0.4063455
7	0x3e1ee715	0.15517838
8	0x3fb3a0d5	1.4033457
9	0x3e747344	0.23872095
10	0x3e80f1b8	0.25184417
11	0x3f26312f	0.649188
12	0x3eac7ae8	0.3368752
13	0x3b52131d	0.003205485
14	0x3f1acbff	0.60467523
15	0x3dd211fb	0.10257336
16	0x3f0a45ec	0.5401294
17	0xbc1f3a28	-0.009718455
18	0x3f34f91d	0.70692617
19	0x3de659aa	0.11247571
20	0x3e8e5482	0.2779885
21	0x3d579f7e	0.052642338
22	0x3e875173	0.26429328
23	0x3ec73609	0.38908413
24	0x3dc2e91d	0.09517119
25	0x3f16600d	0.5874031
26	0x3f3b045d	0.7305353
27	0xbdd4c5f6	-0.103893206
28	0x3f272564	0.6529143
29	0xbb5ad839	-0.003339304
30	0x3dd11c37	0.1021046
31	0x3e6bf355	0.23042043
32	0x3f1bf25e	0.609167
33	0x3f616839	0.88049656
34	0x3ec6099b	0.38679203
35	0x3f83d80b	1.0300306
36	0x3e28fd6d	0.16502924
37	0x3d5ec744	0.054389253
38	0x3e040cdc	0.1289553
39	0x3e87a21c	0.26490867
40	0x3e6ca58b	0.23110025
41	0xbd319f68	-0.043364912
42	0x3e63df1d	0.2225308
43	0xbd20cd32	-0.03925819
44	0x3bfdd51f	0.0077463533
45	0x3f19ae9c	0.6003206
46	0x3d0b161a	0.033956625
47	0xbceedd9e	-0.02915841
48	0x3f56093a	0.8360783
49	0x3edd4c72	0.43222386
50	0x3e88e41b	0.2673653
51	0x3e9ef463	0.31045827
52	0x3e8ef9b0	0.2792487
53	0xbd968ef7	-0.07351487
54	0x3f33c9a2	0.7022954
55	0x3db6e230	0.089298606
56	0x3f2af485	0.6677936
57	0x3e57b669	0.21065678
58	0x3f2479ce	0.6424836
59	0xbc78fa37	-0.015196375
60	0x3df01068	0.11721879
61	0x3ef9e1b0	0.48804998
62	0x3ebee50c	0.37284124
63	0xbdba4d4f	-0.09096777
64	0x3d9e166c	0.077191204
65	0xbd14d8c8	-0.03633955
66	0xbd1b1730	-0.03786391
67	0x3e3442f1	0.17603661
68	0x3f3aae55	0.7292226
69	0x3e001aaa	0.12510172
70	0x3f4e594f	0.80605024
71	0x3f4fbda0	0.8114872
72	0x3c733e0f	0.014846339
73	0x3db7882b	0.08961519
74	0x3e2ae70c	0.166897
75	0x3e616cc8	0.22014153
76	0x3ede9d02	0.43479162
77	0x3f2ad13b	0.6672551
78	0x3f9bbb3d	1.2166516
79	0x3deb6f8f	0.114958875
80	0x3edd2849	0.43194798
81	0x3ea38297	0.3193557
82	0xbdb9b43a	-0.090675786
83	0x3eb8f037	0.3612077

l2.weight f4 [256, 84]
0	0x3d6e998d	0.058251906
1	0x3d8ff0ac	0.070283264
2	0x3dced414	0.100990444
3	0xbd7728bd	-0.060341585
4	0xbd0c3888	-0.0342336
5	0x3d61aa6b	0.055094164
6	0xbcea9ea6	-0.028640103
7	0x3ca7e742	0.020496015
8	0x3c4e3862	0.012586685
9	0x3c01fccf	0.007933809
10	0x3bace663	0.0052764877
11	0x3c4e68f3	0.012598264
12	0xbd947336	-0.07248537
13	0xbd7fd9ce	-0.062463574
14	0x3d6ce76f	0.0578379
15	0x3d920908	0.07130629
16	0xbda70c9b	-0.08156701
17	0xbda20cc7	-0.07912593
18	0x3d80789b	0.06273004
19	0x3da11cde	0.07866834
20	0xbda8a2ac	-0.08234152
21	0xbd9ced46	-0.07662444
22	0xbd66ee23	-0.05637945
23	0xbbf2ab3f	-0.007405668
24	0xbdc3dfc5	-0.09564165
25	0xbdf70302	-0.120611206
26	0xbde6a04d	-0.11261044
27	0x3cac5d32	0.021040533
28	0x3d4a8811	0.04944617
29	0xbd82a92e	-0.06379925
30	0xbdcb9277	-0.09940045
31	0x3d53f63b	0.051748496
32	0xbc89ed8a	-0.0168369
33	0x3cc78050	0.024353176
34	0xbd9f4790	-0.07777321
35	0x3d949f40	0.07256937
36	0x3cb43838	0.021999463
37	0xbc835895	-0.01603345
38	0xbd74e65a	-0.059789993
39	0x3d0932ff	0.0334959
40	0xbd865c66	-0.06560592
41	0xbdd563ea	-0.10419448
42	0x3ce66613	0.028124845
43	0xbd69d99b	-0.05709229
44	0x3d87762c	0.06614336
45	0xbc8d0d70	-0.017218322
46	0x3d418a8e	0.047251277
47	0xbdfabd39	-0.122431226
48	0x3d676848	0.056495935
49	0xbdc7c888	-0.09755045
50	0x3dabd433	0.08390083
51	0x3d5edb43	0.054408323
52	0xbce001d1	-0.027344616
53	0x3db2e182	0.087344185
54	0x3dad050d	0.08448229
55	0x3da905e1	0.082530744
56	0x3decd81f	0.11564659
57	0x3d150c44	0.03638865
58	0xbe098dbc	-0.13432974
59	0xbdae62a8	-0.08514911
60	0xbd6f89f0	-0.058481157
61	0x3d619b52	0.055079766
62	0x3d04bf8a	0.03240923
63	0x3d90ccd7	0.0707032
64	0xbd8733c4	-0.066016704
65	0x3ccd1700	0.025035381
66	0xbd8d82d6	-0.069097206
67	0x3d14dec4	0.03634526
68	0xbdb18990	-0.08668816
69	0x3dbc38a2	0.09190489
70	0x3ca16c47	0.019704951
71	0x3d85affd	0.06527708
72	0x3d6cd73e	0.05782246
73	0x3d507626	0.050893925
74	0xbcb0e967	-0.02159567
75	0x3d62ed53	0.05540211
76	0xbdc4f513	-0.09617057
77	0x3c3fc61a	0.011704946
78	0x3dc96736	0.09834139
79	0xbceb7ba8	-0.028745487
80	0x3d545e9d	0.051848043
81	0x3ca99730	0.020701975
82	0x3aa602ac	0.0012665591
83	0x3ddd495c	0.10805008
84	0x3d0658ac	0.032799408
85	0x3d5fb371	0.054614488
86	0x3da6ffb9	0.08154244
87	0x3cafc298	0.021455094
88	0x3d98242e	0.07428776
89	0xbdb8a247	-0.09015327
90	0x3c4c97f3	0.012487399
91	0x3d822a1c	0.06355688
92	0x3d844c31	0.06459845
93	0x3d620827	0.055183556
94	0x3d3bb250	0.04582435
95	0xbd8d27b1	-0.06892336
96	0xbaf21bda	-0.0018471435
97	0x3c9520a1	0.018204035
98	0x3ce545bf	0.02798736
99	0xbd4b53a1	-0.0496403
100	0x3c6aa37d	0.014321205
101	0x3ce93562	0.028467838
102	0xbd9ed905	-0.07756237
103	0x3d2cc38b	0.04217867
104	0xbcc26ccd	-0.02373352
105	0xbc8a96d7	-0.01691763
106	0xbd836ffc	-0.06417844
107	0x3d50d800	0.050987244
108	0xbd67be18	-0.056577772
109	0xbd98fbbe	-0.07469891
110	0xbd90d61a	-0.07072087
111	0x3d30f03c	0.043197855
112	0x3d05a848	0.03263119
113	0xbcd3d863	-0.025860017
114	0xbdbf1339	-0.09329838
115	0xbb64cf2c	-0.0034913523
116	0x3d957a8a	0.07298763
117	0xbd8c51f5	-0.068515696
118	0x3d4ad453	0.049518894
119	0x3dbcf479	0.09226317
120	0xbcf1b750	-0.029506356
121	0x3d441829	0.047874603
122	0x3dc2e102	0.09515573
123	0xbd98d21b	-0.074619494
124	0xbd96a68e	-0.073559865
125	0x3cb300ac	0.021850906
126	0x3d187f0b	0.037230533
127	0x3cd44f0f	0.025916604
128	0x3d917957	0.07103222
129	0x3b994bc4	0.0046782214
130	0x3d362405	0.044467945
131	0xbc97e3e2	-0.01854128
132	0x3d8c1889	0.06840617
133	0x3d006d86	0.03135445
134	0xbd35c5e1	-0.044378165
135	0xbd909e00	-0.07061386
136	0x3d29e6b5	0.041479785
137	0xbdc7e0cc	-0.097596735
138	0x3ca8d3f6	0.020608883
139	0xbdbd8a43	-0.09254887
140	0xbd670f2b	-0.05641095
141	0xbda3a868	-0.07991105
142	0xbd174f44	-0.036940828
143	0xbc8bbc04	-0.017057426
144	0xbd4cf03c	-0.050033793
145	0xbdcecb59	-0.10097379
146	0x3bc7c872	0.006096893
147	0x3d7b502d	0.06135576
148	0xbdc32368	-0.095282376
149	0x3d711236	0.058855258
150	0x3d9b33c6	0.075782344
151	0x3c2afd16	0.010436317
152	0xbdf76c67	-0.12081223
153	0xbdd91019	-0.105987735
154	0xbe08803b	-0.13330166
155	0xba383733	-0.00070272683
156	0x3d467830	0.048454463
157	0x3bd8a91a	0.0066119554
158	0xbca06f9c	-0.01958447
159	0xbd184bd9	-0.03718171
160	0xbd1b8f5f	-0.037978526
161	0x3d4d4bc3	0.05012108
162	0x3da72406	0.08161168
163	0xbd3c4ab7	-0.04596969
164	0xbc364b28	-0.011126317
165	0x3da1eb1b	0.07906171
166	0x3daa9ff8	0.08331293
167	0x3dafca3e	0.085834965
168	0xbd9bc584	-0.076060325
169	0x3d96e396	0.07367627
170	0x3d0c688a	0.034279384
171	0xbdd37aa5	-0.10326127
172	0x3d917faa	0.07104428
173	0xbd38caab	-0.045115154
174	0xbd390427	-0.045169976
175	0x3d83d07c	0.064362496
176	0x3d0cb891	0.034355704
177	0xbd6d1a09	-0.057886157
178	0x3cebbcc0	0.028776526
179	0xbd9e43dd	-0.07727788
180	0xbd39e22e	-0.045381717
181	0x3da419c6	0.080127284
182	0xbc928812	-0.017887149
183	0xbdc0bfba	-0.09411569
184	0x3dc4be2b	0.09606584
185	0x3cbf3e4b	0.023345133
186	0x3b81a607	0.0039565596
187	0x3d3d4168	0.046204954
188	0x3de2cb50	0.11073935
189	0x3d2ce8bb	0.042214137
190	0xbdae9e6b	-0.085263096
191	0xbd0f2fe2	-0.034957774
192	0xbd97d5a0	-0.074137926
193	0x3dc6e472	0.09711541
194	0x3d6e1915	0.05812939
195	0xbd66db7f	-0.05636167
196	0xbd8b5857	-0.06803959
197	0x3cd49e55	0.025954405
198	0x3cdd2d05	0.026999006
199	0xbcdfaffb	-0.027305594
200	0x3d97404f	0.07385313
201	0x3cacb6f7	0.021083338
202	0xbcb4f92d	-0.022091473
203	0x3da69ab9	0.0813498
204	0xbca026b7	-0.01954971
205	0x3d022ce1	0.03178108
206	0xbd9fd93f	-0.07805108
207	0xbcdaed55	-0.026724497
208	0xbc20ded0	-0.009818748
209	0x3cc68cdb	0.024237087
210	0xbd34ef5c	-0.044173583
211	0x3dcc9801	0.0998993
212	0xbdbccc2e	-0.09218632
213	0x3e0cb722	0.13741735
214	0xbd5fbeac	-0.0546252
215	0x3ba0c10d	0.004905826
216	0xbd0463dc	-0.032321796
217	0xbd949971	-0.07255829
218	0xbda9e69d	-0.08295939
219	0xbdb16d7d	-0.08663461
220	0x3d3bbfcf	0.04583722
221	0x3db0c085	0.0863047
222	0x3d93d233	0.07217827
223	0x3d322e05	0.04350092
224	0x3d8c652a	0.06855233
225	0x3dbc95d0	0.09208262
226	0xbbe64721	-0.007027522
227	0xbd60a2ae	-0.054842643
228	0x3d41a563	0.047276866
229	0x3decf162	0.115694776
230	0xbd99e39a	-0.07514115
231	0xbade07b8	-0.0016939556
232	0xbda15e5a	-0.07879324
233	0x3db1a828	0.086746514
234	0xbd1e7d0d	-0.038693476
235	0x3d974647	0.07386451
236	0x3db364d2	0.08759464
237	0xbd2ddb99	-0.042445753
238	0x3de11232	0.109897986
239	0x3d48cd3a	0.049023844
240	0x3d50eacb	0.051005166
241	0xbdb016f6	-0.085981295
242	0xbdac5390	-0.08414376
243	0xbd8ab3d3	-0.0677258
244	0x3d6835a8	0.056691796
245	0xbdec1499	-0.11527366
246	0xbd71a6b2	-0.058996864
247	0x3d1339b3	0.0359437
248	0x3d328a80	0.043589115
249	0x3c9f1672	0.019419882
250	0xbc14ed61	-0.009089799
251	0xbd5bb612	-0.053640433
252	0xbdc616e5	-0.096723355
253	0x3d17ad74	0.037030652
254	0x3ae90b95	0.0017779941
255	0xbdd5fc43	-0.10448506
