models/fedavg/localmodel0experiment_log-2023-09-05-1021-43.pth (torch, 375691 bytes, 14 tensors)

features.conv1.weight f4 [6, 3, 5, 5]
00000000: aba1 9c3e 2cbc 1c3e bcce 663d 18c3 7f3e
00000010: 8a26 133e b444 9f3e 2120 543e a7ff 373e
00000020: 0f38 853e 9cc4 473e 62d6 06bd bb65 2f3e
00000030: ce1a eebd 7fe9 76bc 9ef5 ad3c a2e9 1bbe
00000040: e2cf ebbd 0d03 3fbe a7d7 b13d 434b cbbd
00000050: c6fb 26be 32f0 7a3d 0466 07be 7b47 19bd
00000060: 92fd 3bbe 775c 11bc a20e 92bd a6db 313d
00000070: 3234 0dbd 90cd 64bd 42bd 2c3d 346a b1bc
00000080: 9736 8ebc 46aa 4a3d b9ee 1dbe 0a52 f3bd
00000090: 2c09 eabd b444 dcbd df83 5d3a 62cf 67bd
000000a0: f2c0 6fbe bd56 e5bd 170b 2dbe 3b8b a5bd
000000b0: b226 77be f4f6 32be 389e 17ba f846 e3bb
000000c0: 5cf2 6ebc 5398 4cbe fc0a f13d 824b 563d
000000d0: 6263 4dbd 4876 d13d 0ee2 d43d 8ee9 aaba
000000e0: b2c1 45bd a816 313d 89a8 ebbc a2f3 63bc
000000f0: d75c cc3c 6ce8 593c b3f4 4e3d a983 3f3d
00000100: 44ff c2bd 4982 d0bd 80e7 6b3d 9264 91bd
00000110: a03b e13c d0d3 a73d b569 213e a778 373e
00000120: 6e9a 11bd 09fe cf3d af14 9a3d a98b c53c
00000130: 495b 5f3d 0fbb 9dbd b2aa 86bd 10dc 5f3d
00000140: b55d 03be 5596 a93b 2e61 9f3d 9789 093c
00000150: d4d8 21bd 2645 d0bc 2161 1dbd ab04 823b
00000160: 9048 233d 1be9 693d 4039 e5bc 2aef d53c
00000170: d32a 9f3d b51e 71bd fdb3 543d 31d2 51bd
00000180: 3c1a 51bd b12b 68bd 3bfa 0b3d e34d 9b3d
00000190: c39f d9bc 7fd4 663d d4b0 353d e1a4 ab3d
000001a0: 34cd 6e3d ed8d bc3b 7558 ddbd 4b70 0bbd
000001b0: 307f 5dbd 456b fd3b 8cac 99bd e16c 963c
000001c0: c768 98bd a500 fbbd 76bd 0b3c e623 df3c
000001d0: 98df 4fbd 5c3b 8bbd 34b3 1cbd b887 4bbc
000001e0: b79e 15be 300f 1dbd 910b e6bd 9bef fc3c
000001f0: 37d4 45bd 9252 be3d 0d4a f93c 8a0c 763e
00000200: a596 e93d 04da ef3c f0c6 1d3d 350c d43d
00000210: 1f0a ed3d 873a 3e3e 846a 073e bd10 903d
00000220: 71c3 143e 7cbc b13d 17c5 3c3e ab06 23bc
00000230: f8d7 9bbc 700a f23c 8fe0 fe3d 4c97 e33d
00000240: 853a d93c 5ef1 133e 2397 273e 684e 233e
00000250: 38b7 d73d 6743 09bd 068f 003e 42b5 033c
00000260: c490 2d3d 9cea 46be 02c1 0abe f245 48bc
00000270: 7a8b b23d c5ca bdbb 25fc 38be cbc7 d6bd
00000280: 6f9f 063e 6c45 0c3d 095f 96bd cfde a33d
00000290: 020e 11be 5686 0c3d bcd3 c83c f89b 443c
000002a0: 9a2f 073c 0a68 09be 9e61 8c3d 3a38 723d
000002b0: e656 373d 8779 2fbd d505 0bbd dff2 273e
000002c0: 2be9 433b 5e21 ac3d 77dd 57be baba 2e3d
000002d0: 0a03 143e ac43 193e 9c3f a93d 047c 68bc
000002e0: e63f 03be 1df5 583d e37e 033c 82f8 0d3e
000002f0: a25a db3d cdf6 3dbe 9140 2f3d 5f63 0b3e
00000300: 0558 06bd 6016 283d 9511 303c 4f74 533e
00000310: f292 453d 7904 a33d d195 ca3c 9a3a a7bd
00000320: bcf9 153e 96eb 003e f812 40be 340e 97be
00000330: f5e6 97bd d83e 723c 78ff 323e 2307 34bd
00000340: 056b bebd 69e1 43be 5dff 0a3c 476e 27bd
00000350: 0a8c 0abb 020f 56bc fde9 79be 7410 ff3d
00000360: f2cb c63d 46e0 dabc ea5f bb3c 8d9f a1bd
00000370: 9b8b 7e3d 3ba5 7dbd cb4b 0cbd ab0c a53d
00000380: f282 d5bd 2de2 14bd 4266 02bd f1b0 6b3d
00000390: c8ce 94bd 1395 ec3d a973 02be f7c9 0b3d
000003a0: c526 1cbd 5117 083c 158a 6cbc 5a81 f2bd
000003b0: 3964 febd 19e8 39bd d948 a93d f476 193e
000003c0: c946 babc 0d4c 9bbc 8056 403c 7806 4c3d
000003d0: 8716 e53d ff6d c3bd 82b3 a6bc 6fbb 763d
000003e0: 0885 7a3c 9529 c93d c4ce 95bd 8ba3 0abd
000003f0: 3874 91bd 3813 143d 6cbc 7c3c f7e5 92bd
0.30592093 0.15306157 0.0563495 0.24976766 0.1437017 0.31107104 0.20715381 0.17968617
0.26019332 0.19508594 -0.032919295 0.17128651 -0.11626206 -0.015070318 0.021235283 -0.15225843
-0.1151426 -0.18653508 0.086837105 -0.099264644 -0.16306981 0.061264224 -0.1322251 -0.037421685
-0.18358448 -0.008872143 -0.07131697 0.043422364 -0.034473605 -0.055860102 0.042172678 -0.021657087
-0.017360015 0.04947879 -0.15423097 -0.11880882 -0.11427531 -0.107552916 0.0008450131 -0.05659426
-0.23413447 -0.11198185 -0.16898762 -0.08083197 -0.24135855 -0.17477018 -0.00057837693 -0.0069359504
-0.01458415 -0.19979982 0.11769673 0.052318104 -0.050143607 0.102276385 0.10394679 -0.0013039575
-0.048280425 0.043234497 -0.028766887 -0.013913067 0.024946613 0.013300043 0.050526332 0.04675642
-0.09521344 -0.101811 0.057593822 -0.070992604 0.027494252 0.08194697 0.1576298 0.17917119
-0.035547666 0.10155875 0.07523476 0.024114447 0.054530416 -0.07701694 -0.06575526 0.054653227
-0.12828715 0.0051753917 0.077822074 0.00839462 -0.039513424 -0.025423598 -0.038422707 0.0039678416
0.039864123 0.057107072 -0.0279814 0.026115019 0.0777184 -0.058867175 0.051929463 -0.051225845
-0.05105041 -0.056682292 0.034174185 0.07583215 -0.026565438 0.056354996 0.04435809 0.083810575
0.058301166 0.0057542236 -0.108078875 -0.034042638 -0.054076374 0.007733735 -0.07503614 0.018362464
-0.0744186 -0.12255982 0.008529058 0.027238797 -0.050750345 -0.06798431 -0.03825684 -0.012422495
-0.14611326 -0.038344562 -0.11232675 0.030875972 -0.048298087 0.09293093 0.030430818 0.24028221
0.11405686 0.029278763 0.0385198 0.10353891 0.11574196 0.18577014 0.13224226 0.070344426
0.1452768 0.08678529 0.18434559 -0.00995032 -0.01902388 0.029545993 0.12445175 0.11112842
0.026517162 0.14447543 0.16366248 0.15947878 0.10532993 -0.033511546 0.12554559 0.008038821
0.042374387 -0.19425434 -0.13550189 -0.0122237075 0.08718009 -0.0057919943 -0.18064936 -0.10487326
0.13146757 0.034245893 -0.07342345 0.08001482 -0.141655 0.0343078 0.024515025 0.0120000765
0.008251095 -0.13418594 0.068545565 0.059135653 0.044760607 -0.042840507 -0.03394111 0.16401242
0.0029893618 0.08404802 -0.21080576 0.042658545 0.14454284 0.14967221 0.08264086 -0.014189724
-0.12817344 0.052968133 0.008025858 0.1386433 0.10710646 -0.18551178 0.042786185 0.13612126
-0.032798786 0.041036963 0.010746379 0.20649837 0.04823584 0.079598375 0.024729641 -0.08165474
0.14646047 0.12589869 -0.18757236 -0.29503024 -0.074170984 0.014785491 0.17480266 -0.04395212
-0.09297756 -0.19128956 0.008483735 -0.040876653 -0.0021140599 -0.013065102 -0.24405666 0.1245431
0.09706868 -0.02671827 0.022872884 -0.0789176 0.062144857 -0.061925154 -0.03425197 0.08059057
-0.104253665 -0.03634851 -0.031835802 0.05754179 -0.07266003 0.11551871 -0.12739433 0.034128156
-0.03812291 0.00830634 -0.014437218 -0.11841078 -0.1242146 -0.04538736 0.08265848 0.14986783
-0.022738831 -0.018957162 0.011739373 0.049810857 0.111859374 -0.095424645 -0.020349268 0.060237344
0.015290506 0.09822384 -0.07314828 -0.033847373 -0.07102245 0.03615114 0.015425783 -0.071727686

features.conv1.bias f4 [6]
00000000: 8567 bcbe d336 403e df94 37bd c14e da3c
00000010: e37f 0fbe b15c 473e
-0.3679773 0.18770914 -0.04481971 0.02664888 -0.14013629 0.19468953

features.conv2.weight f4 [16, 6, 5, 5]
00000000: 974e 7e3d fec4 bb3d 5c27 3ebd f787 dabb
00000010: 05e8 60bb c785 a33d faa9 6d3d 9e69 b0bc
00000020: e7e4 7d3d d8ec e93d 0499 5c3c 59aa dd3d
00000030: b33e e73c 0573 1ebd 8c79 9d3d 69ac 4c3d
00000040: 5aff 2d3e 08eb 123e a4b0 c03c 535c 943d
00000050: 1a54 1d3e 5e54 ab3d 0c82 a43d 0991 0f3e
00000060: b0eb 083e 2449 023e 032f dd3b 416a 083c
00000070: 0a2d 66bd e2a7 50bb 12d9 3bbd 3986 033d
00000080: 2e88 4dbd 929b a53b 8964 3d3d bd65 3ebd
00000090: a36f 0c3b db6a 00bd f99b f5bc 304f abbd
000000a0: 5f85 24bd c32a 813c daed a3bd 06b0 87bd
000000b0: 9dce 16bc c951 efbc bb34 dfbd e273 323b
000000c0: 768d dbbd e6ec d3bc f5da 7dbd 7ede 03bc
000000d0: 649f aebd f76b 62bc d1b2 e5bd 904c c0bc
000000e0: e33b 7fbd 9c88 c1bd e6eb 1c3d e3dc 5dbc
000000f0: 200f d9bc 577c f8bc c9dd 93bd 4030 913c
00000100: 7aad 17bd 23c2 8dbd 2ec8 9ebc 6fc0 973c
00000110: 715e b9bd 0e47 e5bc 6a5e b83c 38f1 2dbd
00000120: 64ce 9fbd b4b1 15bd e185 c3bd 717f 833c
00000130: 05b2 36bd ba90 90bc 2b6f 91bd 0353 9e3c
00000140: 63d6 b2bd 498d 28bc caed d5bd 2910 643c
00000150: a4bd 99bd fcdd e2bc e792 c5bd 48a2 88bd
00000160: b88c 3ebd 686f afbd df51 86bd bb56 9b3c
00000170: bd35 31bd ae77 e2bc 9807 5dbc 79c8 93bc
00000180: 1715 233d 5fc7 eebd ec72 5dbd 1bc9 ccbd
00000190: 15e7 b33d f974 6b3d 0dc2 f03d 8b55 b03d
000001a0: 79d9 e93d 92f8 5f3d f2b3 993c d563 e4bc
000001b0: b9c0 a13c c79c febc 5648 5a3d 1650 023c
000001c0: 14ec 983d 4297 013b a7e9 55bc 1766 0cbc
000001d0: ce30 303c 8b4c 443d 9788 b5bb 57b1 e63d
000001e0: 0050 9d3d 25a0 473d 269f 953d b689 1bbc
000001f0: d706 dfb9 e66a 383d 280a b43d d597 c13d
00000200: eac4 e83c 2d68 9e3d 7ace 9a3d fc2a 773d
00000210: e3ac 37bc fd21 ebbb eb97 dd3c 117e 5bbd
00000220: 36e1 dc3b 4ded 92bc ef65 043c 61a5 a2bd
00000230: 4ca6 10bd 6c08 0e3d b87a c33c b31e 983d
00000240: b1aa c53d 6565 09bd 1a85 c13c 8e9b 49bd
00000250: 0562 94bc e483 79bd 6225 9a3b e2f7 663d
00000260: 4ac0 c5bc 38fa 153d 7f1f a53d b424 663d
00000270: e400 563d 475f 7c3d cd88 58bd 4b97 663d
00000280: a047 123b 5672 fdb9 7136 21bd f627 8abd
00000290: 86ba 1b3c 8409 d23c feb6 bd3d d6c2 2b3d
000002a0: c57c e63d dc62 113c 9fe8 863d 0028 a63d
000002b0: da5a 7d3d 1eea aebc 224f 08bd 9d0b 45bd
000002c0: 885a 90bd f966 74bd 7824 25bc 37f2 893b
000002d0: 2eb3 073d b2ea 1abc 8fb4 b4bd 2024 64bd
000002e0: 60d7 c8bc f117 a2bd 4890 92bd ddf1 593d
000002f0: e02c d1bb 3f93 393d c2c9 c43c ddb2 fdbc
00000300: a1d9 f73c 47d7 6a3d fcd3 5cbd 781d b23d
00000310: 99e2 f43b 33d8 87bd b547 4b3d 7fd4 dc3c
00000320: 5f74 84bd 86c6 a6bd bba6 a7bd 3755 47bc
00000330: d94e 8f3c 4dd2 f73c c4c1 e7bc eaec 8f3d
00000340: 5397 aaba e1e0 67bb 5d11 f53c ac68 66bd
00000350: 3341 ab3c 9384 293d a9bf b0bc 2e76 f5bc
00000360: 2ec4 183d 25f5 433d 1778 b5bd cded 223c
00000370: a0bc 593b 221b af3c fc91 b7bc ac0e d2bc
00000380: a440 313d b37b 41bd e486 8d3d 3c30 833d
00000390: 142e ebbc 4949 3ebd d862 b7bc 4590 763d
000003a0: b311 29bd e0e3 46bd 3408 97bb 0cd7 b7bc
000003b0: 6da6 063d 3b5f 3abd 60c5 70bc d1ab c1bc
000003c0: 9d1e 91bc e69d 03bd 94e9 3bbd ab99 30bd
000003d0: 44aa f03c d6be 95bd 65b0 223d bc09 963c
000003e0: f2fd 46bd 2a27 273d 0544 f5bc 1ecd bb3d
000003f0: 8b7b 223b 9d38 9a3d 7a0c 0fbc 1271 95bd
0.062086668 0.09168433 -0.046424255 -0.0066690403 -0.0034317982 0.079845004 0.05802343 -0.021534737
0.061985876 0.114221275 0.013464216 0.10823507 0.02822814 -0.03868391 0.07689199 0.04996911
0.1699194 0.1434747 0.023521729 0.07244172 0.15364113 0.08365701 0.08032617 0.1402017
0.13371158 0.12723213 0.006749989 0.008326114 -0.056195296 -0.0031838347 -0.04586131 0.032110427
-0.0501787 0.005053946 0.046238456 -0.046483744 0.0021428845 -0.031351905 -0.0299816 -0.08364713
-0.040166255 0.01576746 -0.08004351 -0.06625371 -0.009204534 -0.029213803 -0.108987294 0.0027229716
-0.10720341 -0.025869798 -0.06197639 -0.008048652 -0.08526495 -0.013819686 -0.11215747 -0.023474008
-0.06231297 -0.09449884 0.038310908 -0.013541433 -0.02649647 -0.030332727 -0.072200365 0.017723203
-0.037030675 -0.06921794 -0.019382562 0.018524377 -0.090512164 -0.027987983 0.022505958 -0.042466372
-0.07803038 -0.036546424 -0.0954702 0.01605198 -0.044603366 -0.017647136 -0.07101282 0.019326692
-0.08732297 -0.010287591 -0.10445745 0.0139198685 -0.07506874 -0.027693741 -0.0964716 -0.06671578
-0.04652092 -0.08566171 -0.065585844 0.018962255 -0.04326414 -0.027644958 -0.01349058 -0.018039929
0.039815035 -0.11659121 -0.054064676 -0.09999295 0.0878431 0.0574846 0.11755762 0.08610066
0.11418433 0.054680414 0.018762562 -0.027879635 0.019745218 -0.031080617 0.05329164 0.007953664
0.07466903 0.0019773995 -0.013056195 -0.008569262 0.010753823 0.04792456 -0.0055399644 0.11264294
0.076812744 0.04873671 0.07305746 -0.009493282 -0.0004253897 0.04502382 0.08791 0.09452788
0.028414208 0.07734714 0.075589135 0.060343727 -0.011210653 -0.0071756826 0.02704998 -0.053587023
0.0067407144 -0.01793542 0.0080809435 -0.079417 -0.035314843 0.034676 0.023862228 0.074277304
0.096516974 -0.033543963 0.023623038 -0.049220614 -0.018113146 -0.060916796 0.0047041634 0.056388743
-0.024139542 0.03661558 0.08062648 0.056187347 0.052246943 0.0616143 -0.05286484 0.056296628
0.0022320524 -0.00048341107 -0.03935856 -0.06745903 0.00950492 0.025639303 0.092634186 0.041933857
0.11254267 0.008873668 0.06587338 0.08113098 0.06185422 -0.02135187 -0.033278592 -0.04810678
-0.070485175 -0.059668515 -0.010079496 0.0042097825 0.033129863 -0.00945537 -0.08823501 -0.055698514
-0.024516761 -0.07914723 -0.07156426 0.053209174 -0.0063835233 0.04530644 0.024021987 -0.030969078
0.03025514 0.05733421 -0.0539131 0.08697027 0.0074733016 -0.066330336 0.049628932 0.026956795
-0.064675085 -0.08143334 -0.08186098 -0.012166313 0.017493652 0.030251646 -0.028290637 0.0702761
-0.0013015069 -0.003538184 0.029915506 -0.056252167 0.020905113 0.0413862 -0.021575766 -0.029963579
0.037296467 0.04784121 -0.08860796 0.009944391 0.0033224002 0.021375243 -0.022408478 -0.025641762
0.043274537 -0.04723711 0.06910494 0.06405684 -0.028708495 -0.04645661 -0.022386 0.06019618
-0.041276645 -0.048557162 -0.004609132 -0.02244141 0.03287356 -0.045500975 -0.014695495 -0.023641499
-0.017714793 -0.032133006 -0.045877054 -0.0431153 0.029378064 -0.0731179 0.039719004 0.018315189
-0.048582025 0.040808834 -0.02993966 0.091699824 0.0024792876 0.075303294 -0.008731002 -0.07296957

features.conv2.bias f4 [16]
00000000: 95bd 44be 0aee 48bd 4947 10bd fdc5 dd3c
00000010: 2abc 42bd a3f7 d1bc ed5d 833d 62dd 6d3d
00000020: 52f7 603d 0eb2 243e 9971 35be be40 4a3c
00000030: d8b8 d0bd 8236 a2bd b1a3 60bd ef05 3b3d
-0.19212945 -0.049055137 -0.035224233 0.027071947 -0.04754273 -0.025630778 0.06414399 0.058072455
0.054923363 0.16083547 -0.17719115 0.012344537 -0.10191506 -0.07920553 -0.05484361 0.045659956

features.fc1.weight f4 [120, 400]
00000000: 4538 053d 16e9 02bd 5bf4 2e3d 225a 123d
00000010: 1e7a fc3a d2b2 f4bc 50ff e0bc e44b d5bc
00000020: d29a 3b3c ba2f 9c3c 63e1 b33c 9ca0 b23c
00000030: 76e6 60bd 7077 0fbd 2493 b6bc d330 023c
00000040: c6f2 1bbd 1747 9bbc 0f95 273d 1158 f03b
00000050: a50c 713b 7991 d4bc 303f 51bd 50e9 883c
00000060: 85b7 2a3d 670b 15bd 79cf 933c 83ba 9a3c
00000070: 2b5b 003d 0e0a ed3a 63f6 0a3c 97c9 34bd
00000080: b353 49bd 42a8 3b3d 7fa3 af3c fba1 493d
00000090: d653 6f3c b02f eebb 798d 8ebc 164e 413c
000000a0: 5f85 313d d744 813c 1c59 46bc 36f9 b73c
000000b0: 8296 20bd f4f8 00bd 5faf ea3c 9555 b6bc
000000c0: f86f 14bc 0a48 34bd fb06 433d c6d5 20bd
000000d0: 6c57 cabb 1c93 01bc dbed 893c 3055 9d3c
000000e0: 28dd 323d 2f1c 12bd c1eb f9bc c57c 483d
000000f0: 5329 3c3b 49ec 33bd 569b 823c 1dae fa3c
00000100: 11bc 8abb 23f7 0bbd ba53 ff3b 42e9 283d
00000110: a865 9fbc d1ca 3d3d caf5 9e3c 1881 273d
00000120: 5b3f ddbc d6d1 29bd 6721 853c fccb 52bc
00000130: d861 b9bc b1d4 46bd 5b9e 2abd 740e 513d
00000140: ff61 953c 418f a2bc f2d4 0d3b 6ae7 353c
00000150: 4c1e 0ebd 6116 39bd cc2e ba3c 2042 573c
00000160: da07 81bb 9535 e2bc 17d0 f73b a722 213c
00000170: 5155 4fbc def2 3bbd 97af 323d c5c6 3dbc
00000180: e8a6 02bc 2f50 ffbc 23dc 353d 4508 453d
00000190: 1e94 203d e29a c5bc 291b 443d 530a c6bc
000001a0: dcf2 083c 7c15 23bd fdfe 243d 0718 94bc
000001b0: 273b cdbb 16e3 47bd b716 c23c 9b8f 3dbd
000001c0: 7a52 413d 2b6c 36bd ecf3 e8bc a31a b53c
000001d0: e890 023d 7dd6 9fbc 6f9c 223d ffc3 463d
000001e0: cd23 dc3c f404 853c 7be7 3a3d 50f0 05bd
000001f0: 6352 8c3c dcc3 f73c ab61 993c 7621 2bbc
00000200: 5394 a83b 5491 023c 0215 eebb c400 423c
00000210: 69e5 c53c 53f7 2b3d 478c 423d fd6e c43c
00000220: e93b 223d ef85 d3bc 8729 293c 78b6 423d
00000230: 9c75 573d 7b41 94bc 302e 3fbd c116 67bc
00000240: 444a b53c 90bd ebbc ad45 573d f34b 3c3b
00000250: 7a19 073d 9ac9 26bd 33e6 a1bc b71d a5bc
00000260: f8fd 1ebd 2903 85bc 48c9 dd3c ae20 b0bc
00000270: e724 933c af2b be3c 3adf 2abd ec88 70bc
00000280: 1259 b73b 36ab c1bb 2596 32ba 62bb 1c3c
00000290: d101 c93c feaa f8bc 38a2 7abb 639e a2bc
000002a0: a8ff d33c 5ef3 c63c 812d 2cbd d02f 303d
000002b0: 2df0 503d 978f f23b 5bdf ca3b ec6b 2a3d
000002c0: c784 cdba 39b1 2abd e71f 213d 2f73 26bc
000002d0: e03e adbc 0b4c 16bd fea0 e2bb 0f84 243d
000002e0: 6d68 e1bc c88c 7abb 7bbc af3c 851f 87bc
000002f0: 4016 eb3c f5be 273d b847 c5bc 3dd6 6cbb
00000300: 57f2 eebc 09db 313c a2f8 a23b 892d 31bc
00000310: 23b3 3d3d f345 743c f82b fdbc d8f4 27bd
00000320: e84c ac3b 12af c7bc 1e2e fb3c 1ea2 43bc
00000330: 6189 093d 76c9 223d e10a 023d ec5b ffbc
00000340: 6561 363c 01d3 97bc 2f57 863c 7256 cdbc
00000350: c2b6 26bd bc8e d0bc 1332 3cbc 238e 2d3d
00000360: bfa0 26bd 4177 993c 399d 393d 7598 e43c
00000370: e0b1 883c 987a 03bd d51b fd3c 60c8 f5bb
00000380: 66cf b73c 3864 18bd 9ab5 d9bc c326 283d
00000390: c440 3d3d 475f 623c 7496 393d 0eed d43c
000003a0: d5c0 1bbd 4f47 b63c 9ca8 143c 8a13 03bc
000003b0: 2dd2 a0bb 1be4 d2bc df41 0bbc 96fd 113a
000003c0: 3fbc 02bd d6e7 353d 577b d63c d953 3abd
000003d0: e097 dbbc 381e eabc 96dc f03c 9c7a 563d
000003e0: 818b 283c d7b8 9b3c a0d9 30bd 70ba 29bd
000003f0: 50ff 093d dc3c 413d f301 973b 86b2 933b
0.032524366 -0.03196057 0.042713504 0.03573049 0.0019262468 -0.029870424 -0.027465492 -0.026037164
0.011450486 0.019065727 0.021958059 0.0218051 -0.054907285 -0.035026014 -0.022286959 0.007946211
-0.038073324 -0.018954797 0.040913638 0.007334717 0.0036781218 -0.025948273 -0.05108565 0.016712815
0.041678924 -0.036387827 0.018043267 0.018887764 0.031336945 0.0018084662 0.008481595 -0.044137564
-0.049152087 0.04581476 0.021440266 0.049226742 0.01460739 -0.0072688684 -0.017401444 0.011798402
0.043340083 0.015779896 -0.012106206 0.0224577 -0.039206035 -0.03148742 0.028648077 -0.022257606
-0.009059899 -0.044014014 0.04761408 -0.03926637 -0.0061749723 -0.007908609 0.016837051 0.01920566
0.043667942 -0.03567141 -0.030507924 0.048947114 0.0028711155 -0.04392651 0.01594321 0.030600602
-0.004233845 -0.034171235 0.0077919634 0.041238077 -0.019457653 0.046336 0.01940431 0.040894598
-0.02700775 -0.04145988 0.016251279 -0.0128660165 -0.022629663 -0.048542682 -0.041654926 0.051039174
0.018235205 -0.0198437 0.0021641818 0.011102537 -0.034696862 -0.045187358 0.022727393 0.013138324
-0.0039377036 -0.02761344 0.007562648 0.009834922 -0.012654618 -0.045885913 0.043624487 -0.011583035
-0.007974364 -0.031166164 0.04439939 0.04810359 0.039203756 -0.024121705 0.047877464 -0.024174845
0.008358683 -0.03981541 0.04028224 -0.018077863 -0.006263155 -0.04880055 0.023692472 -0.04627953
0.047197796 -0.04453675 -0.028436624 0.022107428 0.031876475 -0.019511456 0.039699968 0.04852676
0.02687254 0.016237713 0.045630913 -0.032699883 0.017129129 0.03024476 0.01872333 -0.010444989
0.0051446347 0.007969219 -0.007265688 0.011841003 0.024157243 0.041983914 0.04749706 0.023978705
0.039607916 -0.0258207 0.010324842 0.047537297 0.052602395 -0.01809763 -0.046674907 -0.014104546
0.02213014 -0.028776914 0.052556682 0.0028731793 0.03298328 -0.040719606 -0.019763088 -0.02015577
-0.038816422 -0.016236858 0.027073517 -0.021499958 0.017961932 0.02321419 -0.04171679 -0.014681082
0.005595335 -0.0059103025 -0.00068125344 0.00956616 0.024536999 -0.030354973 -0.0038243663 -0.019850915
0.025878742 0.024285968 -0.042035583 0.043014348 0.0510103 0.007402371 0.006191177 0.04160683
-0.001567983 -0.04167292 0.039337065 -0.010159298 -0.021148145 -0.036693614 -0.0069161644 0.040165003
-0.027515614 -0.0038230885 0.02145218 -0.016494522 0.028697133 0.040953595 -0.02408205 -0.0036138438
-0.029168291 0.010855445 0.004973487 -0.010814079 0.046313416 0.014909255 -0.030904755 -0.041004986
0.0052581914 -0.024375472 0.030661639 -0.011940507 0.03357828 0.03974291 0.031748656 -0.031171761
0.011131619 -0.018533232 0.016398994 -0.025065634 -0.040701635 -0.025458686 -0.011486548 0.04237188
-0.040680643 0.018733623 0.045315955 0.027904728 0.01668638 -0.032099336 0.03089706 -0.007500693
0.022437762 -0.03720495 -0.026575852 0.04105259 0.046204343 0.013816661 0.0453095 0.025991943
-0.038025696 0.0222508 0.009073403 -0.008000264 -0.0049078674 -0.025743535 -0.008499592 0.0005569098
-0.031917807 0.04441055 0.02618186 -0.04549012 -0.026805818 -0.028578863 0.029402059 0.052363023
0.010287167 0.019009037 -0.043176293 -0.041437566 0.03369075 0.04717718 0.0046083867 0.0045073656

features.fc1.bias f4 [120]
00000000: 57dc f63b 4e60 d5bc 1044 5cbd b95c 2e3c
00000010: b0f0 363d 6c64 1dbd fd07 5fbc cf91 4fbb
00000020: 5e44 673c af0c 6fbc 9bd7 a33b 63fc af3d
00000030: 0003 04bd 8faf a4bd 1a26 e9bc d8d4 c33b
00000040: f9af 02bd eaaf c43c ac0d bf3d 87e0 b3bc
00000050: 63a8 95bc 8e88 f1bb 3232 8e3b 68c6 6b3d
00000060: 3c71 aabc 7471 8b3d 4ed3 573d 5742 92bd
00000070: 5a49 8bba dd18 f13d e784 0abd fdf5 45bc
00000080: b1ff fb3c 9486 cc3c c223 cc3b 5c0d 713c
00000090: f74e febc de7d efbc 1c15 6cbd 44cd b63b
000000a0: f079 9a3c 9244 8a3c 9fed 843d 6e0c 893c
000000b0: 9760 303d ccf4 563b 1c7e d4bb 079e 093d
000000c0: 9140 023d de1f 033d d1a5 dc3c 63aa 78bc
000000d0: 1486 143b 3426 eabb acd8 24bd a67a fbbc
000000e0: b1e7 0dbd e860 9b3a 4e9d 9b3c c266 40bd
000000f0: 8409 38bb 8af8 9a3d e992 23bd 39c9 36bd
00000100: e51e 0cbd fbf5 6dbd eb19 b73d fd42 d9bb
00000110: b6b5 03bd 88b4 8abb db00 243b 78c5 723d
00000120: 7185 3a3d 109a cebc 05a7 fb3b d043 673d
00000130: b507 f8bc 556c 903b f2ea a63d f271 bdbc
00000140: 90fc e43c ca49 973d f63b 093c e09f 213c
00000150: 1a73 49bd 130e f2bb 2511 fcbc 7b98 38bd
00000160: ee48 9bbb c098 0ebd 2dba 173d 5edb 90bd
00000170: 5ae4 8a3d 4dd4 913d f1bb d83c 4afe 03bc
00000180: 23ee 3abc d3b5 d0bc c501 d23b a86d 773d
00000190: 8531 1fbd ea20 40bd 8ae8 9b3c c4af 9e3d
000001a0: d209 203d 30f2 b8bc ed75 26bd 3f63 0e3c
000001b0: 53d2 803b 72f6 c5bb 7f0d 44bd b8be 593d
000001c0: 78c8 32bd 274f c73c d386 b03c 342f b73c
000001d0: ed4f 353d ed90 1e3d 1b6b d83c b766 a4bc
0.007533591 -0.026046898 -0.053775847 0.010642224 0.04466313 -0.038425848 -0.013612744 -0.0031672602
0.014115421 -0.014590426 0.0050000674 0.08593061 -0.032229424 -0.08041298 -0.028460551 0.0059763007
-0.0319061 0.024009664 0.093287796 -0.021957649 -0.01826877 -0.007371015 0.00433948 0.05756226
-0.020805947 0.06808749 0.05269175 -0.071415596 -0.0010626719 0.117723204 -0.03381815 -0.012082574
0.030761572 0.024966516 0.0062298486 0.014712658 -0.031043513 -0.029234823 -0.05763732 0.005578669
0.018856972 0.0168784 0.06490635 0.01672956 0.043060865 0.003279972 -0.00648476 0.033597972
0.031799857 0.032012813 0.026934536 -0.015177342 0.0022662925 -0.0071456674 -0.040245697 -0.030698132
-0.034644786 0.0011854442 0.018995907 -0.046972997 -0.0028081844 0.07566936 -0.039935026 -0.044625495
-0.03420915 -0.058095913 0.0894049 -0.0066303 -0.032155715 -0.004232947 0.0025024924 0.059270352
0.045537416 -0.025219947 0.0076798224 0.056461155 -0.030277112 0.0044074454 0.08150281 -0.023125622
0.027952462 0.07387121 0.008376112 0.009864777 -0.049182035 -0.0073869317 -0.030769894 -0.04506729
-0.0047389185 -0.034813643 0.037042785 -0.07073091 0.06781836 0.07120571 0.026456805 -0.008056233
-0.011409315 -0.025477326 0.0064089024 0.06040731 -0.038865585 -0.04690639 0.019031782 0.077483684
0.039071865 -0.022576421 -0.040639807 0.008690654 0.0039313226 -0.0060413415 -0.047864433 0.0531604
-0.043648213 0.024329735 0.021548664 0.022361375 0.044265676 0.03871243 0.02641826 -0.02006851

features.fc2.weight f4 [84, 120]
00000000: 6f20 133d 0056 14bd 22d1 b5bb 3430 36bc
00000010: 400c 603d d619 44bc 43ca f438 8222 b03b
00000020: 219f 4dbd f61a a1bd 61e1 64bc 9922 33bd
00000030: 22e0 9f3d 35db 623d ed85 2cbd a3cb bfbd
00000040: d3a4 a53d 429e 103d 9e59 81bd d330 90bd
00000050: 351f 83bd d90b 00bd f167 5fbc a0d5 3e3d
00000060: 88a8 86bd 6f01 723d e9da ae3d ae73 92bd
00000070: 6c4a d2bc c53f 48bd 33dc ef3b 1a03 88bc
00000080: a804 b73d 6c83 d0bc 1a63 88bd f97d 853d
00000090: 1b03 26bd 2e0f 813c a510 b53d 6e4a a93d
000000a0: 876d 2ebd 4e18 ac3c 1af3 533d 45d3 283d
000000b0: a307 21bd c1e7 253d cfa1 4abd 22ae 473d
000000c0: fdaf 7d3d e5e3 283c 775d c6bc 268e 46bd
000000d0: dbc5 833d e290 8a3d 8ec9 e53c b673 d0bc
000000e0: c7ac d43b 5692 403d b31d a73d ef9d f53c
000000f0: 0dec 103b 4703 803d 60c3 24bd b35a 6ebd
00000100: 3595 33bd a48c b0bd a5f8 e13c d29a 25bd
00000110: d262 95bd 749a 9ebd 4789 a7bd 75c6 0a3d
00000120: 050a d13b 0e54 9a3d 4d63 97bd 9c1a 893d
00000130: 1b28 4fbb 1a64 6a3d 81b9 b73d f0e6 213d
00000140: 5670 d33d 7986 b2bd 66d9 a7bc 7fe2 2bbd
00000150: 16e3 d03c c6c7 903d 6833 f93c ad2e 9bbd
00000160: bfec b73c 36d3 533d 5516 8bbc 1a3e 13bd
00000170: f019 9cbd 0a00 643d f1f0 73bd e8be 343d
00000180: de44 7f3d 9a92 bcbd 1c42 0fbd ec50 c73d
00000190: d076 f8bb 9e78 4fbd f6f1 e0bc ecfd 673d
000001a0: 1dc0 443d dce5 83bc d2a8 7e3d c6bb af3d
000001b0: c7fe 423d 763a 763d 7992 4b3c 9c93 5fbd
000001c0: 744e 13bc 41c0 13bd 8f12 d03c 1969 aa3c
000001d0: e76a 7fbd f846 b0bd 503b 543c e954 913a
000001e0: 5cc8 673d 179d 09bd 701b ba3d 9222 07b9
000001f0: a801 b43c ee4c f0bb 1bca b63d 3056 a1bd
00000200: 1140 e83c 1f69 073d b18b 48bd 4bb4 9a3c
00000210: fc34 543c 441f 863d cf9e 833c 8d68 41bd
00000220: d7f0 b73c 0f21 b9bd d298 c23c 0f07 a0bc
00000230: 4bdb a6bd 17c8 5b3d af46 24bc 4069 a2bd
00000240: a16d b4bd cf8f 873d 6c36 a03d 545c e13c
00000250: c2c3 7ebc ec7a bd3d a994 86bd dd10 32bd
00000260: 7512 39b8 4377 df3c e933 933d ef21 b43d
00000270: 7af2 2fbd b3b1 85bd b67f 8e3d 76fd 78bd
00000280: 338c 3c3d df59 b4bd cbee 97bd 1359 b8bd
00000290: 7461 45bd 1414 063d e45a 0a3b a18a 4fbd
000002a0: 1429 92bd 5fe1 a4bd c48d b0bd 0032 a7bd
000002b0: 904f cdbd df89 c03d d553 483d a668 b43c
000002c0: 2c58 be3d f02e 95bd 18e8 263d c11c 623b
000002d0: 347b 373d cdcb be3d 1ff6 eebc d406 56bd
000002e0: 11f7 6ebd 9e35 aabc 0e4c b1bd 73db 3cbc
000002f0: be4d 593d 6c02 a13c 1347 223d 2a7d a8bd
00000300: c3aa a1bd b999 fb3a ba6b ae3d 0e77 803d
00000310: 3ba6 87bd e932 ce3d b2c3 9ebd a277 40bd
00000320: 2be5 5f3d ffc3 92bc b308 133d 4711 773c
00000330: 7774 2b3d 83ad 4d3d 0287 1b3d 0f19 30bd
00000340: 2c23 51bd ae67 88bc a012 8a3c 1f85 153d
00000350: 96e4 de3c f79c 1f3d dbb9 78bd 5efb b3bc
00000360: 373d 893c 3bbc a7bd 51e9 993d b8fc 0a3c
00000370: a46b d93d c7db abbd c1eb aa3a c0bb 563c
00000380: ef9b c0bb f358 083d 3806 3a3d 51ca 9abd
00000390: a5d8 a9bd 38d3 783c c91f 54bd ea94 393c
000003a0: e460 52bd 63fd ca3c f19c 49bd 86a7 f7bc
000003b0: 18af c53c c80a ad3d 6c7c d1bd af8a 8f3d
000003c0: 0b97 7e3b cc17 35bc 4f3d 623c 1cd1 9abc
000003d0: d589 aa3d 2e1c 5cbc 1157 583b 713d eabc
000003e0: 6c56 4c3c d942 4c3d 78d1 803d de65 89bd
000003f0: 9efb 1bbd 3981 663c 9fd2 8a3d 9e78 e03c
0.035919603 -0.03621483 -0.005548612 -0.011119891 0.054699183 -0.01196905 0.00011672501 0.0053752074
-0.050200585 -0.078664705 -0.01396975 -0.043734167 0.07806422 0.055384833 -0.04211991 -0.093650125
0.08088078 0.035307176 -0.06315921 -0.070405625 -0.06402437 -0.0312613 -0.013635621 0.046590447
-0.065751135 0.0590834 0.085378475 -0.071509704 -0.025670253 -0.04888894 0.007319951 -0.016603041
0.08936435 -0.025453292 -0.06659527 0.06518168 -0.040530305 0.015754309 0.08841065 0.082661495
-0.042584922 0.021007683 0.05174551 0.041217107 -0.039313924 0.04050422 -0.04947072 0.04875005
0.061935414 0.010308241 -0.02421449 -0.048475407 0.06434222 0.067659155 0.02805021 -0.0254458
0.006490323 0.047014557 0.081599616 0.029982535 0.0022113353 0.06250625 -0.040225387 -0.058191966
-0.043843467 -0.08620575 0.027584383 -0.04043085 -0.07294239 -0.07744303 -0.081804805 0.03388067
0.0063793682 0.075355634 -0.07391987 0.066945285 -0.0031609598 0.05722437 0.08970929 0.03952688
0.10324161 -0.08717055 -0.020489406 -0.04196405 0.025498908 0.07069354 0.03042002 -0.07577262
0.022451757 0.0517151 -0.016978422 -0.035947897 -0.07622135 0.0556641 -0.05955595 0.044127375
0.062321536 -0.092076495 -0.034975156 0.097322315 -0.007582523 -0.05065214 -0.027459126 0.056638643
0.048034776 -0.016100816 0.06217272 0.08580737 0.047606256 0.060114346 0.0124250585 -0.05458413
-0.008990873 -0.03607202 0.025399474 0.020802068 -0.06235781 -0.08607286 0.012953594 0.0011087927
0.056587562 -0.03359708 0.090872645 -0.00012887482 0.021973446 -0.0073333895 0.08925267 -0.07877767
0.028350862 0.033059236 -0.048961345 0.018884799 0.012952086 0.06548932 0.016066937 -0.047218848
0.022453709 -0.090395086 0.023754511 -0.019534616 -0.081472956 0.053657617 -0.010026618 -0.07930231
-0.088099726 0.06619226 0.0782288 0.027509846 -0.015549602 0.09251961 -0.065713234 -0.043473113
-4.4124627e-05 0.027278548 0.071876355 0.08795535 -0.042955853 -0.06528034 0.06957953 -0.060788594
0.046032142 -0.08806204 -0.07418593 -0.090013646 -0.04818864 0.03273399 0.0021111304 -0.050669316
-0.07136741 -0.080507986 -0.0862079 -0.081638336 -0.10024941 0.09401297 0.048908073 0.022022557
0.09294161 -0.07284343 0.040748686 0.0034502002 0.04479523 0.09316216 -0.029170094 -0.052252606
-0.05834109 -0.02077752 -0.086570844 -0.01152693 0.053052656 0.019654475 0.039618563 -0.08226998
-0.07893898 0.0019195593 0.08516641 0.06272708 -0.06623503 0.10068304 -0.0775217 -0.04698909
0.05466191 -0.017915724 0.035896968 0.015079803 0.041859116 0.0502143 0.03797055 -0.042992648
-0.051058933 -0.016651 0.016854584 0.036503907 0.027208608 0.038968053 -0.06072412 -0.021970447
0.016752822 -0.08190199 0.07515205 0.008483104 0.10616234 -0.083915286 0.0013040231 0.0131062865
-0.0058779637 0.033287954 0.045416087 -0.0755812 -0.08293275 0.015187077 -0.051788125 0.011327008
-0.051361933 0.024779027 -0.049221937 -0.030231249 0.024131343 0.08449322 -0.1022881 0.07008874
0.0038847353 -0.011053037 0.013808562 -0.01889854 0.083270706 -0.013434453 0.003301088 -0.02859375
0.012471776 0.04986844 0.06289953 -0.06708883 -0.038081758 0.014068895 0.06778454 0.027401265

features.fc2.bias f4 [84]
00000000: 4943 0c3e 74b9 a0ba 6e0d ff3c 89e9 7c3d
00000010: 3ce8 d8bb 4aa2 edbc d32f efbc aa0b 2a3e
00000020: 827d 32bd 3f7c d2bc 9ab0 7ebd 7365 1ebd
00000030: e664 053d 2b22 563e c8bc 75bc 0292 373c
00000040: 646f f0bb 0fa3 6a3e 61d1 7ebd 9214 e2bd
00000050: b113 cabd 3c6d 1f3c 0811 963d bd9a e2bd
00000060: 3aa9 60bd 93b4 7abc 6cd3 033e 0142 9c3d
00000070: c112 4a3e 3084 2a3d 89ee 84bc b1c7 72bd
00000080: d382 8bbd 8963 723c 26c9 90bc 5894 0a3e
00000090: 68cc e3bb 54e5 84bd 2798 50bd 373a 7e3e
000000a0: 7e7e cdbc 1732 223d 0c95 b9bd dffd 9dbd
000000b0: 12d0 5abd 4130 073e bb85 5c3d a2e2 b43d
000000c0: d0d8 91bb b192 093d 13b0 99bd 212b 4c3d
000000d0: 7306 103c 5f77 aabd 3391 a73d 624b 2f3d
000000e0: c02f 433d 662b 95bc 6efc 483c e492 083d
000000f0: 1e61 d53d 13a7 a3bc c79f 2d3e 346d 083e
00000100: 48be 373e 0ba7 3cbd 1f42 eabc d159 333e
00000110: d461 8cbd 1ff3 ba3c dce4 b3bd c258 c3bd
00000120: 33b8 273d 6ce7 993d b23e 4abd f09d 09bd
00000130: 77bf eb3c 47d1 14bc 92db 3cbd 3a1c 573e
00000140: 2969 03bd 413b 40bd 1f55 90bd 8573 89bb
0.13697542 -0.0012262301 0.031134333 0.061746154 -0.0066194814 -0.02900805 -0.029197609 0.16606012
-0.043576725 -0.02569401 -0.06218014 -0.03867097 0.032566927 0.20911472 -0.014998622 0.011204245
-0.0073374975 0.22913764 -0.062211398 -0.1103908 -0.09867037 0.009730633 0.07327467 -0.1106467
-0.054848887 -0.015301841 0.1287362 0.07629777 0.19733717 0.04162997 -0.016227024 -0.05927247
-0.06812062 0.014794239 -0.01767404 0.13533151 -0.0069518574 -0.06489053 -0.050926354 0.24826895
-0.02508473 0.03959855 -0.090616316 -0.07714438 -0.053421088 0.13202001 0.053838473 0.08832289
-0.004450895 0.03358716 -0.075042866 0.04984582 0.0087906 -0.083235495 0.081819914 0.0427965
0.04765296 -0.01820917 0.012267215 0.03334321 0.10418914 -0.019977128 0.16955481 0.13322908
0.1794368 -0.046057742 -0.028595982 0.17514731 -0.06854597 0.022821007 -0.08783886 -0.095384136
0.04094715 0.07514843 -0.049376197 -0.033597887 0.028777821 -0.009083099 -0.046107836 0.21006861
-0.03208271 -0.04693151 -0.070474856 -0.004194679

l1.weight f4 [84, 84]
00000000: 7cb8 cb3c aafd e93c 2701 983d 8f43 043d
00000010: bb99 f8bc 20b6 8f3d 8d28 80bd d1a2 41bd
00000020: 7e5a 94bd 7323 2dbd 265a 713c a003 303c
00000030: 215f 1abc 5a0b 003e 90a1 91bc 8d9a d53c
00000040: c71d c2bc c4ff c03d f477 8cbd bd3b be3d
00000050: 57c1 4e3d c34c 94bd c266 a5bb 42ce b03d
00000060: 233d 4bbc 88bd adbd d901 af3d 508d cd3d
00000070: f5aa 9fbd 18ef 8abd a5ff 86bd d05d 973d
00000080: fb12 c93d ebfe 85bd d1e3 aebd 8745 69bc
00000090: bdfa 40bd 264c dd3d af15 813c 54e1 a6bd
000000a0: 755e 9dbd 44c9 83bd 6555 433d 9d7f 973d
000000b0: ee64 2fbd ab3b aa3d d4ee f7bc e6b5 64bd
000000c0: 4601 4d3d 9bb5 7c3d 5edc 763d 1d60 4ebd
000000d0: 86f5 773d 1712 683b 1156 053e 2594 ba3d
000000e0: 4df7 83bd 6484 cdbd 12ea 3f3c 31a5 62bd
000000f0: f7f7 bebd 7bc6 56bd 9e05 493c 170f 253a
00000100: d4fc b2bd f235 b63c 8230 573d a446 a93d
00000110: c319 93bc b602 8d3c f37a 733d 13d9 863d
00000120: 89de b9bd c0d7 313c d96e bcbd 54b5 82bd
00000130: 73e4 b53c 978d c4bd d62c 6e3d 8e63 893d
00000140: 7f99 8e3d 1dcc 65bb 9791 9e3d 87d0 53bc
00000150: c87d a7bd 4a58 883d 48fc 563b 4c80 5f3d
00000160: 7c8b 933c 5346 a93d 4af2 613c 8b40 2a3d
00000170: c98a 33bc d092 023c 7a31 1b3c 7a06 dabd
00000180: b34f 8fbd 0c7a 7dbc 9261 9bbc 6835 cfbd
00000190: f4c6 a53d c618 183d 51c0 f039 b174 b73d
000001a0: 066b 6bbc 6bac 05bd 6f8e a33d 753e 843c
000001b0: ebd0 0a3d cf16 c83d ad4b bcbd 5767 cbbd
000001c0: 7550 5f3d 7c66 d8bd 77f4 3c3c 5d75 a4bd
000001d0: f5b0 833c 2c8a aebc 417f 78bd e10f 38bd
000001e0: d669 c8bc 0e1e 5e3d be28 82bd ecda ac3d
000001f0: 1589 b33c 94e0 dfbd 337d 9fbd 90ba 9a3d
00000200: a57e 59bb 3af6 1ebc ef6e a23c 743c 74bd
00000210: 3222 813d 8089 6e3d 5356 ba3d 3d04 bbbd
00000220: 04bb 94bc e3b0 043d 1a93 993d 52c2 603d
00000230: d86e d7bd ff06 31bd 1322 c6bd 02ad 9f3d
00000240: 9d7e 323d 8b43 4bbc f56b 4dbd 8c0e 87bd
00000250: 76e3 babd 1995 ab3d 270e 1f3d c7f2 82bd
00000260: 6171 64bd 160c 6ebd 7745 513d 6f6b dd3c
00000270: e42a 883d 4dd0 143d da40 9b3d 1555 c93c
00000280: 1e81 873d 8c62 c8bd d0b2 03bd 914a fb3c
00000290: 2760 c0bc 890c b7bd b482 9e3d af98 5abd
000002a0: 74f4 533d 6c61 a83c e632 55bd 44bc 9b3d
000002b0: cbfd c63d ac29 8ebc eb18 24bd a2cd 673a
000002c0: 708e 143d af4c e03d 8f84 283d 5d89 953d
000002d0: 18ae e4bd 3c1b f43c 90da 263d c977 8fbd
000002e0: e984 ab3a 783b 1a3c 64b3 203d 147a 143d
000002f0: 543d 69bd aa30 8c3d 0d9a cc3c 7f0d 3cbb
00000300: 0e38 3fbd 350a d4ba f6e7 b9bd 6423 62bd
00000310: 5a07 a4bd abb1 3d3c ecb7 87bd 6deb e0bd
00000320: 3d8d f03b ba54 db3c 1cca 26bd c64d b13d
00000330: 9dfe e63c ac68 aabd 1cba abbd 2d09 8bbd
00000340: 3a71 acbd 4cde cc3d bfb7 03bd f9b4 dabb
00000350: dea8 a23c 3724 5a3d ad5f 2ebd cf2f cfbd
00000360: 769e babd 2005 493d c19d c13d 3239 953c
00000370: 063c b7bc 0809 d7bd ba7e d43d e43a da3c
00000380: 8285 edbc 3f9d 72bd 9905 9f3c 9fa2 e3bc
00000390: 6f99 923c ab08 b3bd ed8b 7d3d 7ab3 1e3d
000003a0: 6678 1a3d b983 0ebd 13fe 6b3d 7bf0 c03d
000003b0: 329c da3d bd37 8bbd 5843 a23d 8453 003d
000003c0: ba60 303d 4bd6 8b3d 3819 e6bc 18d1 1dbd
000003d0: b051 593c 85ac 74bd 470e 8a3d 95b1 ecbc
000003e0: 81f8 363c 86e9 ea3c 88c6 b6bd ae49 a6bd
000003f0: 4489 323d cc33 c53c 16fc d23d ea96 93bd
0.024868242 0.02856334 0.07422095 0.03229099 -0.030346742 0.070171595 -0.062577344 -0.047274414
-0.072438225 -0.042270135 0.014730966 0.010743052 -0.009422095 0.1250433 -0.017777234 0.026074672
-0.02369584 0.094237834 -0.06858817 0.09288738 0.050477352 -0.07241204 -0.00504765 0.086330906
-0.012404713 -0.08483416 0.08545274 0.10036719 -0.07796279 -0.06783885 -0.06591729 0.0739094
0.09818073 -0.06542762 -0.08539546 -0.014237768 -0.047114123 0.1080554 0.01575741 -0.08148447
-0.07684032 -0.06434873 0.04768886 0.07397387 -0.042820863 0.08312162 -0.03026525 -0.055837534
0.050050043 0.06169663 0.060268752 -0.05038463 0.060536884 0.0035411173 0.13021113 0.091102876
-0.06443653 -0.10035017 0.011713522 -0.05533332 -0.09324639 -0.05243538 0.012269406 0.0006296499
-0.087396294 0.02224252 0.052536495 0.08265427 -0.01795662 0.017213207 0.059443425 0.06584372
-0.09075648 0.010854661 -0.0920083 -0.06382242 0.02220366 -0.095973186 0.058148228 0.06708442
0.06962871 -0.0035064288 0.07742613 -0.012928135 -0.08178288 0.06657465 0.003280418 0.054565713
0.018010847 0.082653664 0.013790676 0.04156546 -0.010958382 0.007969573 0.009472245 -0.106457666
-0.06997623 -0.015470993 -0.018967424 -0.10117608 0.08094588 0.037133 0.00045919654 0.08957804
-0.014368778 -0.032635134 0.079861514 0.016143063 0.033890646 0.097699754 -0.091941215 -0.0993182
0.05452009 -0.10566422 0.011532894 -0.08030198 0.01607559 -0.02130612 -0.060668234 -0.04493702
-0.024464529 0.05422788 -0.06355427 0.084401935 0.021915952 -0.10931507 -0.07787552 0.07555115
-0.0033187058 -0.00970226 0.019828288 -0.059627965 0.0630535 0.0582366 0.09098496 -0.09131668
-0.018155582 0.032395255 0.074987605 0.05487282 -0.10519189 -0.043219563 -0.09674468 0.077966705
0.04357778 -0.01240624 -0.050151784 -0.065945715 -0.09125416 0.083780475 0.038831856 -0.06393962
-0.05577219 -0.058116995 0.051091637 0.027028767 0.06648806 0.036331464 0.07580729 0.024576703
0.06616424 -0.09784421 -0.03215295 0.030675204 -0.023483349 -0.08937938 0.077397734 -0.053368267
0.0517468 0.020554267 -0.052050494 0.07604268 0.09716376 -0.017353855 -0.040062826 0.00088425924
0.03626865 0.10952126 0.041142043 0.073015906 -0.11166018 0.029798143 0.04073578 -0.07005269
0.0013085875 0.0094135925 0.03923358 0.036249235 -0.056943253 0.068452194 0.0249758 -0.0028694568
-0.046684317 -0.0016177358 -0.09077446 -0.055209532 -0.08009215 0.011578004 -0.06626877 -0.10982404
0.0073410557 0.0267738 -0.04072009 0.08657412 0.028197581 -0.08320746 -0.08385107 -0.067888595
-0.08420034 0.10003337 -0.032157656 -0.0066744057 0.019855913 0.053257193 -0.042571712 -0.10116541
-0.09112255 0.049077153 0.09453917 0.01821575 -0.022367489 -0.104997694 0.10375734 0.02663941
-0.028994326 -0.059231993 0.019411849 -0.027787505 0.017895428 -0.08741888 0.06190102 0.03874538
0.037712477 -0.03479359 0.05761535 0.09420868 0.10674323 -0.067977406 0.07923001 0.031329647
0.043060996 0.068279825 -0.028088197 -0.038529485 0.013264105 -0.05973484 0.067410044 -0.028893271
0.011167646 0.028675806 -0.089245856 -0.08119522 0.043587938 0.02407255 0.10301988 -0.07206519

l1.bias f4 [84]
00000000: 2813 29bd d6c9 dfbd cd9c c6bd 72ec 833c
00000010: 97c0 a6bd 02df 3cbd df0f 513d 209e e1bd
00000020: fcbf 9ebc a12a 8b3d ee02 0a3d 9a2e 3abd
00000030: 97b3 593e 8502 4d3e 8d25 b2bd 6a41 133b
00000040: 920b aebd bad6 f03c ee42 d0bd bccf 533e
00000050: ea38 f6bc fe5c a73d 33ae b8bd 6938 1b3e
00000060: ac8a 083e aff4 473d 63a7 c0bd 4c16 133e
00000070: 83a7 af3c 7b60 9dbd fb46 c03e 8ea5 0b3d
00000080: 8909 e1bd 21ef aebd 63f8 ddbd d1a8 86bd
00000090: cc0a ac3d 8c15 123d fbcd 75bd 2907 aabc
000000a0: cacc 81bd a28b 593e 55fb abbd 95ec 8cbd
000000b0: bcb9 863e 1dcf 44bd 60ab 2f3e 21cb cebd
000000c0: 08b3 edbc 5498 823e 2abd 663d 62af 05bc
000000d0: d760 bb3b 1bbb 093e e8b7 d8bd b109 2d3e
000000e0: 4a22 dcbd 4fcc a4bd d3dd 46bd d3d8 a7bd
000000f0: b943 ccbd 5967 08bc 0ba2 783c ac9a a5bd
00000100: 33b2 ba3d e84c 9fbd f8d3 b4bd 611e 633e
00000110: 23f4 8abc 6536 0dbd 161c 853d 3103 c63d
00000120: 1cd3 913e 833e e3bd d36e 943d ddce e0bc
00000130: b5f7 5ebd ad30 8cbd da5d 87bd 92e1 51bd
00000140: d26b 8bbd 1ee9 bebb 05c7 383d 46e7 5a3d
-0.041278034 -0.10927169 -0.09697876 0.016103957 -0.08142202 -0.046111114 0.051040526 -0.11016488
-0.019378655 0.0679524 0.0336942 -0.0454546 0.21259914 0.20020492 -0.086985685 0.002246941
-0.084983006 0.029399265 -0.10169016 0.20684713 -0.030056436 0.08172034 -0.09017601 0.15158238
0.13334149 0.048817333 -0.094069265 0.14363974 0.02144218 -0.07684418 0.37554154 0.034093432
-0.10988147 -0.08541704 -0.10838392 -0.06575168 0.08400497 0.03566508 -0.06001089 -0.020755367
-0.063378885 0.21244672 -0.08397547 -0.06881062 0.2631358 -0.04804908 0.17155218 -0.100973375
-0.029016033 0.25506842 0.056332745 -0.00815949 0.0057183313 0.13450281 -0.10581952 0.16898228
-0.107487276 -0.08046781 -0.04855139 -0.08195653 -0.099738546 -0.008325421 0.015175353 -0.08086142
0.0911602 -0.077783406 -0.08829492 0.22179557 -0.016962117 -0.034475703 0.064994976 0.096685775
0.28481376 -0.110959075 0.072477005 -0.02744239 -0.05443545 -0.06845222 -0.06609698 -0.05124051
-0.068076745 -0.0058261296 0.045111675 0.053443216

l2.weight f4 [256, 84]
00000000: f3e0 b7bd 49e4 a0bd 97fd 21bc fa86 253d
00000010: be42 ecbc aa56 eb3b 57d0 1e3d 85ca d83d
00000020: b658 143d 93ed 3bbd f796 c7bc 6a4f 88bd
00000030: 1abd 7f3d 72ed acbc c6f0 bf3d cf93 753c
00000040: cf0e cc3d a405 9c3d 2eb2 d8bd 8799 a13d
00000050: be64 b83d 403b 0c3d 856d bcbd c88e de3d
00000060: f7c7 b53d a21b edbc b7d3 0fbd d460 c9bc
00000070: 10d5 46bd a9d3 903c 8868 943d 8acc b33c
00000080: 3d44 87bc 2bf5 8fbc cb99 eabc 7543 05bb
00000090: ce13 8a3d 4657 963c 05fc 9a3b 93c1 b6bd
000000a0: d1b3 c33d f3ab 70bd b2cd c53d d355 3dbb
000000b0: b2e0 06bd c405 67bd bacd b03d 78cc 58bd
000000c0: 8197 98bd 3395 56bd 2d61 33bd a023 803d
000000d0: b10c 86bd 667a 593d f801 633b 1d67 4ebd
000000e0: b278 40bd e6c7 ccbd 9383 c3bd 9c18 663c
000000f0: 8bf9 a7bc c7b8 803c 5d37 c6bd 6def bcbd
00000100: f1fa 76bc c4e0 c5bd f0cb 4abb b89a a2bd
00000110: 8093 653d 0c65 bb3d 3ea7 dc3c 7442 a83c
00000120: 17d1 85ba dd7a 153d e1d1 e43d f6a3 03bc
00000130: 36e1 013d 49c1 77bc b0e8 613d e93b 5a3c
00000140: d4ed c33d 89f7 c5bb e899 ac3d abd5 c93d
00000150: dfc2 cdbd e722 54bc d81e a23d 2568 02bd
00000160: 4628 bc3d e04f c2bb 66d2 503d 51a8 a03d
00000170: b193 943c a801 83bc f238 c23b 1dd4 ccbd
00000180: d658 cfbd 8d95 813d 1b4e 9dbc 6d8a 80bd
00000190: 325f 33bd e9d9 6a3d 1c55 bcbd 6b34 ab3d
000001a0: c93b 943d 9c3c 02bc 8107 5cbd 83d3 8cbd
000001b0: 01b2 c03d 37fa c0bd f638 adbc e37e 7fbd
000001c0: e732 903d 0adb cb3d a442 56bd f40c a1bd
000001d0: 193d 80bd a1e9 ed3b d154 273d 8f87 1cbd
000001e0: a8dd 8dbd 2e7c 8d3d 9bbd 0cbd d651 303d
000001f0: 1d91 e5ba 8fa1 bbbd 8191 68bb 0cdc dbbc
00000200: 4207 1fbd e83c 853d b3d8 a73d daf8 8dbc
00000210: 085f d9bd d4b9 e5bc 8d40 8c3c e4fb 903d
00000220: 26a7 f33c 6961 9cbd a990 25bc aa4c da3c
00000230: 6388 2fbd e7ae f3bc a0dc c0bd 3497 dbbc
00000240: 35b0 c5bd 7cdd a53d 146f 66bd 1200 58bd
00000250: 9396 a0bd 1dcc a9ba 57a1 283d add7 343d
00000260: 1586 d93d 0662 c6bc 8cc2 4abd d340 f33c
00000270: 5c3d a23d 08aa b4bd fc30 c23c 5ac7 68bd
00000280: a578 8c3d b8e5 b83d d695 9bbd e1b9 883d
00000290: 9b8a 383d ea80 b03d 59c1 6ebd 2ef9 b23d
000002a0: 6157 083c 0f2f c73d 464c 87bd e366 243d
000002b0: 975c 8bbc f82e bc3d e33c 943d 4f3a a03c
000002c0: 24d3 b8bc a4cb a3bd c65e 43bd c52e b63d
000002d0: 7b43 82bd 6c55 2fbc 0214 933d 5339 5e3d
000002e0: 45fd 7d3d 46cf 9fbd e51b 1c3c 531b 4abc
000002f0: 72ec ae3d cee5 a93d 8eaa e73d 3dba 41bd
00000300: 6109 b9bd 6ed3 273c e319 afbd 7ff4 c8bc
00000310: 7f44 b3bc 75a8 923c 1812 4cbd c68f 543d
00000320: 9614 94bc 0211 773d ea55 e13d 6f91 b63c
00000330: 10fb a1bd cf1f 30bd 6749 bd3d 5341 32bd
00000340: be3c cb3c af71 64bd 38a9 43bd 668a 50bd
00000350: dff7 a8bd 0a65 953c ee92 b1bb 3d4f 79bd
00000360: 325a 86bd 7675 95bd f67e 803d 6bbe ad3d
00000370: 3f83 6fbd f394 0a3c 8638 ba3d 4691 543d
00000380: 0960 46bd e7a8 c73d b6e9 8fbd 16d8 01bd
00000390: 9521 71bd bb97 e3bd aeca 98bc 3936 133d
000003a0: 8ce2 dd3b d366 86bc 535e cebc 675f 16bd
000003b0: 22a6 003c 5f42 3f3d e03f 6abd 708b 6e3c
000003c0: 9302 2c3c 1c07 5b3d 07a3 8cbd ee75 bd3d
000003d0: e7de dc3d 25f9 72bd 2087 81bc 454f 9fbd
000003e0: bb43 d33c e6e7 8cbd 76c3 713d b7f8 2fbd
000003f0: 89e4 93bd f388 81bd 1c90 95bd 23d1 8a3d
-0.089784525 -0.07856042 -0.009887121 0.040411927 -0.028840419 0.007181962 0.038772907 0.105855025
0.036217414 -0.045880865 -0.024363978 -0.06655772 0.0624362 -0.021109316 0.09372096 0.014988854
0.09963762 0.07618263 -0.1058086 0.07890611 0.0900359 0.034236193 -0.09200577 0.10867077
0.08876031 -0.02894384 -0.035114016 -0.024582304 -0.048543036 0.017679052 0.072465 0.021948118
-0.01651203 -0.01757296 -0.028637787 -0.0020334397 0.06742059 0.018352162 0.00472975 -0.0892364
0.09555782 -0.058757734 0.09658374 -0.0028890267 -0.03292913 -0.056401983 0.08632989 -0.05292937
-0.07450772 -0.05238838 -0.043793846 0.06256795 -0.065453894 0.053095244 0.0034638625 -0.050391305
-0.046990104 -0.09999065 -0.0954658 0.014043953 -0.020504734 0.015713109 -0.096785285 -0.09225354
-0.0150744775 -0.09662011 -0.003094431 -0.079396665 0.05604887 0.091501325 0.026935216 0.0205395
-0.0010209408 0.036494125 0.11172844 -0.008034697 0.03170892 -0.015121766 0.05515355 0.013319948
0.095668465 -0.0060414714 0.08427793 0.09855207 -0.10046934 -0.0129477745 0.07916039 -0.0318376
0.09187369 -0.005929932 0.0509819 0.07844604 0.018136831 -0.015992 0.0059271986 -0.10001395
-0.10124366 0.06327353 -0.019202283 -0.062764026 -0.043791957 0.05733672 -0.09195921 0.08359607
0.072379656 -0.007949021 -0.053718094 -0.0687628 0.094089516 -0.09422725 -0.021145325 -0.062376868
0.07040959 0.09953888 -0.052309647 -0.07863799 -0.062616535 0.0072605168 0.04085237 -0.038215216
-0.06927043 0.06908451 -0.03436051 0.043046795 -0.0017514561 -0.09161674 -0.0035487118 -0.026838325
-0.03882528 0.065057576 0.08195629 -0.017330576 -0.10613829 -0.028042711 0.017120624 0.07079294
0.029742789 -0.07635767 -0.01010529 0.026647884 -0.042854678 -0.029746486 -0.09417081 -0.026805498
-0.096527494 0.080988854 -0.056258276 -0.052734442 -0.0784122 -0.0012954507 0.04116949 0.044150997
0.10621277 -0.024216663 -0.04950194 0.029693997 0.079218596 -0.088214934 0.023704998 -0.05683074
0.068589486 0.090281904 -0.07596938 0.066760786 0.04505406 0.086183384 -0.05828986 0.087389335
0.008321614 0.097257726 -0.06606345 0.040137183 -0.017011924 0.09188646 0.07238176 0.019559054
-0.022561617 -0.07997826 -0.047697805 0.08895639 -0.06360527 -0.0107015185 0.071815506 0.054253887
0.062009115 -0.07803206 0.009528135 -0.012335616 0.08541192 0.08295785 0.113118276 -0.04729675
-0.09034992 0.01024328 -0.085498594 -0.024530647 -0.021883247 0.017902592 -0.049821943 0.051894926
-0.018076222 0.060318954 0.11002715 0.022286145 -0.079092145 -0.042999085 0.09242516 -0.04351933
0.024809238 -0.05577248 -0.0477688 -0.050913237 -0.08250403 0.018236656 -0.0054191267 -0.060866583
-0.06560172 -0.072977945 0.06274216 0.08483585 -0.058474775 0.008458364 0.09092812 0.051896356
-0.04843143 0.097490124 -0.07026999 -0.031700216 -0.058869917 -0.11112925 -0.018651333 0.035940383
0.0067713913 -0.016406452 -0.025191462 -0.036712077 0.007852109 0.046694156 -0.057189822 0.014559612
0.010498661 0.053473577 -0.068670325 0.09251009 0.10784703 -0.059319634 -0.015811503 -0.07778791
0.025789132 -0.068801686 0.059024297 -0.042961802 -0.07221324 -0.06324949 -0.07302877 0.06778171
