models/fedavg/localmodel0experiment_log-2023-09-04-1859-48.pth (torch, 375691 bytes, 14 tensors)

features.conv1.weight f4 [6, 3, 5, 5]
00000000: b9f0 0ebd 9cce 0bbe 9c7f d13c 5d63 37bd
00000010: 2941 26be 32de 1c3d 447e e83c 0ee3 7b3b
00000020: 6f1e 4fbe 65c0 d5bd ca4e ca3d eaf6 573d
00000030: 71df 8b3d 7c08 5dbd 51e2 37be 5efd 7dbb
00000040: 51b0 103e ba17 283e 921b 213e 9046 863d
00000050: 4355 3abd c567 b7bd bae4 e73d 106b 90bb
00000060: 8939 a43c 6809 0dbd 5c4a fc3c 3166 c5bd
00000070: bd25 793d 47a4 893c 566d a23d 3560 23bd
00000080: ce10 d5ba 1254 f1bd 8fd1 23be 362c 323e
00000090: f525 1f3e eb78 203e 6246 933d 70d2 a33d
000000a0: 57c2 b03b a843 1b3e e20a 103e 9e72 043e
000000b0: 6b5e a03d e14a 153e efcf 233e b177 ce3d
000000c0: 2ff8 8e3d 4b02 243e d68b 9c3d deb1 8f3d
000000d0: 0c6d b1bd ea3f f43c 634b 1a3d e1b7 4fbd
000000e0: a52b 7fbc adf7 87bd 22f3 e1bd 4979 51be
000000f0: 3bfd 933d 584e 5abd a827 8bbd 1394 a83b
00000100: 9d93 793c b458 243c af7a c03d 654f 7d3c
00000110: 4816 7a3a 5647 0fbd 4104 cebd cb86 00be
00000120: 1783 773c bf49 18be 56ea 973c 937e 0d3e
00000130: cd2d 413e f604 293e 4385 1d3e 3ef1 db3d
00000140: 263c f83d f601 133e a1a7 743e 4dae 913e
00000150: 83a0 cc3d 0ab5 093e ac12 613e e209 173e
00000160: 6a44 903e 254c 373e 2bce 8a3d 1649 a63d
00000170: 89cb 083d 4d34 1dbe 2883 33be 3bdf 8fbe
00000180: 4713 40be 3b5b 64be d6e8 a5be ee2d a2be
00000190: f8e3 aa3d f0b9 573d 6417 c4bb 4440 563d
000001a0: 220f d9bd bb34 c6bd 4b89 75bd ba47 a0bd
000001b0: 7691 69bc d46a 37bd da23 0cbc 3a57 87bd
000001c0: 63be 163e d1e2 1ebd 855e 263d 8cfa d33c
000001d0: 7873 2bbe 57ea 35be 1245 fabd bfb3 483c
000001e0: c34e 30be fb92 8dbe 974b a3be 7675 56bd
000001f0: 765e 35be fa9b 243d bef2 173d a492 14be
00000200: d4bc bcbd 6111 48bd 600c 0abe c2c7 14be
00000210: 931b 453d 96b6 77bb 6dd2 b6bd 3ef7 f23d
00000220: b23e 1f3e f826 5a3e 11f9 b83d 4a90 0a3e
00000230: eb79 3c3d 7c97 c0bb bbe5 e13d 1ca1 073e
00000240: 8b2a bb3d 1b45 b2bc b306 f6bd b8f6 0dbe
00000250: dbda 87bc 8c80 69bd a82a 0cbe 8818 2e3d
00000260: 8215 fcbd 87b3 9abc 825b cdbd 9385 c43d
00000270: aa83 a03d f02a 003d c532 f03c f720 8d3d
00000280: 5dee 87bd fd15 7dbd f932 7bbd 5d78 e9bd
00000290: 8fd9 96bd 8c7a 39bd 1443 63be 95c7 56be
000002a0: e03f ebbd 7e82 3ebe 870e 9a3e 762f a33e
000002b0: 1ab9 0e3e 5b46 923e ee58 9b3e 2d52 0b3d
000002c0: a2e0 903c f9da a3bd ca08 78bb b389 19be
000002d0: 6ca6 3abd 4c3a 603c c1ec 153e eac9 a53d
000002e0: 3222 0c3e 7888 79be 5bff cbbd 57c5 26be
000002f0: 54d4 2ebe 2c0f 2dbe 0831 2fbe ed08 bdbd
00000300: e420 aebe 6237 debd 5cbd ddbd 5140 273d
00000310: 0c5b 353e dd44 023e d9d9 303e ec43 36bd
00000320: 10ff a53d 57eb 263e 8293 fdbc 8e0d cc3d
00000330: 1482 ab3d eb11 323e 4704 533e 5824 bf3d
00000340: 3462 413e 6b65 013d 9744 18be d035 8dbd
00000350: a972 51be dda4 7b3d 8ded 0bbd a62d 12be
00000360: 360f 87bd f90f 0ebe 0c47 05be 535c d7bd
00000370: bbba 1a3d 17f2 4a3e 8376 683e 3c82 123e
00000380: bff8 dc3d 6ec0 073d abe6 893d 6955 6ebd
00000390: 8931 d2bc 9cdb edbd 452b 353c 653f 52be
000003a0: 3938 0bbe de51 f4bd afc8 0abe 6787 35be
000003b0: 7a2d 49be ea72 21be 66b7 fcbd 36a8 1abd
000003c0: 3340 40be af04 62bc a5a8 dfbd 79db dabd
000003d0: efeb a8bd ac39 8dbc 7f14 83be f8f8 56be
000003e0: 2cd1 4bbe a449 9dbd 2ebe 1c3d b8f1 f4bd
000003f0: a9c1 40bd 1be7 2cbe d313 ebbc f1bb d9bc
-0.03489754 -0.13653034 0.025573544 -0.044772495 -0.16235794 0.03829784 0.02838052 0.0038434896
-0.20226453 -0.10437087 0.09878309 0.05272571 0.068297274 -0.05396317 -0.17957427 -0.0038755755
0.1412976 0.16415301 0.15733173 0.065564275 -0.04549147 -0.08955339 0.11322923 -0.004407294
0.020046966 -0.0344328 0.030797176 -0.09638632 0.060827006 0.016801966 0.079310104 -0.039886672
-0.0016255619 -0.11783613 -0.15997909 0.17399678 0.15541823 0.15671127 0.07191159 0.07999122
0.005394261 0.15162528 0.14066651 0.12934348 0.07830509 0.14579345 0.15997289 0.10081423
0.06980931 0.160165 0.07643859 0.07016347 -0.08663377 0.029815633 0.03766955 -0.05071247
-0.0155743705 -0.06639037 -0.11032702 -0.20456423 0.07226034 -0.05329737 -0.06794673 0.005144605
0.015232948 0.010030914 0.093984 0.015460824 0.00095400633 -0.03498014 -0.10059405 -0.1255142
0.015106938 -0.14871882 0.018544357 0.13817815 0.18865128 0.16505799 0.15382867 0.10739373
0.121208474 0.14356217 0.2389207 0.28453293 0.09991553 0.13447967 0.21979779 0.14749864
0.28177196 0.1790014 0.06777605 0.08119409 0.03339723 -0.15351982 -0.17530501 -0.281
-0.18757354 -0.22300427 -0.32404202 -0.31675667 0.08344263 0.05266756 -0.0059842337 0.052307382
-0.105985895 -0.09678026 -0.059945386 -0.07826181 -0.014255872 -0.044779614 -0.00855347 -0.06608434
0.14721064 -0.038790528 0.040617485 0.025876306 -0.16743267 -0.17765175 -0.12220205 0.012249886
-0.17217545 -0.276512 -0.31893608 -0.052358113 -0.17711815 0.040187813 0.03709673 -0.14509064
-0.092157036 -0.0488447 -0.13481283 -0.14529327 0.048122 -0.0037798039 -0.08926854 0.11863564
0.1555126 0.21303928 0.09031881 0.13531604 0.046014708 -0.0058774333 0.11030146 0.13245052
0.09138974 -0.021761468 -0.120129965 -0.13863647 -0.01658385 -0.057007357 -0.13688147 0.042503864
-0.1230879 -0.018884433 -0.10027219 0.0959579 0.07837613 0.03129095 0.029321084 0.06891053
-0.06637261 -0.061788548 -0.06132791 -0.113999106 -0.07365715 -0.045282885 -0.22193557 -0.20974572
-0.114867926 -0.18604466 0.30089208 0.31872147 0.13937798 0.28569302 0.30341285 0.034013916
0.017685238 -0.0800075 -0.0037847036 -0.14993934 -0.04556887 0.013685774 0.14641096 0.08095153
0.1368492 -0.24368465 -0.099608146 -0.16286217 -0.17073184 -0.16900319 -0.17108548 -0.09230218
-0.3400947 -0.10850407 -0.10827133 0.04083282 0.17710513 0.12721582 0.17270602 -0.04449837
0.0810529 0.16300713 -0.030954126 0.09963523 0.0837442 0.17389648 0.206071 0.09333104
0.18885118 0.03159086 -0.14869915 -0.068950295 -0.20453896 0.061436523 -0.034162093 -0.14275226
-0.06594698 -0.1387328 -0.13015383 -0.10515656 0.037775736 0.19818912 0.22701459 0.14307493
0.10789632 0.0331425 0.067334495 -0.058186922 -0.025658386 -0.11614153 0.01105768 -0.20531996
-0.13595666 -0.119296774 -0.13553117 -0.17727433 -0.19646254 -0.15766492 -0.12339668 -0.037758075
-0.1877449 -0.013795062 -0.10920838 -0.10686392 -0.08248126 -0.017239414 -0.25601575 -0.20993412
-0.19904011 -0.076800615 0.038267307 -0.11960167 -0.04705969 -0.16885035 -0.028695976 -0.026578875

features.conv1.bias f4 [6]
00000000: 69c7 9d3e da80 0abf 70e4 73be 3381 093e
00000010: ff8f c0be d0ab c43d
0.308162 -0.5410286 -0.2381761 0.13428192 -0.3760986 0.09603083

features.conv2.weight f4 [16, 6, 5, 5]
00000000: dac6 433e 2f10 053e a945 663d 420a 38bb
00000010: e69a a63d b086 053e be9a ab3d c070 a23c
00000020: 15da 8fbd b7f7 16bd bc0e 153e 723d 7f3d
00000030: 6290 e23c 989a e23b c18f 06bd 2499 f43d
00000040: 7c0e cc3d 2c2a 1ebd 9f74 c03d 8699 503d
00000050: 197e 00bb deb2 09bc daf4 bbbd 09b5 d53c
00000060: 6848 d03c 36c1 903d 0391 45bd 3355 3a3d
00000070: 0032 473d 21ed b23b 0423 9c3c f3c1 183d
00000080: 3592 47bd 4197 883d ec6e 153d bcce 62bc
00000090: f86b 24bd 463d 9a3d bbb6 ba3d af1f 1b3d
000000a0: 20cb b83d 8720 d63d 0df4 983b 3b3d 913d
000000b0: f4c3 bfbc 0486 3f3d 8657 05bc a361 a43c
000000c0: 7355 5d3c 8ebe a53c ab9a ca3c 6703 5abc
000000d0: 6f32 b83d b674 b7bb b71f e6bc c934 5b3c
000000e0: 60a0 c73d a233 7d3d 555c c53d 870f 913c
000000f0: 33e1 6d3c ed16 243c c055 a2bd c8c5 a73d
00000100: a843 b43d 14db ae3c 0399 1cbc 5064 c3bd
00000110: ecbd cabd 03bd cebd 681a de3b 247a e7bd
00000120: b804 6fba 077e 4d3c 3db6 cdbc 12d0 e03d
00000130: 828b d43d 905b cd3d 6f60 823c d67e 123e
00000140: bbdb 873d 1fa2 b3bd d3cd 8ebb 7ace 34bd
00000150: c16d 943d 0610 3dbd 13ff 3fbd d307 e3bd
00000160: 2b12 0cbe bf9a 0abd 2e39 8cbd 1b20 b33c
00000170: 7d3a 6ebd a179 ab3c 5913 c13b 3c4b 12bd
00000180: af22 9e3d 4241 ca3c 72ee 6fbd 2aea d23d
00000190: 7601 033d a4c2 67bd 7e4c 1fbe 541c 1cbe
000001a0: 0380 2bbe 1175 0dbe b382 b3bd 5ff1 31bd
000001b0: e000 b6bd 2304 2ebe a4d2 a4bd f454 efbd
000001c0: 6097 02be df39 b6bd 2432 0abe e3b9 41be
000001d0: ac8a 2cbe 42ed 25be e931 0abe 2ea1 f4bd
000001e0: a449 fabd d671 28be e14c 26be ae96 27be
000001f0: 8464 d5bd 1e5d 9c3d f24d 003d f5c7 9a3d
00000200: b678 153d 1ac1 483c cf42 a63c 85cc c43c
00000210: dca7 12bd 2df5 fe3c 4072 ad3d 53b1 773d
00000220: 737d 82bc 3301 a3bd f17b e4bd b6fc 5dbd
00000230: 0068 a03d 2931 b3bc 925d 0d3d ae49 993d
00000240: 36be 78bc c2f3 093c 4c1f 783d c88e ea3d
00000250: a78a 10bc 3356 ac3d 39b5 d13d 90db 1ebd
00000260: 9647 a9bd 1213 4f3d a7e0 b1bd af4b fbbc
00000270: 5a93 213d a33b 90bc d080 93bd 01a1 adbd
00000280: 6255 313d 8d68 263d ae44 e9bb 6ff0 3c3d
00000290: e49f fa3c 0487 7abd d1cf 733a 8b3d 673c
000002a0: c396 77bd 5146 53bd e670 183c ee1c 90bd
000002b0: a5d1 053d 3351 b6bc 6ff5 afbd 6f7e f23b
000002c0: 9e09 06bc 905e 623c 306c b53d 6b90 b73d
000002d0: 9e46 2a3b 1e68 e2bc b1be 06bc 8ed5 27bd
000002e0: 4853 863d fe37 8c3d 5eef c3b8 d071 3a3c
000002f0: 926e 9c3d 290c 6d3d 60c1 c03c 7874 c7bc
00000300: 8a5b 803d 9481 ca3d 66df 6b3d 859b d73d
00000310: da3a 453d 9b9f adbc ebe2 6f3d ad37 6dbc
00000320: 4b63 fc3d a5a2 023e 4501 ca3d ab85 f43b
00000330: 701c fbbb 2fb7 1b3e 855a 743d 8629 1f3e
00000340: e54e e63d 424a 4e3d 4425 b23c eca2 36bd
00000350: 3b26 eb3b d759 92bc e10d ca3d c86e 2dbd
00000360: 2d4c d33c 0813 243d da96 543d 767c 5d3d
00000370: c2b3 91bd 003f 1b3d 763e 1f3d 4480 babd
00000380: 41c5 d1bd 8c7a c13d 711d 073d ea47 a53d
00000390: 671f 853d 58ce a83d fc29 463d 1a1a 323c
000003a0: 04a2 8c3b 0d37 a5ba 909d 4a3c c7c6 913c
000003b0: 1ef9 1b3d d26d 9e3d 3b23 a5bc 9665 263d
000003c0: e301 f73c c720 f63c ac15 2abd 3f7d 223d
000003d0: 7a62 d8bb 3e53 0e3d 628e 803d 93fb 68bd
000003e0: 02da 4cbd 86e3 86b9 b85e 92bd 4fa1 b53c
000003f0: 8d20 dcba 90b4 513d 9845 82bd 8c00 a33c
0.19118825 0.12994455 0.056218777 -0.0028082286 0.08135013 0.1303966 0.08379124 0.019829154
-0.07024018 -0.036857333 0.14556402 0.06231446 0.027656738 0.0069154017 -0.03285194 0.11943272
0.099637 -0.038614437 0.09397244 0.05092766 -0.001960641 -0.008404462 -0.09177561 0.0260873
0.025425151 0.07068102 -0.048233997 0.04549141 0.048631668 0.005460397 0.019059666 0.03729434
-0.04872342 0.066694744 0.036482736 -0.013843235 -0.04014203 0.07531218 0.09116884 0.037872013
0.09023118 0.10455423 0.004667765 0.07091757 -0.023408867 0.046758667 -0.008138543 0.020066088
0.013509142 0.020232465 0.024731955 -0.013306475 0.089939944 -0.00559863 -0.028091295 0.013379284
0.09747386 0.06181682 0.096367516 0.0177076 0.014519024 0.010015232 -0.07926512 0.08192021
0.08801967 0.021344699 -0.009557965 -0.095406175 -0.09899506 -0.10094645 0.00677805 -0.11302593
-0.00091178296 0.012542254 -0.025111312 0.10977186 0.103781715 0.1002723 0.015915124 0.14306197
0.06633707 -0.087711565 -0.0043580323 -0.044142224 0.072474964 -0.04615786 -0.046874117 -0.11085477
-0.13678806 -0.033838984 -0.06846844 0.021865895 -0.058161248 0.02093202 0.005892199 -0.03571628
0.07721459 0.02468932 -0.05857701 0.102985695 0.031983815 -0.05658211 -0.15556523 -0.15245181
-0.16748051 -0.13814189 -0.08765163 -0.04344308 -0.08886886 -0.16993766 -0.08047989 -0.116861254
-0.12753057 -0.08897757 -0.1349569 -0.18918566 -0.16849774 -0.16203788 -0.13495602 -0.11944805
-0.12221077 -0.16449675 -0.16240264 -0.16366073 -0.104195625 0.07634948 0.031324334 0.0755767
0.036492072 0.01225307 0.020295529 0.024023304 -0.035804614 0.031122768 0.08469057 0.060471844
-0.01592896 -0.07959213 -0.111564524 -0.054196082 0.078323364 -0.021874027 0.034513064 0.074847564
-0.015182069 0.008419933 0.060576722 0.114530146 -0.00882212 0.08414879 0.102396436 -0.03878361
-0.08265607 0.050555296 -0.08685427 -0.030675737 0.039447166 -0.017606562 -0.072023034 -0.08477975
0.043294318 0.04062705 -0.007118783 0.046127733 0.03059382 -0.061163917 0.00093006814 0.014113794
-0.060446512 -0.05158073 0.009304261 -0.07036768 0.032670636 -0.022255516 -0.085917346 0.007400326
-0.008181004 0.013816491 0.08858526 0.089630924 0.0025982033 -0.027637538 -0.008224175 -0.040975146
0.065588534 0.06846617 -9.34291e-05 0.011379674 0.07638277 0.057872925 0.023529708 -0.024347529
0.0626746 0.09887996 0.057586096 0.1052771 0.04815183 -0.02119427 0.058566015 -0.014478606
0.12323626 0.12757356 0.098635234 0.0074622235 -0.007663302 0.15206598 0.05965664 0.15543184
0.11245517 0.050363787 0.021746285 -0.04458897 0.0071761883 -0.017865105 0.098659284 -0.042341977
0.02579316 0.040057212 0.051901676 0.054073773 -0.07114364 0.03790188 0.038877927 -0.09106496
-0.10242701 0.09447202 0.032987062 0.08070357 0.0650013 0.08242482 0.048379883 0.010870481
0.0042917747 -0.0012604907 0.012366667 0.01779498 0.038079374 0.0773579 -0.0201584 0.040624224
0.030152267 0.030044926 -0.041524574 0.039670225 -0.006603536 0.034747355 0.06277157 -0.056880545
-0.050012596 -0.0002572799 -0.071469724 0.022171644 -0.0016794369 0.05119759 -0.0636093 0.019897722

features.conv2.bias f4 [16]
00000000: 7925 c43d 33eb 09be 2531 bc3c d4b3 b13b
00000010: 50df a5be fb85 1cbe 303e dabd 73f3 9ebd
00000020: a813 24bd aeb8 693e e4a6 893c 06d0 93bd
00000030: 4c1a d7bc 8bd4 91bd 2254 813d bcf3 b03c
0.0957746 -0.13468628 0.022972653 0.0054230485 -0.32396936 -0.15285484 -0.106563926 -0.07761278
-0.04005781 0.22824356 0.016803212 -0.07217412 -0.026257657 -0.071206175 0.06314875 0.021600597

features.fc1.weight f4 [120, 400]
00000000: 4dc0 353d 0c46 1d3d e086 5dbc c5aa 2cbc
00000010: a795 5fba 6421 4fbc 3639 4b3d 61d6 bd3c
00000020: e1a9 10bb 9fad 4bbd 16a4 053d 85dc aebb
00000030: 2d73 d1bc d5bc 44bd ca47 6cbd 7c7c cf3c
00000040: 2261 fdbc 87a4 383d 1390 53ba 7889 8abd
00000050: d6ea 01bd 257b b43c e8c6 ea3c cd74 ac3c
00000060: 4b2e c9bc 7441 3f3d fcaa ee3c 819a 143d
00000070: 5ff3 2cbc d497 043b b9b4 253d 21ba 33bc
00000080: 0110 16bd 5004 4ebd 428d d5bc 0534 4fbc
00000090: 0c33 9b3c 175c 0cbc 5409 883c f34f 1fbd
000000a0: 998e 6fbc 9d0a 213d 99ea 8c3c 6bb3 96bc
000000b0: 6996 083d db46 b43c e868 2e3d be12 96bb
000000c0: 1608 20bc 791f 873c 7a2e f4bc 07c1 8d3c
000000d0: 61aa e63c a3ba 8dbc 2f3b 143d 2ca6 133d
000000e0: 4f71 723c 6744 893c a68a 9abb d30d 073d
000000f0: 8aca ef3c 755a 07bd 9963 c7bc 8f9e f9bb
00000100: 8269 223c 5084 35bd 95ee f23c 0dc8 47bd
00000110: fb23 8ebc 1ce5 a0bb a7ea d7bc f766 a6bc
00000120: 58ed 0f3d 5728 e03c faf3 1cbd 22cc b4bc
00000130: 6d5e dc3b eb5a 93bb 2d22 f53c e5a2 023b
00000140: 4c25 19bc ffea a0bc 5ad0 99bb 9c32 64bc
00000150: e00b 53bd 87eb 0c3d 0688 4ebd 0f35 37bd
00000160: 7840 2c3d 0bfa f43c 809c 3fbd 5c46 2a3c
00000170: 9d2b 93ba c58c 143d 4076 b23c c4ba 52bc
00000180: e846 6dbd 244f 1cbd 8f25 b9bc 7a66 c3bc
00000190: a610 38bc ce99 993c 1df7 c6bc 9f66 51bd
000001a0: f9a3 3f3c fada 8b3c 6d0d 473c 99fb 54bb
000001b0: 6ecd 073d 6c77 0fbd 9822 293d fb3f 1abd
000001c0: 2419 823c c5a3 963c c1b1 c83c 6914 333d
000001d0: 459f 2f3c 8e50 8fbc 94d2 94bc dd47 6abc
000001e0: c704 4a3d 9145 9eba 4274 a3bc 3c5e 51bc
000001f0: 9555 09bd 5dd4 623b adfc fb3c 9d3d b5bc
00000200: c394 daba f4d1 263d 3e04 abbb 0244 b43b
00000210: f099 113c 660c 96bc 04f6 3d3d 3baa 64bc
00000220: fdc5 a2bc 9661 0b3c fd18 bd3c 6350 77bc
00000230: 782c 1abd 4e4d 1bbb 8707 343c 1827 e9bc
00000240: 1923 b4bc 5a8f f2bc d96c 2a3d 3351 113d
00000250: 1424 453d 1097 2fbd 55f1 0dbd 0fac 7abb
00000260: 3629 b73c 9392 133d e986 a93b b8f0 1e3d
00000270: 2405 b23b e74a 7fbc d76b 6fbc c285 333c
00000280: 2bd9 27bd 364d bc3c 0034 823c bb2e 4fbd
00000290: affa 2c3d 4c26 e23c 1d8c 0c3d 63ad f7bc
000002a0: 5a23 3cbc 952a da3b 29bc 4abd 54b9 28bd
000002b0: 7552 f3bc cf74 0fbd 8e5a f9bb 0c0b fc3c
000002c0: 4bcc 393c bf1f 8e3c 3b2a 8abc 898e 0cbc
000002d0: efa8 0f3d 5504 1c3d dca2 dfbc f33a 313d
000002e0: 1f74 223d 33c8 953c d740 40bd a920 1b3d
000002f0: ac16 0d3d a6e6 1fbd 13b2 93bb b6e9 0dbd
00000300: 2a67 f63c a09d 53bd 14b4 d33c 7528 043b
00000310: 6622 e53c 31de 10bd 91bd 073d 833a 7b3b
00000320: 1088 323c e5dc 903c e75c 983c 28a4 563d
00000330: 5954 b6bb 2dd6 ef3c 787d cebc 5d91 853c
00000340: 87d0 dd3b 3b95 f33c b36c 123d d137 3ebd
00000350: 8fe8 143c cd6b 44bd e74d 7bbc bb8d 4fbd
00000360: 3ed1 513c 8790 79bc 2598 35bd 100e d7bb
00000370: 4134 223d 8852 783c b682 2b3d 1bb8 0abd
00000380: fa07 40bd f60f c73c 525c 35bd 5bc6 10bd
00000390: 3698 96bc a845 3cbd 72fb a6bc 148f 82bb
000003a0: ac88 e6bc f91d 16bd 532b 4a3d 8e68 05bc
000003b0: a7fe 9e3c 5bcd 1fbd b4aa 3ebd b4a7 d43c
000003c0: d95c 63bc 5337 cb3c d6e6 4dbd 0f09 4f3d
000003d0: fb71 ad3c 8fde 07bd 63d0 403c b879 40bb
000003e0: 81d1 633c 5386 273d e284 333c c716 733d
000003f0: ee19 b43c 2fab ff3a 8d3b babb b0a1 d33c
0.044372845 0.03839688 -0.013520926 -0.0105387615 -0.0008529075 -0.012642238 0.049615107 0.023173513
-0.0022073912 -0.049726125 0.032627188 -0.0053363466 -0.025567615 -0.048031647 -0.05768565 0.025327913
-0.030930106 0.04507878 -0.000807048 -0.06764501 -0.031718098 0.022031376 0.028659299 0.021051789
-0.024558207 0.04669328 0.029134266 0.03628016 -0.010556071 0.0020232098 0.040455554 -0.01096967
-0.036636356 -0.05029708 -0.026068334 -0.01264668 0.01894524 -0.008566878 0.01660601 -0.038894605
-0.0146214 0.039316762 0.017201709 -0.0183961 0.033346567 0.022006443 0.042580515 -0.004579871
-0.009767553 0.0164945 -0.029807318 0.017303957 0.028157415 -0.01730091 0.036189254 0.036047146
0.014797523 0.01675625 -0.004716235 0.03297217 0.029271383 -0.03304525 -0.024339484 -0.0076177786
0.00991285 -0.044315636 0.02965478 -0.048774768 -0.017351141 -0.0049101245 -0.026357008 -0.02031277
0.035138458 0.027362986 -0.03831861 -0.022069994 0.0067251236 -0.0044969223 0.029923523 0.0019933518
-0.009347271 -0.019643305 -0.004694027 -0.013928082 -0.051524997 0.034404304 -0.05042269 -0.044728335
0.04205367 0.029904386 -0.04678011 0.010392752 -0.0011228208 0.03626706 0.021784902 -0.012861911
-0.05792895 -0.038161412 -0.022600917 -0.023852576 -0.011234438 0.018750098 -0.024287755 -0.051123258
0.011696809 0.01707219 0.012149197 -0.0032498597 0.033154897 -0.035026 0.041292757 -0.037658673
0.015881129 0.018388638 0.024498822 0.043720637 0.010719125 -0.017494466 -0.018166818 -0.01429936
0.049320962 -0.0012075176 -0.019952897 -0.012778815 -0.033528883 0.0034611442 0.030760134 -0.022124106
-0.0016676415 0.04072757 -0.0052190116 0.005501271 0.008886799 -0.018316459 0.046377197 -0.013956602
-0.019869799 0.008507153 0.023083204 -0.015094849 -0.037640065 -0.00236972 0.010988123 -0.028461024
-0.021989392 -0.029609371 0.04160771 0.03547783 0.04813011 -0.042868674 -0.03465398 -0.0038249528
0.022358518 0.036028456 0.0051735532 0.038803786 0.0054327417 -0.015581823 -0.014613113 0.010957183
-0.040978592 0.022986036 0.015893936 -0.050581675 0.042231258 0.027606152 0.03431331 -0.030234044
-0.011483038 0.006657908 -0.04949585 -0.041192368 -0.029702405 -0.035023507 -0.007609672 0.030766986
0.011340211 0.017349122 -0.01686584 -0.008578905 0.035073217 0.03809007 -0.027299337 0.04326911
0.039661523 0.018283939 -0.046936836 0.037872944 0.03444545 -0.039038323 -0.004507312 -0.034646712
0.03007849 -0.051663995 0.025842704 0.0020165716 0.027970504 -0.03536815 0.03313977 0.0038334436
0.010896698 0.017683456 0.018598987 0.052402645 -0.0055642542 0.029276932 -0.025206313 0.016304666
0.006769243 0.029734245 0.035748195 -0.04643995 0.009088649 -0.04795437 -0.015338398 -0.050672274
0.012806235 -0.015232212 -0.04433455 -0.0065629557 0.039600614 0.015156396 0.041872703 -0.033866983
-0.046882607 0.024299603 -0.044277497 -0.035345417 -0.018383127 -0.045964867 -0.02038357 -0.0039843414
-0.028141342 -0.036649678 0.049357723 -0.008142604 0.019408537 -0.0390142 -0.046549514 0.025958873
-0.013877117 0.024806654 -0.05026897 0.05054575 0.021172514 -0.033171233 0.011768433 -0.0029369425
0.01390493 0.040899586 0.010956975 0.059347894 0.02198502 0.0019505973 -0.0056833685 0.025833935

features.fc1.bias f4 [120]
00000000: 86ea adbd 145b 16bd c7c0 1e3c efd4 4539
00000010: 7966 033d f78b f93c ccad 57bd 23c6 a1bc
00000020: 7b46 9b3d 3c99 273d f6ed b1bc 08ed cebb
00000030: ce7e c7bd 078d e1bc e287 72bd 4ad1 ccbc
00000040: cd92 073c 581d 74bc fab3 40bd 1c76 913c
00000050: 1bd0 003d 8eb8 92ba fea3 a5bc f62c ba3d
00000060: 688a a3bc 611b 3b3d 8150 c0bc 8f7c a6bc
00000070: f52f 353d f5f9 b6b8 8ffa 753d 5ab4 c63c
00000080: 22fb 2fbd 44a4 913c 45e4 afbc 38e4 393d
00000090: bcde 023d 0385 2cbd 4de5 423d c017 373d
000000a0: 181b 72bb 2aaa 123c ee4a b03c 1122 81bb
000000b0: d9e3 8e3b 2cda 82bc 1351 b6bb f345 123d
000000c0: 18f6 0ebb 45b9 0bbd b146 593d a826 bbbc
000000d0: 8973 683d 722a 37bd 231c febc 0f76 bbbc
000000e0: 388d 0e3d dcdf 3f3d 0c94 8cbc 8a8d 913c
000000f0: 6da5 10bd 8a9b 393d f3dc 083d bf91 2bbd
00000100: 898e 843c bb89 e8bb af57 a0bc cb09 c03c
00000110: 6287 20bd 3240 8bbd 4f94 db3c 6f73 5b3d
00000120: 10fb 26bd 10d4 e83b 602e 90bd 9998 893d
00000130: 81dd 903c d14f 533d c4ba a6bd a5cc e7bc
00000140: 27a6 98bc 2283 df3c e248 6dbd 84ee c13c
00000150: 8219 51bd e0ea 633d 83e2 203d 7627 87bb
00000160: 0ba6 06bd d6e4 dbbc 14bf ebbb 5c9a 75bd
00000170: 83f7 203d 3069 54bd 121a 233d a7d9 533c
00000180: 48c5 15bd 3517 61bd 9fb1 653c 4db2 b6bc
00000190: e382 8c3c bb79 8d3d d332 633c 34dc e1bb
000001a0: 962b 333c 3cd0 923c c587 75bd 9e8d af3d
000001b0: eb65 953c 2f1e 33bd 7455 27bc f7e5 223d
000001c0: 485e e7bc ef97 9abc 1424 3cbc 8850 f8ba
000001d0: bd4a 103d 2f79 d53c eb14 25bd 3605 1d3d
-0.084919974 -0.036707953 0.009689516 0.00018866708 0.032080147 0.030462248 -0.05265598 -0.0197478
0.075818025 0.04091762 -0.021719914 -0.0063148774 -0.09740983 -0.027533067 -0.05921162 -0.02500214
0.008274746 -0.014899574 -0.04704664 0.017756514 0.031448465 -0.0011193918 -0.0202198 0.09090607
-0.019963458 0.045680407 -0.023475887 -0.020323066 0.04423519 -8.7249944e-05 0.060053404 0.02425592
-0.04296411 0.017778523 -0.021471152 0.045383662 0.031950697 -0.042119037 0.04758196 0.044700384
-0.0036942419 0.008951703 0.021520104 -0.0039408286 0.0043606577 -0.015973173 -0.005563864 0.03571124
-0.0021814164 -0.034112234 0.053045932 -0.022845581 0.056750808 -0.044718213 -0.031019276 -0.022883443
0.034802645 0.04684435 -0.017160438 0.017767686 -0.035314012 0.04531435 0.03341384 -0.04188704
0.016181247 -0.007096497 -0.01957306 0.02344217 -0.03919161 -0.06799354 0.026804117 0.053576883
-0.040766776 0.007105358 -0.07040095 0.06718559 0.017683746 0.05158979 -0.081410915 -0.028295824
-0.018633915 0.027284209 -0.057930835 0.023673303 -0.051049717 0.055643916 0.03927852 -0.004124577
-0.032873195 -0.026842516 -0.007194409 -0.05996166 0.039298546 -0.051858127 0.039819784 0.01293031
-0.036565095 -0.054953773 0.014019399 -0.022301817 0.017152255 0.06907984 0.013867098 -0.0068927053
0.010935685 0.01792156 -0.059943933 0.08571933 0.018237075 -0.043729957 -0.010213245 0.039770093
-0.028243199 -0.018871276 -0.011483211 -0.0018944899 0.035227526 0.026058761 -0.040303152 0.038335048

features.fc2.weight f4 [84, 120]
00000000: 6903 9fbd 3757 973d 6944 0abd 666c aebd
00000010: acaa 51bd 129f 0bbd 82cd 2bbd ef1b cbbc
00000020: 8ea2 233d ea65 bf3c e1d1 32bc 50a6 853c
00000030: b1e3 bcbb 6641 30bd 96a0 ce3c cb07 203d
00000040: a1d0 dfba 9be7 4ebd 481e a0bd 48c1 5f3d
00000050: 68e1 09bc 1ba4 993d bbfb 1fbd dba6 93bb
00000060: d3f2 663c b322 d93c 5d17 a53d f8cc 983d
00000070: e0ea 873b e64f 6cbd 5d06 a33d 47a6 133d
00000080: b846 14bd 2afc 903c 3748 fd3c 0669 e1bc
00000090: d095 bc3b 49b2 cc3b f0c8 b73d a28f 893d
000000a0: 2feb 5f3b cefe 7e3d 0dae c73c 7ca7 9fbd
000000b0: daa1 a7bd 7abd 2c3d 44a7 c3bc 1315 b7bd
000000c0: f191 1b3c c649 74bd d845 8f3c 2890 95bc
000000d0: e869 ad3d 6b34 21bd cd77 81bc a6dc 043d
000000e0: 0406 c23d 325b 673d c10d e93c 4f7e 933d
000000f0: bd3b 9ebc 72db 69bd 6604 90bd 3955 643c
00000100: 6374 fc3c a693 83bc e3ab 6a3d abd7 39bd
00000110: 801b 49bd 26d3 c1bc c8b0 6d3d 8991 93bb
00000120: 0335 a5bd a8af 563d a879 213b b1b2 64bb
00000130: 50dd 333d 2c5e 6fbd 8ade 9b3b 083b 8cbd
00000140: 9a12 01bd f379 ba3d 73b6 583d 81b3 413c
00000150: 98f7 e9bc 26d4 4b3d 1bb0 9a3d bd73 64bc
00000160: 52b9 b93c 3976 aaba 5935 9bbd 17c3 7a3c
00000170: 886c 943a e86c b8bc db3c 133d 2913 aabc
00000180: 3670 48bd 2f35 ac3d bf89 6cbd fe8d 9e3c
00000190: 2ca8 97bc 23de 7abd ab44 aebc b5aa f23c
000001a0: 8f93 9abc 474c 23bc 3a51 59bc c797 7a3d
000001b0: 94dc 323d f99a 6b3d 4875 ac3c 7cad a2bc
000001c0: efba 063d 246f d1bc c9cc 5e3d 9273 09bd
000001d0: abaf 293d 1c4e 7dbd 6635 4bbd 6da1 253c
000001e0: 3365 66bd 7b46 7abd 5d5c 363d 6b73 a53d
000001f0: eccb b93d 79f9 073d a95a c2bd cda0 78bc
00000200: 6b4d a03d bec3 c6bb eddb c0bd d1da 7dbd
00000210: 2a27 6abd cd6b ed3d 67ae 133c d20f 75bd
00000220: 34ea 183d 275b 00bd 626f 3bbb d539 99bc
00000230: 8753 d03c 89d2 9b3d 0f83 ab3d 1c01 7dbd
00000240: 588d 7bbd 7222 d23c bfb9 233d 3f7a 893d
00000250: 864a dcba 8cbc 923d d2b4 813c 8a22 97bc
00000260: cbfd 743c 2b9b 14bd 442d 803d f05b 37bd
00000270: 38bb 1ebd 23eb 9cbd 06f2 a1bc eaf6 82bd
00000280: b9c9 ae3d b674 f53b 681b b43d 1249 69bd
00000290: 7851 8ebd 4e02 ba3d 6ffe 3f3d dca2 9a3d
000002a0: 8cf3 20bd ee0a 2a3d 235d a63c 80d6 343d
000002b0: 0ca7 113d 5a21 7fbc 4e66 a1bd 00bc 6dbd
000002c0: e64d debb 8629 c23d bce9 ea3c d2a6 a0bc
000002d0: 3ba9 8fbd b369 8c3d 22c1 13bd 38bc bdbc
000002e0: f858 683d 96ef 7e3d edeb e13c c3f2 2b3c
000002f0: 794c a83d 4414 513d 80d3 fe3c d641 a13c
00000300: 78b1 a23a f619 1cbd c498 943c 89d8 94bd
00000310: 1389 ad3d d531 b03d 321d f73c 23c2 d73b
00000320: ce23 edbc ae1e a83d 70c3 ae3d 85ee 54bd
00000330: 10bc 4d3d 1515 7ebd f31b b13d b419 f33c
00000340: 16bd b03d 367e 93bd eb37 30bc 30da a4bc
00000350: 230d 37bc 85c8 b03d 993c 13bd e8d4 fe3c
00000360: 5747 97bb 11dc d9bc e4cb ca3d 34b0 d23d
00000370: a250 ad3b 4cfd a73d 6b40 103d a764 ce3d
00000380: d0db b6bc 6668 183c dfd5 81bc b3f4 a6bd
00000390: fce2 b4bc dce4 4e3d 9451 9d3b ea5f 223d
000003a0: a486 aabd 0913 bc3d 2956 9a3d baa0 f63d
000003b0: c9c7 a73d bffb 143d d528 be3d 162c 5a3c
000003c0: 8853 84bb 8b4b 14bd 8289 df3d c1f6 ef3c
000003d0: a827 923d 8c9b d43d 88d9 cbba 88c3 4cbd
000003e0: b5b0 58bd a2b2 7bbd 1ca6 783d 6a61 553d
000003f0: 0a21 403d c351 a9bd 03fc 153c d520 96bd
-0.07764322 0.07389682 -0.033756647 -0.08516769 -0.051188156 -0.03408725 -0.041944034 -0.024793593
0.039949946 0.023364026 -0.010914297 0.016314656 -0.0057644476 -0.04303112 0.025223058 0.039069932
-0.0017075726 -0.050513845 -0.07818276 0.054627687 -0.008415557 0.07502004 -0.03905843 -0.0045059747
0.01409598 0.026505804 0.08061097 0.0746097 0.0041478723 -0.057693385 0.07960198 0.036047246
-0.036200255 0.017698366 0.030918224 -0.0275159 0.0057551637 0.006246839 0.08973873 0.06716849
0.003416728 0.06225472 0.024374986 -0.07795617 -0.081851676 0.042172886 -0.02388347 -0.089395665
0.009495244 -0.05964067 0.017489359 -0.018257216 0.08467466 -0.03935663 -0.015804196 0.03243699
0.09473804 0.056483455 0.028448941 0.07201826 -0.019315595 -0.057094045 -0.07032089 0.013936334
0.030817216 -0.016061615 0.05729283 -0.045371693 -0.04909849 -0.023660254 0.05802992 -0.004503433
-0.08066752 0.052413613 0.0024639163 -0.0034896547 0.043912232 -0.05843942 0.0047567533 -0.06847197
-0.03151188 0.09105291 0.052908372 0.011822582 -0.028560445 0.049762867 0.07553121 -0.01394361
0.022671375 -0.0013005204 -0.07578535 0.015305302 0.0011323849 -0.022512868 0.03594671 -0.02076109
-0.048935138 0.084085815 -0.057748552 0.019354817 -0.018512808 -0.061247002 -0.021272978 0.029622415
-0.01886919 -0.009966916 -0.013263995 0.061179902 0.04366739 0.05752084 0.021052018 -0.019858114
0.032893118 -0.025565691 0.054394517 -0.033557482 0.041427296 -0.06184207 -0.04961147 0.010109288
-0.056248855 -0.06110237 0.04452168 0.08078655 0.09072098 0.0331969 -0.09489948 -0.015175057
0.07827266 -0.0060658148 -0.094169475 -0.061976258 -0.057166256 0.11592827 0.009013749 -0.05982954
0.03733273 -0.03133693 -0.0028600325 -0.018704334 0.025430454 0.07608516 0.08374607 -0.061768636
-0.061414093 0.02565119 0.039972063 0.0671277 -0.0016806878 0.07164869 0.015833292 -0.018449087
0.014953087 -0.036280792 0.06258634 -0.044765413 -0.038752764 -0.07662036 -0.019768726 -0.06394751
0.08534569 0.0074907197 0.0879429 -0.05695445 -0.06949133 0.09082471 0.046873506 0.07550594
-0.039294764 0.04151433 0.020308083 0.044149876 0.0355597 -0.0155719165 -0.07880841 -0.05804062
-0.0067841886 0.09480576 0.028675906 -0.019610796 -0.070147 0.06856098 -0.036072858 -0.023161039
0.056725472 0.062240206 0.027578318 0.010494891 0.08217711 0.051044717 0.03110671 0.019684713
0.0012412509 -0.038110696 0.01813925 -0.07267863 0.084734105 0.08603255 0.030165289 0.006584422
-0.028947737 0.08208977 0.085333705 -0.051985282 0.05022818 -0.062031824 0.08647909 0.029675342
0.08629815 -0.07201807 -0.010755519 -0.020123571 -0.011172566 0.08631996 -0.035946462 0.031107381
-0.0046166587 -0.026594194 0.0990217 0.10287514 0.005289153 0.082026094 0.035217684 0.10077792
-0.022321612 0.009302234 -0.015849052 -0.081521414 -0.02208089 0.050511226 0.0048009846 0.039642252
-0.08326462 0.09183318 0.07535965 0.12042375 0.08192403 0.036372896 0.09285132 0.013316175
-0.004038278 -0.036204856 0.109148994 0.029292466 0.0713647 0.10381231 -0.00155525 -0.04999116
-0.052902896 -0.061449654 0.06070529 0.052094854 0.04690651 -0.08267548 0.009154323 -0.07330481

features.fc2.bias f4 [84]
00000000: d089 183e ff72 d93b 8c37 3f3d cf17 783d
00000010: 3fd2 8c3d d984 9dbd beca a3bd 4a26 3f3a
00000020: 3864 c8bd 1723 563c f105 863d 7c6d 45bd
00000030: fb54 f9bc 32f6 413b 9c24 143d 759c 28be
00000040: 5ee1 c7ba 503f bbbd 2574 683e 6e01 a63c
00000050: d4a4 a1bd 7518 0e3e e0a5 fbbc 8254 96bd
00000060: 5f3e 633d 239a babb e27d eaba ee51 023e
00000070: f89a de3d 3bad 0c3e a400 99bd 328d c8bb
00000080: 274c 983d 2dd0 acbd 958b 06be e77c d1bc
00000090: 22a5 d1bd 090d ed3c 6032 6f3c 27c1 fc3d
000000a0: d94f 01be 72b4 a3bd d818 b0bc e19d 0a3e
000000b0: 747f 5b3d 0392 773d c1a3 b53d f312 54bc
000000c0: c0f4 47bd e66c 1b3d 7e64 33bd 725c 45bd
000000d0: e191 42bd e3cd 613d 96dc 683b 3108 e63c
000000e0: ff59 2f3e 14bc 223d c13c 3cbd 6b75 d1bd
000000f0: f5a7 443e 0e9e 9a3c f433 d93d 5953 873a
00000100: 46dd dcbc 6118 ed3d a19f 273e 919e d83d
00000110: 45c5 a7bd 99f7 8fbd 7e5f cebd 1725 3f3e
00000120: da64 9a3d f342 e5bc 4f34 813c 47e8 fcbc
00000130: 7cd4 0b3c 0a9e b8bc 6770 3bbc 966c d53d
00000140: 5337 efbc e1c9 86bd b0a7 a0bd 470f 01be
0.14896321 0.006636023 0.046683833 0.06056958 0.06876039 -0.07691354 -0.079976544 0.00072917773
-0.0978474 0.0130698895 0.06544102 -0.048200116 -0.03043603 0.0029596207 0.036167726 -0.16465934
-0.001524966 -0.09142935 0.22700556 0.020264354 -0.078927666 0.13876517 -0.030718744 -0.07340337
0.055479404 -0.005694644 -0.0017890299 0.12726566 0.10869402 0.13737957 -0.07470825 -0.0061203474
0.074364 -0.08438144 -0.13139184 -0.025572253 -0.10236575 0.02893688 0.014599413 0.123415284
-0.12628116 -0.079934016 -0.021496221 0.13536789 0.053588346 0.060441982 0.08869124 -0.012943971
-0.048817396 0.03794565 -0.04379701 -0.048183866 -0.047502402 0.05512799 0.003553187 0.028080078
0.17124175 0.039730147 -0.045956377 -0.10227474 0.19204696 0.018874194 0.106056124 0.0010324522
-0.02696098 0.115769155 0.16369487 0.10577119 -0.08191923 -0.070296474 -0.100768074 0.18666492
0.07538767 -0.027986025 0.015772013 -0.030872477 0.008534547 -0.022536296 -0.011440373 0.10421102
-0.029201185 -0.06581474 -0.07844484 -0.12603484

l1.weight f4 [84, 84]
00000000: be7d a3bd 4f19 783d bd06 a9bd 66af b33d
00000010: f20e e93d 3499 ee3b a35e c7bd b9b2 293d
00000020: 63d5 92bc 7039 adbd 100e 4e3d 6de7 12bd
00000030: 4dc5 543d a5e7 3a3c 6c71 b33d 5205 ebbd
00000040: a83f ba3d b9f9 f73b cb26 933d d924 6fbc
00000050: a064 383d 284e a33d daf4 adbd 002d b23d
00000060: 9332 eebc e1c8 a03d 1400 0c3d c456 783c
00000070: f60f 07bd def5 8ebd b314 e23b 8452 de3d
00000080: 21fb 153d 4d6c 963b 0dd5 c13d 2f1b 5bbd
00000090: 224d 64bd 52b4 a3bd 05c5 21bd e4be ea3d
000000a0: 920a 9f3d 4ba3 f43c 4f10 0ebd abd6 023e
000000b0: 85e5 1cbd 70ce 013b acf0 663b c24e a83d
000000c0: 57ba 8d3d 6091 37bc 7b35 95bd c193 283d
000000d0: c4ef 9c3d cdae 8c3d 7cf0 a8bd 6cb3 dbbd
000000e0: 4a35 b0bd 7d9c e9bd bf12 95bd bf66 933c
000000f0: 743a 3c3d f0d5 a83d b604 133d 3aab 8bbd
00000100: cc31 f13c cead 03bd 2957 bdbd 5559 653d
00000110: 6e4e 933d 1087 64bd 229f ce3d 2ab0 a33d
00000120: b212 553d eb46 393b b877 bf3d 2587 df3d
00000130: b19a fd3c 4439 6dbb 3263 f63d e5d6 ab3c
00000140: c9cc afbd 17e9 873d 77ce 6abd 8ce0 c0bc
00000150: 0bd8 b8bc d6da 913d 13af c13c 229c 93bd
00000160: 9adf b53d 73b4 47bc ca8f 48bd 4490 c83d
00000170: ea8f d33c f7ce c9bd 80ae 713d a46b 9f3d
00000180: df61 a5bd 33e8 97bc 032c ea3b 7b18 903d
00000190: a757 87bd 4dd3 dabd 085a 4ebd fae7 363d
000001a0: 98fc 60bc df1f 9f3c e61e 83bd 2477 27bd
000001b0: 658a 583c fc91 873c a3cc cebd 0e5b 5fbd
000001c0: 8b7e 493d 079d b93d 3ac8 523d 99db c73d
000001d0: 3ee6 aebd 1871 aebd 4bfe 9cbd 839d e7bd
000001e0: d804 613c ef87 d7bd fa0a 8d3d 5418 c93d
000001f0: d67c 2b3c c38c 503c fcb3 3b3d b37f bd3d
00000200: 4e80 773d 7cf4 d4bc aef2 ddbc d365 8dbd
00000210: 63fc 8d3d 0ddd d5bd 8413 12bd b6a8 0a3d
00000220: 715e c03d e688 d93d 4d66 cdbc b75b 803d
00000230: 08c9 c8bd 4b77 96bd aa8c 483d e8ae eebc
00000240: 6de9 b43d a19d c53d 4e4a 51bd b431 71bd
00000250: 1837 9d3c 1081 adbd da9d 91bd 2060 9a3d
00000260: f418 a7bc 6d45 aabd 45bc 7e3d 5cdc b9bd
00000270: 6751 213d 8477 dabd b543 9b3a 61d2 dd3c
00000280: e767 c9bd 73f2 1bbd dfc0 01bd 425e a5bd
00000290: fde2 d3bd 7df9 2dbd a1c8 bcbd 5882 44bc
000002a0: ed21 f43d 58e9 493d 7403 e1bb 20bb 1b3d
000002b0: 0d92 043d 2dab d43c d47b 9d3d 3950 3dbd
000002c0: 08c7 15be 1aaf 0fbd e40a b63d c2c0 043d
000002d0: 6300 eb3b 273b 4dbd dbfc 913c e194 15bd
000002e0: cacf 9cb9 c7dd 693d 08be f8bc 39df c13d
000002f0: c553 103c 3ed7 43bc d7e0 9c3b 2460 0bbd
00000300: 2810 b33b 2aa7 0cbd 1c10 61bd 7d46 92bd
00000310: 8d79 d2bd 0ac7 253d 9359 8e3d 4d02 c63d
00000320: 934f 923d cc5a 283d 4634 d0bd 11a4 a6bd
00000330: 2edd 303c b9da 983d 18ed 2dbd ed31 cbbd
00000340: f8fe 9bbd ff47 ed3d 1440 81bd c179 bc3d
00000350: 8714 363d aeae c73d ded9 6a3d ff9d b0bd
00000360: 11c4 07bc d1ec b4bd 373e dbbd 1420 1bbd
00000370: c594 b6bc eb20 a0bc 251f d73d e4ff c93d
00000380: 79ab 883d 8c47 2ebd 3281 38bd 9605 e43c
00000390: 5e51 3d3d e5e9 3d3d 9be3 9a3d 9f1c bcbd
000003a0: 156c 953d 51b0 b13c c24e c33d 9a68 0b3d
000003b0: 17e9 afbb 3563 333c 91ff df3c 352e f93d
000003c0: 1f20 00bb 9302 99bb 4df2 ffbc df9e 50bd
000003d0: 56bd a3bd 1e5c 283d a85b ef3d 12bf 943d
000003e0: 7b17 a13a f0ae 563d e99d c7bc 1f78 423c
000003f0: da2b bb3d e86d 673d 2364 fa3b d9ff d13d
-0.07982968 0.06057101 -0.08253238 0.08773689 0.11379804 0.007281447 -0.097348474 0.04143021
-0.017924016 -0.08458221 0.05030638 -0.035865236 0.051945973 0.011407767 0.08761868 -0.11475624
0.09094173 0.007567611 0.071851335 -0.0145961875 0.04501784 0.079738915 -0.08493967 0.08699989
-0.02907685 0.078508146 0.034179762 0.015157405 -0.032974206 -0.06980489 0.00689944 0.10855582
0.03661645 0.004590547 0.09464464 -0.05349272 -0.055737622 -0.07993378 -0.039494533 0.11462191
0.07765688 0.02986302 -0.03468352 0.12777202 -0.038304824 0.0019806884 0.0035238666 0.08218147
0.06920307 -0.011204094 -0.07285591 0.041156534 0.07662919 0.06869278 -0.08248994 -0.107275814
-0.08603914 -0.11406801 -0.07278966 0.01799333 0.045954183 0.0824393 0.035893165 -0.06819768
0.02944269 -0.032148175 -0.0924514 0.055993397 0.07192694 -0.05579287 0.10088946 0.07992585
0.052019782 0.002827103 0.093490064 0.10914449 0.030957552 -0.0036197463 0.12030639 0.020976493
-0.085839815 0.06636255 -0.057325806 -0.023544572 -0.022563955 0.07121818 0.023643052 -0.07207514
0.08880539 -0.012189019 -0.048965253 0.097931415 0.02582546 -0.098539285 0.059004307 0.07784203
-0.08075308 -0.018543338 0.00714636 0.07035919 -0.06608515 -0.10684834 -0.05037883 0.044654824
-0.013732098 0.019424377 -0.06402378 -0.040885106 0.01321659 0.016549103 -0.10097625 -0.054530196
0.049192946 0.09063154 0.051460482 0.09758682 -0.08540009 -0.08517665 -0.0766569 -0.1130934
0.013734065 -0.10523974 0.06886859 0.09819093 0.010466775 0.012728873 0.045825943 0.09252872
0.060425095 -0.025995485 -0.027093258 -0.06904187 0.069329046 -0.10442553 -0.035663143 0.0338523
0.09393013 0.106218144 -0.025073195 0.06267493 -0.09803969 -0.07346972 0.048962273 -0.029136136
0.08833585 0.09649206 -0.051096253 -0.05888529 0.01919131 -0.08471882 -0.07110186 0.07537866
-0.02039764 -0.08314023 0.062191267 -0.09075233 0.039384272 -0.10667327 0.001184574 0.027077856
-0.09834271 -0.038073014 -0.031678077 -0.08074619 -0.10346029 -0.04247426 -0.092179544 -0.011993967
0.11920533 0.0492948 -0.0068668667 0.038020253 0.032365847 0.02596053 0.07689634 -0.046219084
-0.14626706 -0.0350791 0.08888796 0.03241039 0.007171677 -0.05010524 0.017820766 -0.036518935
-0.00029909454 0.05709627 -0.030364051 0.094664045 0.008809035 -0.011953173 0.004787545 -0.034027234
0.0054645725 -0.034339108 -0.054947004 -0.07142351 -0.1027709 0.04047302 0.06950679 0.096684076
0.07144084 0.041102216 -0.1016622 -0.08136762 0.010794921 0.07463593 -0.04246244 -0.09921632
-0.07616991 0.11585998 -0.0631105 0.0920291 0.04445317 0.097501144 0.05733668 -0.08623885
-0.008286492 -0.08834232 -0.10705226 -0.03787239 -0.022287736 -0.019546947 0.10503987 0.098632604
0.06673331 -0.0425487 -0.045045085 0.027834695 0.046220176 0.046365637 0.075629435 -0.091851465
0.07296006 0.02169052 0.09536506 0.034035303 -0.0053683626 0.010948946 0.027343543 0.121670164
-0.0019550396 -0.0046694963 -0.031243468 -0.05093276 -0.07995097 0.041103475 0.11687404 0.07263006
0.0012290323 0.052412927 -0.02436729 0.011869459 0.091392234 0.0565013 0.0076413318 0.10253877

l1.bias f4 [84]
00000000: 6aec 8a3c ddbc 2bbd a360 9c3e e064 6ebd
00000010: c639 0f3c 7946 07bd 549c 133e 235c acbc
00000020: 2d68 ea3e c821 55bc ea15 9f3d b50e 203e
00000030: 5f5d ef3d 98cf a0bc dc07 183e ebe5 23bb
00000040: 48d7 7a3d c1c1 89bc 824b 0e3e 3476 cabd
00000050: 0c4c 72bd aaa3 bdbd 7321 013e 045d 273e
00000060: 7344 c9bb d3da 453e e91c bb3d 03c5 a2bd
00000070: 6210 653e a8f2 40bd ebe0 95bd 399f 9c3c
00000080: 5dad 393e 31d5 ba3e 2108 843d ea75 d93e
00000090: f7e5 51bd bd83 86bc eaab 1ebd 3318 a03c
000000a0: 1cd7 28bb 9011 abbd 6fff 1a3d 45d6 a9bd
000000b0: 3f7c 90bd 6a9f 203d c981 1bbe 8d0c b7bd
000000c0: c091 013e 6be1 4cbd d47a b63d fa1c a93c
000000d0: 5759 edbc 962d b0bd 3f79 853e 3a2c 9abd
000000e0: f682 893e 617f 25bd 8245 f23d 29dd 38bd
000000f0: cf08 87bd c1b6 ae3d 1560 6fbc 931b c1bd
00000100: 7ca3 ea3c 0855 adbd b654 69bd 0000 f33b
00000110: 4afe e13d 2f24 49bd 7d55 993e 65bf 853e
00000120: 69bb 01bd 0ac0 a5bd d045 d33c cb14 42bb
00000130: ef63 963d e59f 243e 6072 d53e 591c 67bb
00000140: db35 c83d dcbe f43d 53a1 a3bd dc67 2e3e
0.016958434 -0.04192816 0.30542478 -0.05820167 0.008741802 -0.033026192 0.14415103 -0.021040028
0.45782605 -0.013008542 0.07767852 0.1563061 0.11687731 -0.019630238 0.14846748 -0.0025008868
0.061240464 -0.016816022 0.13895991 -0.09885827 -0.059154555 -0.09259732 0.12610416 0.16344076
-0.006142193 0.19321756 0.091363735 -0.07947733 0.22369531 -0.047106415 -0.0731829 0.019118892
0.18132539 0.36490777 0.06446863 0.42472774 -0.051244702 -0.01642024 -0.03873817 0.01954279
-0.002576298 -0.08352959 0.037841257 -0.08292822 -0.07054948 0.03921453 -0.15186228 -0.08937941
0.12653255 -0.050019663 0.08910146 0.0206437 -0.028973265 -0.08602445 0.26069066 -0.07527967
0.26857728 -0.04040468 0.11829664 -0.04513279 -0.06593477 0.08530951 -0.01461031 -0.094290875
0.028642409 -0.08463484 -0.056965552 0.0074157715 0.1103483 -0.049106773 0.29948035 0.26122585
-0.03167287 -0.08093269 0.025790125 -0.0029614444 0.073432796 0.1607662 0.41688824 -0.00352647
0.09775897 0.11950466 -0.079897545 0.17031807

l2.weight f4 [256, 84]
00000000: f636 903d 080f 993d f2e6 d93d 7818 55bd
00000010: fa14 cabc 18c9 d73d a3bd 23bd 1dcf 343d
00000020: b424 2e3d c24d 683b e3a6 53bb a657 433d
00000030: 3c19 68bd 1501 87bd cf87 613d 6bb8 c03d
00000040: acaa acbd 93ff 92bd 15dc c03d 3aee b13d
00000050: 7f8a 99bd 4cb8 66bd 352e 87bd 818a 32bc
00000060: 6508 cabd 987b d4bd c534 b5bd b22b 6f3c
00000070: e293 d13d 8dcd c9bc 55fb d4bd be3d 7a3d
00000080: 148e ca3c 6eb5 3f3d 78f4 a4bd 532e b13d
00000090: 5a25 8e3c a6ca cb3b 213f 9abd 3fe3 363d
000000a0: 0360 0fbd f3d8 cfbd 271d 4a3d d79b 31bd
000000b0: 1484 ab3d f2b8 3dbc 22a9 533d f3ae dcbd
000000c0: 7e09 543d 7fa5 9cbd b823 cf3d 1d56 8d3d
000000d0: 96ec d6bb b038 cf3d 4c2e b93d 86f3 b13d
000000e0: 7ef6 003e ac23 993d c149 ccbd 12e2 b4bd
000000f0: 7e30 0dbd 4504 643d ac32 1e3d 0668 b33d
00000100: d02c 97bd bffd 043d 4da4 73bd bf60 243d
00000110: dbda 8ebd 6130 bd3d 65a4 4d3d 2c01 ce3d
00000120: ef76 bc3d 2af0 ad3d 8d8c 003a ee6e 4c3d
00000130: 2f2d b5bd 471a d63c cf91 f13d 3550 57bb
00000140: 87fd b53d 9041 8d3c 754b 663a e4d5 dc3d
00000150: 2889 b23c 08f8 3f3d e5ce 853d 33c4 0e3d
00000160: df33 a13d 176c bbbd f0e9 db3c b91b 8f3d
00000170: f43c 833d 8178 0c3d 7ce2 883c 70eb b1bd
00000180: a5ae 373b 89a5 a03c b6e2 f13c 5772 2cbd
00000190: a122 eb3b 1eb4 f23c 2c06 80bd f0ef 4b3d
000001a0: 21ae 89bc 5375 0abc 03a3 a6bd 6474 383d
000001b0: 3692 62bd 77db b3bd e868 40bd 87d9 0f3d
000001c0: 1ad7 863d 92dd 05bd a09e d8bd 2475 0fbb
000001d0: b076 af3d b5f0 a9bd f3ea bc3d 1537 d93d
000001e0: 73e0 b2bc cae1 863d 52c9 d33d ab2f 9abd
000001f0: b43e 9abd 3c58 753c c421 ce3c adf8 0b3d
00000200: 10de b53d f740 a3bb 5c4e 903d 01ff 233b
00000210: 351b 9b3d ee7e 5a3d b400 28bd 7070 a0bd
00000220: 3cbb 413d a333 c4bd 6320 0d3d 08c1 d6bd
00000230: 4e8f 7abd 3a76 a5bd 9e38 0bbd 1fc7 57bc
00000240: 2a98 24bd 6d9e bdbd b42a 8b3c b0b7 963d
00000250: 647a dbbd 83a7 823d afcf b43d ca87 ce3b
00000260: 355a e9bd e529 d7bd 8df7 efbd e58b c33c
00000270: 5d68 4b3d 55bf 473c 091a 39bc ac23 f9bc
00000280: e771 c7bc 6460 3b3d 6aea c63d 5764 a6bd
00000290: 3307 c7bc adc9 a43d 0c34 b03d d1a7 8e3d
000002a0: db8c 96bd 152e 9c3d de00 c93c 5370 c6bd
000002b0: d158 943d 942b 72bd c00c 7ebd d014 583d
000002c0: 6686 0a3d 2b38 90bd 05cd 023d 6da4 e2bd
000002d0: 4a89 48bd a715 8b3d 7864 e0bc cd42 d0bd
000002e0: 8db9 9a3d 0013 ab3c 9b9d 45bc 9156 573d
000002f0: 6bd2 c23d 1ff7 3f3d 26b0 aebd fdf4 dcbc
00000300: 9dee a8bd 37c9 cf3d 8ec1 853d 9230 72bd
00000310: ff20 b4bd ecec 8b3c 56a6 2b3d 487f 0fbd
00000320: 1f65 833d 4ee5 f93b c551 d7bc 0f50 a93d
00000330: 084a 00bd 8da9 f03c 66d6 d7bd c90d 85bc
00000340: 48ba a1bc 7c1c 163d 8408 2abd 7d07 c63d
00000350: f6c2 bbbd d5a0 de3d d442 b5bd 8a79 f3bc
00000360: 482c 9ebd 8c58 98bd 5519 93bd 7cc1 d0bd
00000370: 429c 143d cb6c b63d 53aa 9b3d 266f 3c3d
00000380: ba5d a33d b14d ae3d 0063 a6bc ecf0 85bd
00000390: a85c 123d 3c56 db3d 9011 adbd 9265 abba
000003a0: d5a6 ccbd b084 d63d 6501 2bbd b4ae 8d3d
000003b0: 4730 803d cebd 40bd f2de d03d c42d e73c
000003c0: 825f ff3c 63f9 a8bd 22f2 c6bd 08b8 d6bd
000003d0: 14ff 653d 9879 fcbd 2e24 9dbd 1fcc fc3c
000003e0: 7072 323d 77fa 2f3d 0264 efba f7a0 73bd
000003f0: 1a20 c3bd 552d 103d bd42 813c 893d ccbd
0.07041733 0.0747357 0.106397524 -0.05202529 -0.024668206 0.105364025 -0.039975774 0.04414283
0.04251547 0.0035446738 -0.0032295517 0.04769101 -0.05666469 -0.06592003 0.055061158 0.09410175
-0.084309906 -0.07177653 0.09416977 0.08688016 -0.07497119 -0.056328103 -0.0660061 -0.01089728
-0.098648824 -0.10375136 -0.088479556 0.01459782 0.102332845 -0.024634147 -0.103995 0.06109404
0.024725951 0.046803884 -0.08054441 0.08651414 0.017351795 0.006219226 -0.07531572 0.044650313
-0.035003673 -0.10148802 0.049344208 -0.04336151 0.08374801 -0.011579739 0.05167497 -0.107755564
0.051766865 -0.076487534 0.10114235 0.069011904 -0.006558965 0.10118234 0.090420336 0.086890265
0.1259403 0.07477507 -0.09975005 -0.08832182 -0.034470074 0.055668134 0.038622543 0.08760075
-0.07381594 0.032468554 -0.05948286 0.040131327 -0.06975337 0.09237743 0.050205607 0.10058817
0.09202372 0.08493073 0.0004903756 0.04991048 -0.08846509 0.026135577 0.11795389 -0.0032854204
0.08886247 0.017243177 0.00087850477 0.10782984 0.021793917 0.0468674 0.065336026 0.03485508
0.07871222 -0.09151476 0.026844949 0.069877096 0.0640811 0.03429461 0.016709559 -0.08687484
0.002802768 0.019610183 0.02952705 -0.04210123 0.007175759 0.029626902 -0.06251177 0.04978937
-0.016806664 -0.008450824 -0.08136561 0.045032874 -0.05531522 -0.08782094 -0.046975046 0.03511956
0.06583996 -0.03268201 -0.1057713 -0.002188989 0.0856756 -0.08297864 0.092245005 0.10606209
-0.021835541 0.065860346 0.10341133 -0.07528623 -0.07531491 0.01497465 0.025162585 0.034172703
0.08880246 -0.0049821096 0.07046196 0.002502382 0.07573549 0.053343706 -0.041016296 -0.07833946
0.0472977 -0.095801614 0.034454715 -0.104860365 -0.061171822 -0.080791906 -0.03398954 -0.013170033
-0.040184177 -0.09258733 0.016988136 0.07359254 -0.107167035 0.063796066 0.08828675 0.0063028084
-0.11394159 -0.105060376 -0.117171384 0.023870418 0.049660075 0.012191613 -0.011297711 -0.030412517
-0.024346305 0.045746222 0.0971268 -0.08124607 -0.024295425 0.08046279 0.08603677 0.06965602
-0.07351085 0.07625977 0.024536546 -0.09689393 0.07243503 -0.05912359 -0.062023878 0.052754223
0.03381958 -0.07041963 0.031933803 -0.11066518 -0.048959054 0.06791239 -0.027391657 -0.10168991
0.07554922 0.020883083 -0.012061502 0.05257279 0.0951279 0.046866532 -0.085296914 -0.026972288
-0.08248637 0.101458006 0.06531058 -0.05912835 -0.08795356 0.017080747 0.041906677 -0.035033494
0.06415772 0.007626212 -0.026284108 0.08267223 -0.0313206 0.029377723 -0.1053894 -0.016241925
-0.019742146 0.03664826 -0.041512027 0.09669397 -0.09168045 0.1087052 -0.08850637 -0.02972104
-0.0772329 -0.07438764 -0.07182566 -0.10193154 0.03628183 0.08907469 0.07600846 0.046004437
0.07976861 0.08510912 -0.020310879 -0.06540093 0.035732895 0.10709807 -0.084506154 -0.0013076535
-0.09992758 0.10474527 -0.041749377 0.069180876 0.06259208 -0.04705601 0.101987734 0.028220065
0.031173471 -0.08250692 -0.09714152 -0.1048432 0.056151465 -0.1232788 -0.07672916 0.030859051
0.043566167 0.04296347 -0.0018264058 -0.05947968 -0.09527607 0.035199482 0.015778894 -0.099726744
